models/classifier.pth (torch, 321975 bytes, 8 tensors)

model.0.weight f4 [256, 148]
0.02820897 0.05100819 -0.003997053 -0.06949172 -0.033271894 -0.022390084 -0.005548645 0.04009822
-0.01589478 -0.019843977 0.055693783 0.01665306 -0.030844485 0.005810379 -0.009753094 0.024862336
0.017889509 0.011212996 -0.06517996 -0.03143898 -0.024134334 0.04931548 -0.02996047 0.04318342
0.077187024 -0.006740609 -0.0060006334 -0.06802965 0.044609223 0.03732234 -0.053031363 0.05793941
-0.062005114 0.04429645 -0.057589162 -0.05583953 0.070889406 -0.03108308 -0.038699925 0.020755239
-0.022109747 0.03528992 -0.05831977 0.07053331 0.07285809 0.07227682 -0.047682352 0.050344266
-0.041956387 -0.038422115 -0.04399158 -0.050534796 0.010443501 -0.07119253 0.034799732 -0.0286741
-0.0023763776 -0.06680177 0.035768926 -0.07911803 -0.015073486 0.02329915 -0.014624678 -0.058170818
-0.06550899 0.049597405 -0.003947817 0.02590365 0.0360056 -0.010769539 -0.010056436 0.048367657
0.016755082 0.021140747 -0.024611399 0.06694687 -0.045068495 0.072719626 0.07432187 -0.015000328
-0.021699525 0.023034051 -0.03451513 -0.030012988 0.07129411 -0.07278972 0.06428044 0.031230003
0.016265705 -0.023660362 0.05174928 -0.07236563 -0.054438323 0.039430983 -0.0030480772 0.047829635
-0.03119073 0.027694784 -0.03941069 -0.03409699 0.037639648 0.03990128 0.033664905 -0.012343109
-0.0019243062 -0.008924909 -0.008017987 -0.0005521327 0.047344916 0.042142883 -0.036583953 0.022166513
0.047650166 0.0081578195 0.011362806 0.02168496 -0.028151315 0.05428178 0.048941307 0.0037284717
0.053342648 -0.015066616 0.06647774 -0.018495612 0.036092475 -0.05971814 0.011017807 0.023442969
0.008965895 -0.010972403 0.034163885 0.016274996 0.0554801 0.067886986 0.055074476 -0.059589088
0.073631205 0.05490216 -0.04898418 0.02445282 -0.055558752 0.041507147 -0.0195432 0.06925746
-0.049037587 -0.0634778 -0.002070114 -0.04568183 -0.01551865 0.012485305 0.0117827905 0.0662379
-0.06283913 -0.028175863 0.023219638 0.09290986 0.06259096 0.08572112 -0.06234959 0.090153426
0.02128756 0.08903387 0.0058883717 0.071613714 -0.034384407 0.08798627 -0.04582124 -0.047548138
0.071049556 -0.07124593 -0.02493205 0.0139217125 0.03751021 -0.0027354828 -0.039616372 -0.0716634
0.08190987 0.02842974 0.085315116 0.035785276 -0.025773058 -0.015470207 0.016379662 0.07749394
-0.0074501783 -0.025408033 0.038256526 0.026868537 0.06769245 0.06677168 0.062363707 0.007815547
-0.0531239 0.013150141 0.011089541 -0.0594265 0.074968286 0.030371219 -0.06912206 0.019885905
0.05520264 -0.06194137 0.062294357 -0.077559866 -0.080012515 -0.02585122 -0.06297581 -0.034299545
0.068945624 0.06857402 -0.008253053 0.053731225 -0.05042353 0.034192644 0.024618499 0.06419388
0.0031293705 0.018949375 -0.003706567 0.00464797 -0.03199341 -0.037302822 0.07580296 0.069288366
-0.023750648 0.035837114 0.055332787 -0.06138007 0.029412381 -0.0034772903 0.0019023567 -0.007102184
-0.011136986 0.07452688 0.044482328 -0.03983569 -0.077204235 0.012201905 -0.04273312 -0.06920426
0.016174614 -0.07005083 0.018341213 0.04105424 0.04894013 -0.00592795 0.046358608 0.06503167
0.0063403174 -0.055406693 -0.07259697 -0.08008995 -0.061015353 -0.06938405 0.0061100647 -0.06635623
00000000: 7f16 e73c f7ed 503d b6f9 82bb ad51 8ebd
00000010: 1c48 08bd 696b b7bc 68d1 b5bb 083e 243d
00000020: c535 82bc d68f a2bc 2a1f 643d 006c 883c
00000030: 93ad fcbc fe64 be3b 71cb 1fbc 19ac cb3c
00000040: 058d 923c b7b6 373c 127d 85bd 29c6 00bd
00000050: 5eb5 c5bc 07ff 493d a96f f5bc 19e1 303d
00000060: 3b14 9e3d 54e0 dcbb f6a0 c4bb 2153 8bbd
00000070: 29b8 363d 4fdf 183d 6a37 59bd e051 6d3d
00000080: 13f9 7dbd 3270 353d 9de2 6bbd feb7 64bd
00000090: 772e 913d f2a1 febc d083 1ebd e406 aa3c
000000a0: 801f b5bc 2a8c 103d b6e0 6ebd c573 903d
000000b0: 9f36 953d df05 943d 924e 43bd ca35 4e3d
000000c0: 76da 2bbd 8260 1dbd 8430 34bd 93fd 4ebd
000000d0: 381b 2b3c 64cd 91bd 2a8a 0e3d f2e5 eabc
000000e0: 00bd 1bbb 5ecf 88bd 7082 123d a208 a2bd
000000f0: c8f6 76bc dcdd be3c 589c 6fbc 8644 6ebd
00000100: 9429 86bd a626 4b3d b05c 81bb e433 d43c
00000110: 9c7a 133d b872 30bc c0c3 24bc 2a1d 463d
00000120: f441 893c 5c2f ad3c d89d c9bc 711b 893d
00000130: be99 38bd 07ee 943d 1136 983d f0c3 75bc
00000140: 34c3 b1bc e8b1 bc3c bd5f 0dbd ccdd f5bc
00000150: a502 923d c712 95bd 77a5 833d 10d6 ff3c
00000160: a83f 853c 60d3 c1bc 0ef7 533d 6e34 94bd
00000170: b8fa 5ebd 6282 213d 40c2 47bb 02e9 433d
00000180: b483 ffbc 2ce0 e23c 1b6d 21bd 49a9 0bbd
00000190: 082c 1a3d 866f 233d 36e4 093d c03a 4abc
000001a0: 0039 fcba c839 12bc e05d 03bc 00bd 10ba
000001b0: beec 413d 049e 2c3d 0ed9 15bd 8c96 b53c
000001c0: d22c 433d 60a8 053c 102b 3a3c a8a4 b13c
000001d0: 969d e6bc 9256 5e3d ae76 483d 6059 743b
000001e0: d27d 5a3d f8d9 76bc 7b25 883d 1c84 97bc
000001f0: b4d5 133d 029b 74bd 0884 343c 780b c03c
00000200: b0e5 123c 98c5 33bc 6eef 0b3d 2453 853c
00000210: 1a3f 633d 5508 8b3d c695 613d b013 74bd
00000220: f5cb 963d 16e1 603d a3a3 48bd 4851 c83c
00000230: 9391 63bd 6603 2a3d 1019 a0bc dbd6 8d3d
00000240: a3db 48bd a600 82bd c0aa 07bb df1c 3bbd
00000250: f041 7ebc 2a8f 4c3c 9b0c 413c bca7 873d
00000260: cdb1 80bd 11d1 e6bc 1c37 be3c 8647 be3d
00000270: b02f 803d 8e8e af3d 4962 7fbd 5ca2 b83d
00000280: 4063 ae3c 6457 b63d 3ef3 c03b 36aa 923d
00000290: aad6 0cbd 2532 b43d 0daf 3bbd d6c1 42bd
000002a0: 6e82 913d 63e9 91bd 4c3e ccbc e517 643c
000002b0: 4ea4 193d c945 33bb c744 22bd 43c4 92bd
000002c0: 5dc0 a73d 7ce5 e83c b1b9 ae3d 9593 123d
000002d0: 0522 d3bc c076 7dbc a42e 863c 25b5 9e3d
000002e0: a020 f4bb 8224 d0bc e0b2 1c3d 681b dc3c
000002f0: 57a2 8a3d 97bf 883d 1671 7f3d c80c 003c
00000300: 7298 59bd b073 573c e8b0 353c 3469 73bd
00000310: f988 993d 10cd f83c de8f 8dbd c4e7 a23c
00000320: 2a1c 623d 3cb6 7dbd 5e28 7f3d b5d7 9ebd
00000330: 9add a3bd f0c5 d3bc 76f9 80bd ae7d 0cbd
00000340: 5d33 8d3d 8970 8c3d d037 07bc 4615 5c3d
00000350: e788 4ebd 960d 0c3d bcac c93c 1578 833d
00000360: 2016 4d3b b83b 9b3c e0e9 72bb 004e 983b
00000370: 860b 03bd d8ca 18bd 953e 9b3d 0fe7 8d3d
00000380: b890 c2bc f0c9 123d a2a4 623d ab69 7bbd
00000390: 3cf2 f03c 40e3 63bb 8058 f93a 70b9 e8bb
000003a0: e877 36bc 8da1 983d 1a33 363d c02a 23bd
000003b0: 411d 9ebd 80ea 473c ed08 2fbd f7ba 8dbd
000003c0: a080 843c cf76 8fbd 5040 963c 7e28 283d
000003d0: 7275 483d 403f c2bb 86e2 3d3d 532f 853d
000003e0: 70c2 cf3b 21f2 62bd b8ad 94bd 3306 a4bd
000003f0: 3ceb 79bd 3a19 8ebd f036 c83b c6e5 87bd

model.0.bias f4 [256]
-0.026323479 0.048867814 0.073188394 -0.07128015 -0.04277773 0.028251136 -0.045854043 -0.07390783
-0.06079435 0.060315587 -0.06615363 -0.03154104 -0.07638329 -0.049349397 0.011383072 0.06837069
-0.04030748 -0.0731178 -0.02788041 -0.06618103 -0.07677936 -0.026844095 -0.01691564 -0.054287065
-0.017775247 -0.049114197 0.017909251 0.040262386 -0.047152415 0.00022732414 0.0117584765 -0.03175321
-0.026987545 -0.075290024 -0.049237188 0.0091441795 -0.08334916 -0.028529054 -0.071433716 -0.008266624
-0.0657838 -0.052210968 -0.007839203 0.054161616 -0.07691276 -0.060522035 0.07547098 -0.038969364
0.0548312 -0.07835458 -0.001636815 -0.08161542 0.05815449 0.04472195 -0.04290671 -0.05477319
0.070271805 0.038247637 -0.06599205 -0.08701233 -0.0037455559 0.012079351 -0.08134193 -0.07096555
0.05047328 0.070018135 0.051143605 0.019705651 0.020782178 0.005702886 0.08117255 0.022471773
-0.009870228 0.011891999 0.06136196 -0.066753544 -0.0678593 0.065817535 0.037720867 0.041024756
-0.08861299 0.0030129938 -0.03595517 0.013570082 -0.053500142 0.0028687809 -0.023362597 0.005912317
0.017091699 0.02126679 -0.067562684 -0.010428615 -0.021898411 -0.01629145 -0.025069345 0.06063784
-0.022493755 -0.057881348 0.06777627 0.03844758 -0.042078495 -0.07209692 0.021888683 -0.05676103
0.051646087 0.026001155 -0.0041626617 0.07148555 -0.030116025 0.048575558 -0.05055384 -0.04868265
0.020375475 0.07258915 0.03375171 -0.0059489454 0.031958196 0.036528967 0.02147407 -0.077415556
-0.030426035 -0.06147775 -0.024445398 -0.048062623 -0.066692114 -0.054242402 0.045986064 -0.024640858
-0.07496758 0.057660498 -0.07494576 -0.037754577 0.0043748994 -0.027199848 -0.051788893 0.08173949
0.03244026 -0.031151243 -0.011664935 -0.013482548 0.0508605 0.029996576 -0.0322764 0.060206957
-0.0051249564 0.006042078 -0.0029429516 -0.017699441 0.022561837 0.009287515 -0.06492523 0.06997745
0.038296986 -0.071698904 -0.008455999 0.012361807 0.061516516 0.034922592 -0.017915435 0.036156755
-0.009392338 0.032773927 0.06575478 -0.007718608 -0.07275738 0.047173742 0.017838517 0.058120437
0.069389604 -0.025728967 0.077136785 0.009436901 -0.05932052 -0.016060676 0.02786076 0.07616105
0.031213114 -0.031401716 -0.0661798 -0.06296651 -0.071748525 0.075936444 0.0039470643 0.03373875
-0.05518012 -0.04487051 0.029783737 -0.07936365 0.006921746 0.025959875 -0.048384573 0.056791503
0.06855764 0.04772241 0.032121494 -0.043911453 -0.005664057 0.029834714 -0.046355516 0.044158444
-0.015342958 -0.051264174 -0.053625762 -0.011637389 -0.00057443115 0.055045407 -0.01863353 -0.02664322
-0.039062634 -0.012675095 0.0101671675 0.06524676 -0.05008007 -0.08157432 -0.0088349115 -0.06626566
0.08285038 -0.03523671 -0.03706933 0.050320826 -0.028552616 0.050978716 -0.052295852 -0.029555641
-0.045631357 0.039040912 -0.05823878 0.030601464 0.07305635 -0.010869868 0.0023460463 -0.019882241
-0.022387773 -0.06564978 -0.03431629 0.0019610098 0.012814276 -0.07297584 -0.06315231 -0.014250321
0.037731193 0.046953537 0.02921161 -0.077071644 -0.052498803 -0.03447503 -0.006823517 -0.045147344
0.03947023 -0.031958673 0.016567837 0.042702165 0.0018452555 -0.055591628 0.058131482 0.07485852
00000000: 56a4 d7bc 9e29 483d cce3 953d 54fb 91bd
00000010: b337 2fbd ed6e e73c 73d1 3bbd fd5c 97bd
00000020: 7f03 79bd 7a0d 773d 8e7b 87bd 2d31 01bd
00000030: d86e 9cbd 9822 4abd 1080 3a3c ef05 8c3d
00000040: 7519 25bd c9be 95bd 7565 e4bc eb89 87bd
00000050: 7f3e 9dbd 26e8 dbbc ab92 8abc 1d5c 5ebd
00000060: 659d 91bc f82b 49bd 6cb6 923c 2cea 243d
00000070: e422 41bd dc5d 6e39 a0a6 403c a70f 02bd
00000080: fc14 ddbc a831 9abd efac 49bd 78d1 153c
00000090: f7b2 aabd c3b5 e9bc d74b 92bd bc70 07bc
000000a0: a8b9 86bd 2bdb 55bd 0070 00bc 92d8 5d3d
000000b0: 7084 9dbd f4e5 77bd 8790 9a3d 579e 1fbd
000000c0: ae96 603d 5e78 a0bd 668a d6ba fc25 a7bd
000000d0: 6733 6e3d 5d2e 373d f2be 2fbd da59 60bd
000000e0: aaea 8f3d 8ea9 1c3d d726 87bd 8533 b2bd
000000f0: 0078 75bb 78e8 453c 9996 a6bd 6356 91bd
00000100: 12bd 4e3d ab65 8f3d f57b 513d bf6d a13c
00000110: 633f aa3c 46df ba3b cb3d a63d b916 b83c
00000120: bdb6 21bc a9d6 423c ae56 7b3d 15b6 88bd
00000130: d1f9 8abd 58cb 863d 3281 1a3d 9309 283d
00000140: ba7a b5bd a675 453b ba45 13bd 0d55 5e3c
00000150: f722 5bbd 2802 3c3b eb62 bfbc 1cbc c13b
00000160: e403 8c3c b137 ae3c 4e5e 8abd c8dc 2abc
00000170: 4c64 b3bc a675 85bc 3a5e cdbc 625f 783d
00000180: d344 b8bc fe14 6dbd 49ce 8a3d 367b 1d3d
00000190: 805a 2cbd 8da7 93bd e54f b33c 417e 68bd
000001a0: d98a 533d 6000 d53c f066 88bb 0467 923d
000001b0: e2b5 f6bc 2af7 463d 8b11 4fbd 7567 47bd
000001c0: 78ea a63c 9fa9 943d 3c3f 0a3d 5fef c2bb
000001d0: 99e6 023d 669f 153d 64ea af3c 0c8c 9ebd
000001e0: 0540 f9bc 18d0 7bbd b741 c8bc 50dd 44bd
000001f0: e095 88bd 482d 5ebd e25b 3c3d a0db c9bc
00000200: 9a88 99bd 6a2d 6c3d 2a7d 99bd 8ba4 1abd
00000210: 515b 8f3b 37d2 debc 9720 54bd 0967 a73d
00000220: 14e0 043d e430 ffbc 491e 3fbc e8e5 5cbc
00000230: 1a53 503d 61bb f53c 4234 04bd 929b 763d
00000240: 40ef a7bb a0fc c53b 89de 40bb 6bfe 90bc
00000250: 9ad3 b83c a92a 183c 85f7 84bd 5650 8f3d
00000260: 4ddd 1c3d e0d6 92bd 088b 0abc 2d89 4a3c
00000270: bef8 7b3d fe0a 0f3d 64c3 92bc 1b19 143d
00000280: 52e2 19bc f43d 063d 71aa 863d 60ec fcbb
00000290: d201 95bd 4139 413d 1522 923c b20f 6e3d
000002a0: 231c 8e3d 8ec5 d2bc e4f9 9d3d 3b9d 1a3c
000002b0: 13fa 72bd ae91 83bc 403c e43c 53fa 9b3d
000002c0: a5b2 ff3c 169f 00bd 4689 87bd 96f4 80bd
000002d0: e4f0 92bd 9184 9b3d 6056 813b a531 0a3d
000002e0: 8d04 62bd 24ca 37bd 06fd f33c 6989 a2bd
000002f0: d0cf e23b cea9 d43c e72e 46bd 359e 683d
00000300: f367 8c3d 9378 433d d491 033d 7fdc 33bd
00000310: 8e99 b9bb ee67 f43c 48df 3dbd 7cdf 343d
00000320: 0861 7bbc 62fa 51bd b0a6 5bbd bfaa 3ebc
00000330: 6c95 16ba 4b77 613d 58a5 98bc e242 dabc
00000340: 2400 20bd 34ab 4fbc 3194 263c 18a0 853d
00000350: c220 4dbd 7010 a7bd 4ec0 10bc 4ab6 87bd
00000360: 76ad a93d 5e54 10bd 03d6 17bd 361d 4e3d
00000370: 2de7 e9bc 0fcf 503d 2d34 56bd ac1e f2bc
00000380: f2e7 3abd 5de9 1f3d c98b 6ebd ecaf fa3c
00000390: 919e 953d 8817 32bc 20c0 193b 15e0 a2bc
000003a0: 9066 b7bc 6473 86bd 3d8f 0cbd 4984 003b
000003b0: f8f2 513c 5b74 95bd 0056 81bd 2e7a 69bc
000003c0: 068c 1a3d 5a52 403d 304d ef3c bdd7 9dbd
000003d0: fc08 57bd b035 0dbd cf97 dfbb 6cec 38bd
000003e0: 89ab 213d 19e7 02bd 46b9 873c 77e8 2e3d
000003f0: 80dc f13a 0cb4 63bd 471b 6e3d 6c4f 993d

model.3.weight f4 [128, 256]
0.036552057 -0.024916593 -0.04584524 0.025129804 -0.0024320036 0.022085322 -9.296593e-05 0.015319561
0.02197009 0.047725074 -0.0035755592 -0.055698697 -0.03485864 -0.0041261856 -0.0301027 0.016080663
-0.02177082 0.06384619 -0.030841868 -0.012084445 -0.054769725 -0.06097811 -0.023376716 -0.04545425
-0.020283248 -0.030224146 0.019734764 -0.04153723 -0.009977606 0.021002019 -0.0034021065 0.025787763
0.028158475 -0.021612821 -0.026052639 -0.06227278 -0.039882887 0.043129425 0.032305464 -0.038137212
-0.010320686 0.034488127 0.03517653 0.007967499 -0.048316702 0.027630605 0.0068723257 0.03218864
-0.023348033 -0.053665563 0.007707782 0.042794973 -0.048668016 -0.04758466 0.050523512 0.029662019
-0.028056942 0.030452054 -0.015500344 0.055175368 -0.02666536 -0.042140305 0.04989505 -0.011917475
-0.044491686 0.04940413 0.021923015 -0.036767535 0.03152686 -0.039537285 0.05054161 -0.050650757
0.03693429 0.022367626 -0.04357289 -0.016845245 0.027420182 0.06042093 -0.003900669 -0.033175465
-0.011532327 0.002412042 0.0054324046 -0.03879383 -0.04389538 -0.02185701 0.047267124 -0.031633683
-0.053981557 -0.058487695 0.05867245 0.043883048 -0.0064850436 0.023009708 7.528375e-05 -0.040201437
-0.019940982 -0.02641455 -0.008826169 -0.047136176 0.02246026 -0.027022373 0.03699046 -0.008066428
-0.02777332 0.05585074 -0.043614842 0.04038522 0.046648372 -0.042458348 0.0342728 0.019921985
0.05468336 0.020409355 0.01800789 0.022315742 0.055699166 -0.033121247 -0.0023228119 -0.058519363
-0.00020001343 0.047050808 -0.03584415 0.052978296 0.060249135 0.020237722 -0.043952473 -0.0010258057
0.009817169 0.040358186 -0.05142098 -0.03850528 0.01952344 0.035954095 -0.015715003 0.05584727
0.019940816 0.01687871 0.023718623 -0.0077291057 0.055001862 -0.027422208 0.016940767 0.04327533
0.013924114 0.049733452 0.042352684 -0.026245901 -0.03324478 -0.03497061 -0.01862998 -0.036470454
-0.024076682 -0.007109406 0.006918445 0.049161453 -0.033873744 -0.036726445 -0.03525094 0.009663463
0.045400213 -0.014633679 -0.006972749 -0.029908054 0.036318563 0.0033048172 -0.047196805 0.0003789629
0.042828575 0.061553083 -0.013084433 0.040856022 -0.051969245 0.055582296 0.008475 0.008933336
0.02883935 0.0013355501 -0.034037348 -0.020701252 0.048906825 0.030552551 -0.011531115 0.04835572
-0.0034930003 4.8384172e-05 -0.025620157 0.039568402 -0.040561013 0.010578158 0.006038917 0.02940402
-0.06072218 0.030618021 -0.040330753 -0.039787658 0.008998184 -0.052748516 0.011237608 0.057179492
-0.03799118 0.03568283 0.03362845 -0.01073632 -0.005927328 -0.012383081 -0.050664473 -0.04442607
0.07447101 0.06825396 0.0252146 -0.0008698128 0.04640671 0.04216487 0.06796805 0.032452397
-0.05605026 0.02584094 -0.019697443 -0.034189433 0.061257176 0.0031910655 0.030813841 0.00992851
-0.056383885 0.00067488424 -0.0613734 -0.016819596 -9.857118e-06 0.015336715 0.02082327 0.025982697
0.03093659 -0.020782575 -0.03485273 0.016414937 -0.04079189 -0.017563395 0.038285412 -0.041157488
0.03808431 0.013361371 0.05084745 0.04580368 -0.01992402 -0.0077717826 0.04954767 -0.041404027
-0.004954712 0.0039570704 -0.06431781 0.06137972 -0.059510082 -0.024910452 0.042550165 0.04168957
00000000: 9cb7 153d e21d ccbc 38c8 3bbd 05dd cd3c
00000010: 4062 1fbb 47ec b43c b4f6 c2b8 e5fe 7a3c
00000020: 9efa b33c 5e7b 433d ee53 6abb 5124 64bd
00000030: efc7 0ebd f434 87bb f099 f6bc 98bb 833c
00000040: b858 b2bc cbc1 823d 16a8 fcbc d6fd 45bc
00000050: 3856 60bd 2fc4 79bd 8780 bfbc 3c2e 3abd
00000060: 0e29 a6bc a198 f7bc cdaa a13c f122 2abd
00000070: 1d79 23bc 6d0c ac3c e0f5 5ebb dc40 d33c
00000080: 9aac e63c 5f0d b1bc 586c d5bc be11 7fbd
00000090: 3d5c 23bd 7ba8 303d bc52 043d c435 1cbd
000000a0: 1818 29bc 6c43 0d3d 4415 103d 1d8a 023c
000000b0: bce7 45bd 9459 e23c 3f31 e13b 3cd8 033d
000000c0: 6044 bfbc 6cd0 5bbd 9091 fc3b c849 2f3d
000000d0: 1d58 47bd 22e8 42bd bef1 4e3d c3fd f23c
000000e0: acd7 e5bc 9676 f93c 28f5 7dbc 91ff 613d
000000f0: 5071 dabc 509b 2cbd c05e 4c3d 8341 43bc
00000100: ea3c 36bd fc5b 4a3d e597 b33c 8e99 16bd
00000110: 4f22 013d d9f1 21bd b804 4f3d 2b77 4fbd
00000120: 6948 173d 503c b73c 7d79 32bd 0aff 89bc
00000130: 4aa0 e03c f07b 773d 5ea2 7fbb ffe2 07bd
00000140: 16f2 3cbc 5a13 1e3b 5002 b23b 47e6 1ebd
00000150: a4cb 33bd 790d b3bc 2c9b 413d 5292 01bd
00000160: c41b 5dbd cb90 6fbd 8652 703d b6be 333d
00000170: 7d80 d4bb db7e bc3c a8e1 9d38 43aa 24bd
00000180: 455b a3bc 5463 d8bc a39b 10bc dd11 41bd
00000190: 94fe b73c 065e ddbc 4f83 173d 0d29 04bc
000001a0: e084 e3bc bfc3 643d 7aa5 32bd f96a 253d
000001b0: 5d12 3f3d cee8 2dbd a361 0c3d 6e33 a33c
000001c0: a9fb 5f3d 8531 a73c 4885 933c 81cf b63c
000001d0: cf24 643d 25aa 07bd 513a 18bb 00b2 6fbd
000001e0: b2ba 51b9 59b8 403d 51d1 12bd c5ff 583d
000001f0: ccc7 763d 94c9 a53c 8207 34bd 5474 86ba
00000200: 31d8 203c a04e 253d ce9e 52bd b6b7 1dbd
00000210: 9fef 9f3c 9a44 133d c0bc 80bc 1bc0 643d
00000220: ec5a a33c 3845 8a3c 8f4d c23c 7044 fdbb
00000230: a249 613d 8aa4 e0bc 5dc7 8a3c 7941 313d
00000240: f821 643c 4eb5 4b3d 027a 2d3d a501 d7bc
00000250: ae2b 08bd 583d 0fbd e69d 98bc 0b62 15bd
00000260: 763c c5bc 05f6 e8bb 20b4 e23b 855d 493d
00000270: 32bf 0abd 786e 16bd 4a63 10bd 8053 1e3c
00000280: 93f5 393d 19c2 6fbc a87b e4bb bc01 f5bc
00000290: c6c2 143d a295 583b 7051 41bd 8aaf c639
000002a0: 046d 2f3d 161f 7c3d 1760 56bc a558 273d
000002b0: b4dd 54bd 43aa 633d bada 0a3c 205d 123c
000002c0: 8040 ec3c a00d af3a bf6a 0bbd ac95 a9bc
000002d0: 8652 483d 5849 fa3c 00ed 3cbc a610 463d
000002e0: d2ea 64bb 1cf0 4a38 5de1 d1bc 7a12 223d
000002f0: 4e23 26bd 0350 2d3c 1ce2 c53b b3e0 f03c
00000300: d2b7 78bd a5d2 fa3c dc31 25bd 62f8 22bd
00000310: 1f6d 133c d40e 58bd f21d 383c 0b35 6a3d
00000320: a49c 1bbd 2928 123d fcbd 093d 64e7 2fbc
00000330: 083a c2bb 68e2 4abc 8d85 4fbd 1cf8 35bd
00000340: 4284 983d bbc8 8b3d d98e ce3c 2604 64ba
00000350: f614 3e3d 12b5 2c3d d532 8b3d ceec 043d
00000360: f594 65bd 61b0 d33c 885c a1bc 380a 0cbd
00000370: cee8 7a3d 3221 513b 4f6d fc3c 30ab 223c
00000380: caf2 66bd b7ea 303a ad62 7bbd 40c9 89bc
00000390: 0060 25b7 d846 7b3c 9095 aa3c aad9 d43c
000003a0: bb6e fd3c 3840 aabc bcc1 0ebd 9e78 863c
000003b0: 6615 27bd 1ce1 8fbc 2ad1 1c3d c194 28bd
000003c0: 4bfe 1b3d a7e9 5a3c 6a45 503d a49c 3b3d
000003d0: b337 a3bc 70aa febb 7ff2 4a3d 4597 29bd
000003e0: 235b a2bb 50aa 813b 0eb9 83bd 4d69 7b3d
000003f0: d8c0 73bd 0111 ccbc 1549 2e3d afc2 2a3d

model.3.bias f4 [128]
0.036777113 -0.028279332 -0.049604505 -0.036866564 0.045369335 0.05547814 -0.02885005 -0.023590062
0.052061796 0.013869591 0.07013073 0.04925768 -0.045468356 -0.04955849 0.022027254 -0.010746199
0.06163547 -0.0354086 -0.05802211 0.033787675 -0.017772472 0.05783172 0.020227093 0.044091076
-4.5008655e-06 0.02331384 -0.018609485 0.0025588854 -0.0060321484 0.017313229 0.022043673 0.0006841069
-0.05883995 -0.01575316 0.00026478095 -0.06006755 0.039285082 0.004529523 -0.017292872 -0.00668999
0.010541918 0.005183715 0.010567031 0.009507348 0.057043705 0.019956037 -0.01741033 -0.03177039
-0.022476569 0.011334008 -0.028150681 -0.04994569 0.019575989 -0.032700635 -0.052072328 0.02916165
-0.0075061163 -0.013978429 -0.002114819 -0.0057561994 0.03402164 0.03850396 0.04509721 0.042602345
0.05282377 0.025155175 -0.028613918 0.021106584 0.0097132735 0.034994632 0.051656857 0.029336534
-0.047453627 -0.0097873835 -0.006804656 -0.06311996 -0.054476067 0.052514672 0.061924793 0.017651746
-0.010439527 -0.015648242 0.015404933 0.024587626 0.06078699 0.06917704 -0.054416467 -0.03519674
-0.025781503 -0.000654277 -0.009698814 0.034519188 0.007187758 0.05617285 0.015689839 0.05484952
0.04435101 0.001524142 0.028316153 0.05396449 -0.05762208 -0.02292789 0.05317515 -0.017854625
0.040188484 0.0043660537 -0.028905604 -0.018503645 -0.0064610764 -0.02091239 -0.053032078 0.004983413
-0.0071894713 0.064503476 0.02576823 0.0036697888 0.053337146 -0.050605934 0.0036673318 -0.03628213
-0.07087486 -0.007251881 -0.002313837 -0.010259718 0.002914577 0.019863281 0.03882205 -0.020752752
00000000: 99a3 163d 0faa e7bc 182e 4bbd 6501 17bd
00000010: 32d5 393d 0c3d 633d f156 ecbc f23f c1bc
00000020: c03e 553d 483d 633c b3a0 8f3d 6cc2 493d
00000030: 073d 3abd d8fd 4abd 8072 b43c d310 30bc
00000040: 7975 7c3d 9c08 11bd 98a8 6dbd f264 0a3d
00000050: 9397 91bc f4e0 6c3d 4ab3 a53c d898 343d
00000060: 2406 97b6 abfc be3c eb72 98bc f9b2 273b
00000070: 54a9 c5bb 79d4 8d3c ef94 b43c a355 333a
00000080: 2902 71bd c50c 81bc 4cd2 8a39 6409 76bd
00000090: 65e9 203d 656c 943b c8a9 8dbc b437 dbbb
000000a0: 02b8 2c3c 27dc a93b 5721 2d3c b5c4 1b3c
000000b0: a9a6 693d d87a a33c 1ca0 8ebc ab21 02bd
000000c0: c820 b8bc 46b2 393c 429c e6bc da93 4cbd
000000d0: d35d a03c 1af1 05bd cb49 55bd 6ae4 ee3c
000000e0: def5 f5bb c805 65bc c698 0abb 809e bcbb
000000f0: 465a 0b3d 54b6 1d3d dab7 383d cc7f 2e3d
00000100: bd5d 583d 3a12 ce3c bc67 eabc b7e7 ac3c
00000110: 6c24 1f3c 8856 0f3d 2496 533d 2c53 f03c
00000120: bc5e 42bd 435b 20bc 97f9 debb 0a45 81bd
00000130: 4c22 5fbd a019 573d daa4 7d3d 659a 903c
00000140: 8d0a 2bbc be30 80bc f964 7c3c fd6b c93c
00000150: c7fb 783d b1ac 8d3d cde3 5ebd 752a 10bd
00000160: bb33 d3bc c983 2bba c6e7 1ebc fe63 0d3d
00000170: 4987 eb3b 8115 663d fa87 803c e4a9 603d
00000180: 68a9 353d b8c5 c73a 47f7 e73c de09 5d3d
00000190: 2105 6cbd 45d3 bbbc 30ce 593d dd43 92bc
000001a0: ae9c 243d 1d11 8f3b 72cb ecbc f594 97bc
000001b0: 70b7 d3bb 7650 abbc 2a38 59bd e64b a33b
000001c0: a895 ebbb 661a 843d e517 d33c d780 703b
000001d0: 0d78 5a3d 2b48 4fbd 9e57 703b 929c 14bd
000001e0: d726 91bd 30a1 edbb bea3 17bb 6018 28bc
000001f0: 7d02 3f3b 52b8 a23c df03 1f3d ad01 aabc

model.6.weight f4 [64, 128]
-0.0676481 0.020338101 0.047242522 -0.0027533025 0.0016213506 -0.03155346 -0.023753121 -0.07933201
0.046255004 0.0009675898 0.0015364267 -0.03425683 -0.054441657 0.044851027 -0.05551108 -0.07774025
0.012722128 0.022194427 -0.00072166993 -0.08829251 -0.07823238 0.057250954 -0.012855414 0.08229895
-0.023713367 -0.035819333 0.036265533 0.07145012 0.049987026 0.04981048 -0.036809064 -0.06717238
0.016100252 -0.019388102 0.022808813 -0.08012136 0.033227615 0.014061679 0.037014984 0.07669345
-0.0157351 -0.046688445 -0.051633414 0.07128095 -0.052544586 -0.025880573 -0.08576234 -0.08347983
0.011591464 0.030872509 -0.079678014 0.062453933 -0.0020165176 -0.048772596 0.07715332 -0.010009304
-0.05306188 0.0096721025 0.014150299 0.08297504 -0.049692743 0.051777914 -0.01695566 -0.07998993
-0.034654632 0.03198012 0.007836411 -0.0751424 -0.09265305 0.046212927 -0.06507129 -0.08253649
-0.056605067 -0.05304589 -0.050089907 -0.082508236 -0.06879322 0.07358856 0.048908845 0.051770497
-0.028553082 -0.049464684 -0.047582556 -0.059279416 -0.04170023 0.053013954 0.05044007 -0.042351402
-0.0598018 0.027879013 -0.0006981939 0.048034012 -0.04758741 0.044124257 -0.031994693 -0.060290862
-0.061214566 -0.039520424 0.065587126 0.054922137 0.08663742 0.03743379 0.012969658 -0.04180739
-0.06597673 0.0360733 0.027254887 -0.07518613 0.02780573 -0.063903935 0.042386755 -0.007088285
0.020244826 -0.05370358 -0.08362657 0.06232443 0.03446808 0.05092208 -0.014509312 0.0013795495
-0.07819461 0.033188254 -0.08074365 0.06323675 -0.04063556 -0.032840732 0.07417263 0.045050018
-0.05359133 -0.029112026 -0.035902265 0.044944122 -0.09524447 -0.011240691 0.04141008 0.027348502
-0.007225227 -0.052225087 -0.04267614 -0.06252014 -0.051983498 0.062943175 0.03449781 -0.0040476266
-0.06616185 0.0060931 -0.04758006 0.050921034 0.050360072 -0.035855502 0.080394715 -0.0044565727
-0.053604968 -0.07327257 0.028801745 -0.013135021 -0.009408214 -0.024977574 -0.04807977 -0.05509565
0.004071845 0.040832292 0.021356767 0.080426544 0.06343847 0.009216773 0.017455164 -0.04547742
0.0622079 -0.009734757 0.060015004 0.058511827 -0.035470188 -0.043620758 -0.0110813165 0.05693597
-0.036988277 -0.018225819 -0.031030629 -0.057116553 0.02736624 -0.032333367 0.06415042 -0.066509165
-0.080541745 0.060479786 0.03349404 -0.0035591656 -0.0132633755 -0.058868606 0.025191952 0.02928384
0.056539007 -0.022055684 -0.07942344 -0.04910777 0.034425244 0.0018170496 -0.030953307 0.067397006
0.028685551 0.037506875 0.0866456 -0.054063365 0.05445677 0.008915332 0.051443603 0.0019515479
0.022365062 0.052218106 -0.03018155 0.058312003 0.035560407 0.03830066 -0.07224666 -0.01748365
-0.029725319 -0.070472375 -0.03838291 -0.03558345 0.051962137 0.003689218 -0.057396617 0.06691745
0.0890833 -0.07412517 -0.028972505 0.014287999 -0.07887585 -0.028853105 -0.016719135 -0.07754929
-0.055351764 0.08565393 0.03722284 0.085217096 0.029245816 0.014921994 0.09050939 0.0207329
0.014117417 -0.043831784 0.016754594 0.030251948 0.011540262 0.07325267 0.05556754 -0.032373484
0.0628767 0.03302393 -0.044971686 0.00077993836 0.06330635 -0.022266634 0.075116426 0.081899375
00000000: 168b 8abd 179c a63c 6081 413d c070 34bb
00000010: 8083 d43a 333e 01bd e895 c2bc d278 a2bd
00000020: e375 3d3d daa5 7d3a ed61 c93a e450 0cbd
00000030: 37fe 5ebd b6b5 373d 965f 63bd 4836 9fbd
00000040: 7970 503c 16d1 b53c 732e 3dba b4d2 b4bd
00000050: 4c38 a0bd fa7f 6a3d 849f 52bc 5a8c a83d
00000060: 8942 c2bc 4bb7 12bd 2b8b 143d 7154 923d
00000070: 32bf 4c3d 1306 4c3d 1ac5 16bd ac91 89bd
00000080: ade4 833c ccd3 9ebc 8cd9 ba3c ab16 a4bd
00000090: ae19 083d f562 663c 069d 173d 7511 9d3d
000000a0: e5e6 80bc 623c 3fbd 8f7d 53bd bffb 913d
000000b0: fe38 57bd 7f03 d4bc 2aa4 afbd 79f7 aabd
000000c0: 20ea 3d3c 58e8 fc3c 3a2e a3bd b2cf 7f3d
000000d0: 8d27 04bb c6c5 47bd 8f02 9e3d 10fe 23bc
000000e0: 6a57 59bd bd77 1e3c a8d6 673c d1ee a93d
000000f0: 9e8a 4bbd 1415 543d 99e6 8abc c3d1 a3bd
00000100: 04f2 0dbd 96fd 023d 4a64 003c 42e4 99bd
00000110: e2c0 bdbd c449 3d3d 1944 85bd e408 a9bd
00000120: b7da 67bd a646 59bd 132b 4dbd 14fa a8bd
00000130: 76e3 8cbd 99b5 963d a454 483d 4d0d 543d
00000140: 27e8 e9bc 7b9b 4abd ede5 42bd f9ce 72bd
00000150: dccd 2abd 2925 593d 3f9a 4e3d aa78 2dbd
00000160: bbf2 74bd 8762 e43c 0007 37ba 50bf 443d
00000170: 04eb 42bd a3bb 343d de0c 03bd 8df3 76bd
00000180: 20bc 7abd 2be0 21bd 8b52 863d 09f6 603d
00000190: f66e b13d 2c54 193d b07e 543c 3a3e 2bbd
000001a0: cf1e 87bd 99c1 133d a445 df3c 30fb 99bd
000001b0: d8c8 e33c 11e0 82bd bc9d 2d3d d844 e8bb
000001c0: 7ad8 a53c 49f8 5bbd 6844 abbd e747 7f3d
000001d0: 672e 0d3d ac93 503d 77b8 6dbc 00d2 b43a
000001e0: 7f24 a0bd 68f0 073d ed5c a5bd 4582 813d
000001f0: 7971 26bd 0184 06bd d2e7 973d 5e86 383d
00000200: 9582 5bbd 587c eebc 410e 13bd 5417 383d
00000210: 880f c3bd e02a 38bc 9e9d 293d f709 e03c
00000220: 99c1 ecbb f9e9 55bd 2dcd 2ebd 8f0a 80bd
00000230: a6ec 54bd 5ae8 803d 934d 0d3d f4a1 84bb
00000240: dd7f 87bd a1a8 c73b 4fe3 42bd 9392 503d
00000250: 5d46 4e3d 38dd 12bd fca5 a43d 7108 92bb
00000260: e290 5bbd ee0f 96bd a3f1 eb3c 4534 57bc
00000270: e924 1abc c59d ccbc 4bef 44bd faab 61bd
00000280: 1d6d 853b c33f 273d 63f4 ae3c acb6 a43d
00000290: 07ec 813d f301 173c 22fe 8e3c 8846 3abd
000002a0: b6cd 7e3d 887e 1fbc 4bd2 753d 19aa 6f3d
000002b0: 3049 11bd aeab 32bd 698e 35bc b135 693d
000002c0: 0581 17bd 504e 95bc f233 febc 0cf3 69bd
000002d0: 2a2f e03c fe6f 04bd 4c61 833d f535 88bd
000002e0: 12f3 a4bd a7b9 773d 0c31 093d e440 69bb
000002f0: a14e 59bc 3520 71bd 5a5f ce3c aae4 ef3c
00000300: 7295 673d 1fae b4bc c2a8 a2bd 3b25 49bd
00000310: 7c01 0d3d 112a ee3a ca91 fdbc 7107 8a3d
00000320: f6fd ea3c cfa0 193d 4073 b13d 8c71 5dbd
00000330: 100e 5f3d 9d11 123c 87b6 523d 15cb ff3a
00000340: ef36 b73c a7e2 553d 4c3f f7bc 91d8 6e3d
00000350: caa7 113d 27e1 1c3d 0ff6 93bd df39 8fbc
00000360: 8382 f3bc d253 90bd 6637 1dbd f4bf 11bd
00000370: 40d6 543d cfc6 713b b718 6bbd 040c 893d
00000380: 4e71 b63d f0ce 97bd bf57 edbc 3618 6a3c
00000390: a989 a1bd 595d ecbc 91f6 88bc 2ad2 9ebd
000003a0: 88b8 62bd 546b af3d fa76 183d 4d86 ae3d
000003b0: ec94 ef3c 617b 743c fd5c b93d 0bd8 a93c
000003c0: bd4c 673c f588 33bd ee40 893c efd2 f73c
000003d0: 5e13 3d3c 7f05 963d ca9a 633d 0f9a 04bd
000003e0: 80c5 803d 1a44 073d 3b34 38bd c774 4c3a
000003f0: c2a6 813d 8468 b6bc a4d6 993d dcba a73d

model.6.bias f4 [64]
-0.0044933516 0.073265076 -0.025518104 0.0261371 0.007750526 0.05161852 0.06795236 0.0202524
-0.0874012 -0.0006158864 0.070612974 -0.028383728 -0.074753754 -0.007699474 -0.077545844 -0.012503383
0.027366797 0.009797049 0.055276304 -0.004621266 0.01805219 -0.039977696 -0.07801898 0.007862867
-0.061678056 -0.024951467 -0.059003923 0.012624767 0.06717624 0.0023928932 0.064231336 -0.07572148
0.07939267 0.0008363448 0.00815043 0.086506195 -0.0301831 -0.013395563 0.06425558 0.038101714
-0.0030727608 0.06776191 -0.061587583 0.045804076 0.014373605 0.062517196 -0.05826711 -0.029253338
-0.06330484 0.028889926 -0.03013399 -0.009661852 -0.09361664 -0.04403001 -0.09197001 0.040289447
0.015425107 0.058476277 -0.06176142 -0.028220277 -0.018787464 0.025473647 -0.06449883 0.05112624
00000000: f73c 93bb 000c 963d 580b d1bc 791d d63c
00000010: 20f8 fd3b f16d 533d 9b2a 8b3d 5ce8 a53c
00000020: 66ff b2bd 7073 21ba 899d 903d fe84 e8bc
00000030: 7f18 99bd df4b fcbb 5bd0 9ebd fdda 4cbc
00000040: 5530 e03c cd83 203c 6869 623d fd6d 97bb
00000050: 30e2 933c a7bf 23bd 6ac8 9fbd 41d3 003c
00000060: 21a2 7cbd 0567 ccbc 19ae 71bd 1cd8 4e3c
00000070: b293 893d 16d2 1c3b b88b 833d dd13 9bbd
00000080: a098 a23d 263e 5b3a 6289 053c 292a b13d
00000090: 8c42 f7bc 1079 5bbc 6e98 833d 8b10 1c3d
000000a0: 5f60 49bb c2c6 8a3d 4343 7cbd 0e9d 3b3d
000000b0: 457f 6b3c 0409 803d 7ea9 6ebd b2a4 efbc
000000c0: f8a5 81bd 91aa ec3c 8fdb f6bc bf4c 1ebc
000000d0: 15ba bfbd d058 34bd c65a bcbd 8c06 253d
000000e0: 97b9 7c3c d284 6f3d 8bf9 7cbd 362e e7bc
000000f0: 2be8 99bc 1cae d03c f617 84bd c069 513d

model.9.weight f4 [4, 64]
-0.020698363 0.1184019 -0.028330991 0.06756496 -0.09339645 -0.09339384 0.061453044 -0.12295074
0.038556695 0.08214658 -0.040803235 0.115463965 -0.03006186 -0.07465304 -0.0033998457 -0.123710714
-0.04336434 0.0766526 -0.012369151 -0.11659141 -0.011020093 0.08587957 -0.10222116 0.07613929
-0.051133037 -0.03885757 -0.008739886 0.07318451 0.008329749 -0.06505434 -0.010451266 -0.05872157
0.08602599 0.014415985 -0.06423062 0.059559904 -0.025532397 0.00553287 0.09668585 0.122675665
0.07864926 0.044996034 0.019543465 0.06397759 -0.067853145 -0.0150276935 0.047078006 0.015143643
0.0404303 -0.053816196 -0.058735035 0.0064816815 -0.046225924 0.03427773 -0.12329354 0.10183645
0.010041692 0.0126325255 0.06953807 -0.044133984 -0.07974006 -0.009219439 0.060140807 0.10540374
0.021590251 -0.052267626 0.035132956 -0.0017780825 0.065962285 -0.068460576 -0.09424295 0.08598643
0.05311401 0.05771364 -0.07889591 0.11015144 -0.010137823 0.100486964 0.033048723 -0.0501839
-0.048050724 0.064433284 -0.041898135 0.08826393 0.0654402 0.030586407 0.046519917 -0.106164634
0.09845315 -0.093644865 -0.06405144 -0.10808126 -0.012463324 -0.11605372 -0.022628676 -0.087227166
-0.04295752 -0.080395415 -0.08281671 -0.020078141 -0.08565492 0.07145894 -0.029554667 -0.054919817
-0.08962047 -0.00021105862 0.0057394807 0.018331515 0.057486568 0.108161956 0.07332951 -0.03868374
-0.105805725 0.050530113 -0.048799016 0.04410348 0.021270595 -0.11579743 0.025705189 0.04309282
0.04232109 -0.0233858 -0.00016064417 0.09726402 -0.12961751 0.08798112 0.038547352 -0.0687634
0.012799627 -0.009246823 -0.021119354 0.00022356857 -0.052486178 0.070553124 0.016895493 -0.0051597487
-0.054773595 0.070447065 -0.050718136 -0.0011062915 -0.12320281 -0.10607456 -0.03686032 -0.12045635
-0.09992295 0.09404114 -0.04565772 0.056171 0.074760504 -0.117275886 -0.10327727 0.03683399
0.030163452 0.11029213 -0.12881926 -0.032334313 0.070770964 0.020445604 -0.0045611835 0.11437127
-0.13146408 0.09650778 -0.10021567 -0.048785068 0.005274799 0.09659909 -0.09137498 -0.11039534
-0.05962046 0.018762138 -0.09877405 0.07506613 0.016905002 0.039180856 -0.017610276 -0.09316553
0.11191561 -0.026333548 0.032298233 0.08503434 -0.08664091 0.100755416 -0.05707475 0.010396317
-0.07920655 0.012877921 0.049003486 0.012143739 0.010221958 -0.0823495 -0.09789253 0.09389575
0.039974272 0.12965776 -0.09801679 -0.07625768 0.06233073 -0.030022716 0.034773853 0.13341136
0.003911329 0.063263305 0.11514842 0.12165321 0.12442719 0.088979006 0.065866895 0.06494726
0.09715411 -0.095442735 -0.011808045 0.10511564 0.12529439 0.03843072 0.062990345 0.07263732
0.10674932 0.10546525 -0.026029443 0.00854374 0.10866344 0.0202347 0.08033015 -0.07842302
-0.027783299 -0.11734299 0.013708809 0.07418738 0.06302578 -0.051424976 0.057931967 -0.09505264
0.13035944 0.074333176 0.016927332 -0.06560793 -0.027278917 -0.08885728 -0.10058253 0.09706556
-0.022332469 0.08144183 0.013662735 0.07090094 -0.060242947 -0.1191985 -0.011836959 0.07427278
0.0058208993 0.06532734 -0.014736977 0.078979194 0.1245372 -0.031905483 0.120284386 0.08051354
00000000: 9d8f a9bc b27c f23d 6516 e8bc 7f5f 8a3d
00000010: a346 bfbd 4545 bfbd 30b6 7b3d 99cd fbbd
00000020: a0ed 1d3d 773c a83d 4b21 27bd 5f78 ec3d
00000030: 4a44 f6bc b1e3 98bd f2cf 5ebb 0b5c fdbd
00000040: ce9e 31bd 0afc 9c3d fba7 4abc 7ac7 eebd
00000050: 9f8d 34bc a1e1 af3d 5459 d1bd ebee 9b3d
00000060: e070 51bd 1e29 1fbd bd31 0fbc c3e1 953d
00000070: 8079 083c 363b 85bd c93b 2bbc 0786 70bd
00000080: 652e b03d 0631 6c3c 588b 83bd 16f5 733d
00000090: 5129 d1bc 144d b53b 3b03 c63d 613d fb3d
000000a0: dd12 a13d c34d 383d 9e19 a03c af06 833d
000000b0: 97f6 8abd b736 76bc ded4 403d 0b1d 783c
000000c0: 3e9a 253d 5f6e 5cbd 2694 70bd 4964 d43b
000000d0: 6557 3dbd ce66 0c3d 5381 fcbd a18f d03d
000000e0: e985 243c a7f8 4e3c fa69 8e3d d6c5 34bd
000000f0: c24e a3bd 210d 17bc 3556 763d ebdd d73d
00000100: 0ade b03c 9416 56bd 93e7 0f3d 8c0e e9ba
00000110: 3c17 873d 0f35 8cbd 7302 c1bd a719 b03d
00000120: 138e 593d 2365 6c3d 2e94 a1bd 1497 e13d
00000130: 1d19 26bc 1ccc cd3d 195e 073d a28d 4dbd
00000140: d6d0 44bd 99f5 833d 619d 2bbd b8c3 b43d
00000150: 8305 863d 5890 fa3c ab8b 3e3d d86c d9bd
00000160: cea1 c93d e1c8 bfbd 672d 83bd b559 ddbd
00000170: f832 4cbc 93ad edbd c65f b9bc 28a4 b2bd
00000180: 39f4 2fbd 5aa6 a4bd cf9b a9bd ea7a a4bc
00000190: d96b afbd 1159 923d a11c f2bc 9af3 60bd
000001a0: f08a b7bd 9e4f 5db9 4112 bc3b f92b 963c
000001b0: 0977 6b3d 0484 dd3d c82d 963d d772 1ebd
000001c0: acb0 d8bd aaf8 4e3d 7ae1 47bd daa5 343d
000001d0: ac3f ae3c 3427 edbd b093 d23c 1982 303d
000001e0: e158 2d3d 9493 bfbc 9772 28b9 5c32 c73d
000001f0: 74ba 04be 722f b43d d4e3 1d3d d3d3 8cbd
00000200: 87b5 513c fd7f 17bc 7f02 adbc bb6d 6a39
00000210: bffb 56bd 287e 903d 6b68 8a3c 1c13 a9bb
00000220: 475a 60bd 8d46 903d d2bd 4fbd fc00 91ba
00000230: c151 fcbd 9e3d d9bd d9fa 16bd d2b1 f6bd
00000240: 67a4 ccbd a498 c03d 9703 3bbd 9013 663d
00000250: 091c 993d 572e f0bd 0983 d3bd 3ddf 163d
00000260: 5819 f73c d7e0 e13d 32e9 03be fc70 04bd
00000270: 5ef0 903d 8a7d a73c fb75 95bb 7c3b ea3d
00000280: 859e 06be dfa5 c53d e03d cdbd dad2 47bd
00000290: 39d8 ac3b bed5 c53d ce22 bbbd f416 e2bd
000002a0: 9534 74bd 0eb3 993c 0d4a cabd 45bc 993d
000002b0: 5c7c 8a3c 1b7c 203d 6d43 90bc 92cd bebd
000002c0: 0334 e53d 74b9 d7bc 274b 043d 7c26 ae3d
000002d0: ca70 b1bd db58 ce3d 37c7 69bd 5055 2a3c
000002e0: 0b37 a2bd eafd 523c e1b7 483d 88f6 463c
000002f0: 007a 273c dba6 a8bd e17b c8bd 6a4c c03d
00000300: 10bc 233d 01c5 043e 07bd c8bd fd2c 9cbd
00000310: 824e 7f3d 33f2 f5bc 076f 0e3d fd9c 083e
00000320: 9b2a 803b 3190 813d efd2 eb3d 5125 f93d
00000330: afd3 fe3d a03a b63d 39e5 863d 1203 853d
00000340: bcf8 c63d 7b77 c3bd 8876 41bc de46 d73d
00000350: 2c4d 003e 8869 1d3d 1501 813d e0c2 943d
00000360: 639f da3d 2afe d73d b33b d5bc 0bfb 0b3c
00000370: f08a de3d 3ec3 a53c 2284 a43d 409c a0bd
00000380: cd99 e3bc 8651 f0bd ea9a 603c 8eef 973d
00000390: a913 813d ffa2 52bd 124a 6d3d f5aa c2bd
000003a0: f27c 053e fe3b 983d 30ab 8a3c 735d 86bd
000003b0: 0978 dfbc cefa b5bd 37fe cdbd 4fca c63d
000003c0: 95f2 b6bc f9ca a63d aad9 5f3c 8334 913d
000003d0: 4fc1 76bd 581e f4bd ceef 41bc 541c 983d
000003e0: 3ebd be3b 57ca 853d 5d73 71bc d8bf a13d
000003f0: 5c0d ff3d 53af 02bd a957 f63d 48e4 a43d

model.9.bias f4 [4]
0.07200278 0.10554434 -0.0025281438 -0.034706734
00000000: 3276 933d a227 d83d 37af 25bb a628 0ebd
