models/classifier.pth (torch, 321975 bytes, 8 tensors)

model.0.weight f4 [256, 148]
0	0xbcc62ead	-0.024192179
1	0x3d4c607b	0.0498967
2	0xbcba9599	-0.022776412
3	0x3ddfaa78	0.10921186
4	0xbc71a820	-0.014749557
5	0x3adfa659	0.0017063125
6	0x3d366aff	0.044535633
7	0xbdab1bf6	-0.083549425
8	0xbd3f86fa	-0.046759583
9	0x3db09f66	0.08624153
10	0x3d75e2f5	0.060030896
11	0xbb294a47	-0.0025831626
12	0x3d73b40f	0.05949789
13	0xbb28a676	-0.0025733984
14	0xbd84fd78	-0.06493658
15	0xbd798e3e	-0.06092667
16	0xbd2ef375	-0.042712647
17	0x3d68a4ee	0.056797914
18	0x3cc8f17b	0.02452921
19	0xbd7c5da3	-0.061612736
20	0x3d7ad2fd	0.06123637
21	0x3dea3462	0.114357725
22	0x3dba30e9	0.0909136
23	0xbcfa07a8	-0.030521229
24	0x3d838431	0.06421698
25	0x3ddd8a1c	0.10817358
26	0x3d88e36f	0.066840045
27	0xbacf3835	-0.0015809598
28	0x3dba77ea	0.09104903
29	0xbc844bb1	-0.016149374
30	0x3d13c2e1	0.036074523
31	0xbcad8e98	-0.021186158
32	0x3b94525f	0.004526421
33	0xbd8dd8a6	-0.06926088
34	0xbd41736b	-0.04722921
35	0x3d124068	0.035705954
36	0xbd1e4f22	-0.038649686
37	0xbd9c15e2	-0.07621361
38	0x3cf59bc4	0.029981501
39	0x3cf15e38	0.029463872
40	0xbcc17f82	-0.02362037
41	0x3d386b5e	0.04502427
42	0xbc124dc8	-0.008929677
43	0x3c9b538c	0.018960737
44	0xbc8975b4	-0.016779758
45	0x3d41e4c6	0.047337316
46	0xbd0ef146	-0.034898065
47	0x3d8a15b1	0.067424186
48	0xb7f28000	-2.8908253e-05
49	0x3c77ec48	0.015132017
50	0xbd3e7a1b	-0.046503168
51	0x3ca23b1c	0.019803576
52	0xbd7e016b	-0.06201307
53	0x3cb86300	0.022508144
54	0x3d178cc6	0.036999486
55	0xbd2d1474	-0.042255834
56	0x3d61cf02	0.05512906
57	0x3cbb1ea4	0.022841759
58	0x3ce8715c	0.028374366
59	0xbd0069f9	-0.031351063
60	0x3b385f00	0.0028132796
61	0x3da82cd5	0.08211676
62	0xbd62db3f	-0.05538487
63	0x3d3e9692	0.046530314
64	0x3d53c4fe	0.05170154
65	0xbd96f57b	-0.073710404
66	0x3d421a32	0.047388263
67	0x3cbfdc00	0.023420334
68	0x3d9209b5	0.07130758
69	0xbd64f70a	-0.055899657
70	0xbd51f379	-0.051257584
71	0xbd94b9e8	-0.07262021
72	0xbce0b1c4	-0.027428515
73	0x3d6ab4d2	0.05730135
74	0x3d256566	0.040379904
75	0x3c95179c	0.018199734
76	0xbd9ed9ac	-0.07756361
77	0x3d3cdb2e	0.046107464
78	0xbd32130c	-0.043475196
79	0xbd275813	-0.04085548
80	0xbd92783d	-0.0715184
81	0x3d3f5472	0.046711393
82	0x3b0915e0	0.002091758
83	0xbd90945a	-0.07059546
84	0x3d822355	0.06354395
85	0xbd9a9c6b	-0.075493656
86	0xbd6d730a	-0.057971038
87	0x3d89e7df	0.06733679
88	0x3c7d2520	0.015450746
89	0x3d7ee9be	0.062234633
90	0xbd9dd5cd	-0.07706795
91	0x3d444bea	0.04792396
92	0xbcd8b08e	-0.026451375
93	0xbca88efe	-0.020575996
94	0x3da5a8a1	0.08088804
95	0x3da172fb	0.07883259
96	0xbd399671	-0.045309488
97	0x3d10dd6a	0.035367407
98	0xbd991b65	-0.07475928
99	0x3ca7bfd8	0.02047722
100	0x3bd165b0	0.006390296
101	0xbc9deae8	-0.019277051
102	0x3d7dbb36	0.061946116
103	0xbd00c050	-0.031433403
104	0x3c448b68	0.011996128
105	0x3d9968c1	0.07490683
106	0xbd46938c	-0.048480555
107	0xbda3aaa4	-0.079915315
108	0x3c56d6a8	0.0131127015
109	0x3d34280e	0.04398351
110	0xbc6ca740	-0.014444172
111	0xbd69a644	-0.05704333
112	0xbc24e120	-0.01006344
113	0x3b718600	0.0036853552
114	0x3c407098	0.011745594
115	0xbd31d050	-0.043411553
116	0x3d4add3e	0.0495274
117	0x3cdfd4f0	0.027323216
118	0xbb82d720	-0.00399293
119	0xbd14de60	-0.036344886
120	0x3da79a1d	0.08183692
121	0x3d761402	0.060077675
122	0xbd2db220	-0.0424062
123	0xbd4eb7d9	-0.0504683
124	0xbd355bd0	-0.044277012
125	0x3da600c9	0.081056185
126	0x3d0c1cca	0.034207143
127	0x3d882e1d	0.066494204
128	0x3d7ac862	0.061226256
129	0x3cc6e55c	0.024279289
130	0xbd66d777	-0.056357827
131	0x3d1205dc	0.03565012
132	0x3da5c6a1	0.08094526
133	0xbd8ef10d	-0.069795705
134	0x3c8f118c	0.017464422
135	0xbda666aa	-0.0812505
136	0x3d8fd8e3	0.0702379
137	0xbd7aab68	-0.061198622
138	0xbc9abcb4	-0.018888809
139	0x3c17fe08	0.009276874
140	0x3d8dade5	0.069179334
141	0xbcee9d76	-0.029127818
142	0xbd521daf	-0.05129784
143	0x3c9b61dc	0.018967561
144	0xbd3e3b3e	-0.046443217
145	0x3ca3ba9c	0.019986443
146	0xbb061660	-0.0020460114
147	0x3d988deb	0.07448944
148	0x3d9bd7aa	0.07609494
149	0xbd92877f	-0.0715475
150	0xbd4d4d81	-0.05012274
151	0xbc5dbc0b	-0.0135336025
152	0x3d9a0797	0.07520979
153	0x3c91086e	0.017704215
154	0x3d0a6ca2	0.033795007
155	0x3cac8c4d	0.021062994
156	0x3c0aa734	0.008462716
157	0x3dcc9ef3	0.09991255
158	0xbd89ca09	-0.06727988
159	0xbd390aef	-0.045176443
160	0xbc8e6d31	-0.01738605
161	0xbd4e7d87	-0.05041268
162	0xbd1cbcf1	-0.038266126
163	0x3d3fb6a4	0.04680504
164	0x3c3debba	0.011591846
165	0x3d978228	0.07397872
166	0xbadb1358	-0.0016714139
167	0x3bf35fb3	0.0074271797
168	0x3b55dcf4	0.003263292
169	0xbc616fe6	-0.013759589
170	0x3cb50337	0.02209626
171	0xbd9a669f	-0.07539105
172	0x3c8144f4	0.01577995
173	0xbd9f2d49	-0.07772309
174	0x3cd8fdd4	0.026488222
175	0xbd29ae94	-0.041426256
176	0x3cf1516c	0.02945777
177	0x3d113623	0.03545202
178	0x3d397db3	0.04528589
179	0xbb056f61	-0.0020360576
180	0xbd81ce54	-0.06338182
181	0x3d074482	0.03302432
182	0x3c9a2098	0.01881437
183	0xbb963440	-0.0045838654
184	0x3d55ce6a	0.052198805
185	0x3d8d0d95	0.06887356
186	0xbc942ad4	-0.018086828
187	0x3c405808	0.011739738
188	0x3d68b13a	0.05680964
189	0xbda68710	-0.0813123
190	0xbd858716	-0.06519906
191	0xbc4a3de0	-0.012343854
192	0x3d3e4aaa	0.046457924
193	0x3d818dcb	0.06325873
194	0xbca1e250	-0.019761235
195	0x3cd2ff88	0.025756612
196	0x3b858640	0.0040748417
197	0x3d86b9e1	0.06578422
198	0x3d6d1b4e	0.057887368
199	0xbd18bf56	-0.037291847
200	0xbd9f6dee	-0.07784639
201	0xbcb99e76	-0.022658568
202	0xbd3aa364	-0.045565978
203	0xbda4207f	-0.08014011
204	0x3cf4063c	0.029788129
205	0x3b04ede0	0.0020283386
206	0xbcdcee48	-0.02696909
207	0xbd8cb8eb	-0.06871208
208	0xbd6d1738	-0.05788347
209	0xbda6e15e	-0.08148454
210	0xbcb510ee	-0.0221028
211	0x3c83c788	0.016086355
212	0xbd5274ce	-0.051380925
213	0xbda014a7	-0.07816439
214	0x3af8fc80	0.0018996149
215	0x3ce14ee8	0.027503446
216	0xbd9e46cc	-0.07728347
217	0x3d1a2958	0.037637085
218	0x3d66fc0a	0.056392707
219	0x3b1156a0	0.0022176877
220	0xbd51fe8a	-0.051268138
221	0xbca64ce2	-0.020300332
222	0xbcf3a59c	-0.029742055
223	0x3d651792	0.05593068
224	0xbc01df88	-0.007926829
225	0x3d4c5d2a	0.049893536
226	0x3c7eb930	0.015547082
227	0xbd473ce3	-0.04864205
228	0xbc0889c8	-0.008333631
229	0x3d88a73f	0.06672525
230	0x3d5accb6	0.053417884
231	0x3d46ceaa	0.048536934
232	0x3d6e7b9e	0.05822336
233	0xbcbe50fa	-0.023231972
234	0x3d867d75	0.06566898
235	0x3c2a6db0	0.010402128
236	0x3c07cfa0	0.008289248
237	0xbd5a7f76	-0.053344212
238	0xbd92a453	-0.071602486
239	0xbbd93a80	-0.006629288
240	0x3da047e1	0.0782621
241	0xbd2f841d	-0.042850602
242	0x3c521510	0.0128224045
243	0x3c1eeb30	0.009699628
244	0xbd927a2e	-0.0715221
245	0x3cedab28	0.029012278
246	0xbcd7460e	-0.026278522
247	0x3c6f4668	0.0146041885
248	0xbd20c638	-0.039251536
249	0xbd87baca	-0.06627424
250	0x3d20bef4	0.039244607
251	0x3d23fb96	0.040034853
252	0x3d330cce	0.043713383
253	0xbda3f6cd	-0.08006058
254	0x3ca240ac	0.019806229
255	0xbbfb00e0	-0.0076600164

model.0.bias f4 [256]
0	0x3d00d33c	0.03145145
1	0x3cedffc6	0.029052626
2	0x3d659c0a	0.056057014
3	0x3d4997b4	0.04921694
4	0x386b815a	5.6148834e-05
5	0x3c5d5b24	0.013510499
6	0x386a6579	5.588445e-05
7	0xbd7540c0	-0.059876204
8	0xbd9581ba	-0.07300134
9	0xbd7a9a99	-0.061182592
10	0x3d713e3a	0.058897234
11	0x3c04443e	0.008072911
12	0xbd718d4c	-0.05897264
13	0x3aa22de0	0.0012373291
14	0xbcce7082	-0.025200132
15	0x3c8403f0	0.016115159
16	0x3d907e3b	0.070553266
17	0xbd8e95f3	-0.06962194
18	0xbd85b0a5	-0.06527833
19	0xbd5837b6	-0.052787505
20	0xbd162057	-0.036651935
21	0xbc2724df	-0.010201662
22	0x3d5dc33e	0.054141276
23	0x3c48793e	0.012235938
24	0x3c7e59e2	0.015524359
25	0xbc871986	-0.016491663
26	0x3c459116	0.012058517
27	0xbd5b4e92	-0.053541727
28	0xbd556903	-0.0521021
29	0xbd1966e7	-0.03745165
30	0xbc3e506b	-0.011615853
31	0x3cdf75ac	0.02727779
32	0x3c4d054f	0.012513473
33	0xbd455ccf	-0.048184212
34	0x3d307d8a	0.043088473
35	0xbbddffb6	-0.006774868
36	0x3d790ecf	0.06080514
37	0x3d1dda0a	0.038538016
38	0x3c4da493	0.012551445
39	0x3bba466e	0.0056846654
40	0xbd5682fc	-0.05237101
41	0xbd886863	-0.06660535
42	0xbd1322d7	-0.035921898
43	0xbd90e339	-0.07074589
44	0xbdc86e59	-0.09786672
45	0xbcae7360	-0.02129525
46	0xbd84a411	-0.06476606
47	0xbd043c0d	-0.03228383
48	0x3d2ddf09	0.04244903
49	0xbb8d6d6d	-0.004316023
50	0xbc9fe474	-0.019518115
51	0xbd487406	-0.048938774
52	0xbbf3a28e	-0.0074351495
53	0x3d98d041	0.07461596
54	0xbd0996cd	-0.03359108
55	0x3bb9e714	0.0056732986
56	0xbc3b61bf	-0.011436879
57	0x3d499e05	0.049222965
58	0xbd0cf181	-0.034410004
59	0xbc8ff46a	-0.0175726
60	0xbd93a4fb	-0.07209202
61	0x3d9702db	0.073735915
62	0x3cdee579	0.02720903
63	0xbd179b0b	-0.037013095
64	0xbd2f2a42	-0.04276491
65	0xbd386976	-0.04502245
66	0x3d070e54	0.03297265
67	0xbd1128ff	-0.035439488
68	0x3b796cc2	0.003805921
69	0xbd85f9b4	-0.06541768
70	0xbd5cc23f	-0.053896185
71	0xbc884e63	-0.01663894
72	0x3d6ea495	0.058262426
73	0x3c5c407e	0.0134431105
74	0xbcbfd24e	-0.02341571
75	0x3bef2aeb	0.0072988174
76	0xbd0ce16e	-0.034394674
77	0x3d1f18b6	0.038841926
78	0x3c921251	0.017831
79	0x3d326e30	0.043562114
80	0x3db65f70	0.08904922
81	0x3d798870	0.060921133
82	0xbd81b7d8	-0.063338935
83	0x3d9fb041	0.0779729
84	0x3d9c7e09	0.07641227
85	0x3ce6f7f3	0.028194403
86	0x3cb496bc	0.022044532
87	0xbcda2398	-0.0266283
88	0xbd21b479	-0.039478753
89	0xbc0d7da8	-0.008635916
90	0xbcfd7017	-0.030937238
91	0xbd92585a	-0.07145758
92	0x3d77863b	0.060430747
93	0x3d25e0ff	0.040497776
94	0x3d4bdb48	0.04976967
95	0xbd89d25c	-0.06729576
96	0x3d342a8d	0.043985892
97	0x3d38ebf5	0.0451469
98	0xbbf93a09	-0.0076057953
99	0x3d70810e	0.058716826
100	0x3db2970e	0.08720218
101	0x3d8983f0	0.06714618
102	0xbd8f33b0	-0.069922805
103	0x3c75a334	0.014992524
104	0xbcfc34cd	-0.030786896
105	0xbd061bdb	-0.03274141
106	0xbcf39097	-0.029732032
107	0xbd6e1c4c	-0.058132455
108	0x3d588c12	0.052867956
109	0x3d5fcaca	0.054636754
110	0xbd80c6fc	-0.06287953
111	0xbd096f75	-0.03355356
112	0xbc8e91f5	-0.017403582
113	0x3cf733b9	0.03017603
114	0x3d87bd08	0.06627852
115	0x3b6bad9f	0.003596164
116	0x3d0c430d	0.034243632
117	0x3d9ef91f	0.0776236
118	0xbd38cf35	-0.045119483
119	0xbc76477d	-0.015031693
120	0x3cc90573	0.024538731
121	0xbdbd8a9d	-0.09254954
122	0xbc269bb1	-0.010168956
123	0xbd3bd960	-0.0458616
124	0xbcef5234	-0.029214002
125	0xbc8151b1	-0.015786024
126	0xbd6ad6ac	-0.057333633
127	0x3d2003fe	0.039066307
128	0xbc430e62	-0.011905285
129	0xbd9313af	-0.07181489
130	0x3c9a51a7	0.018837763
131	0xbd90fd83	-0.070796035
132	0xb9eae1d1	-0.00044800204
133	0x3c5f7cf8	0.013640635
134	0x3cd56ade	0.026051935
135	0xbd4f7368	-0.05064717
136	0xbd97836f	-0.07398116
137	0x3d13a251	0.03604347
138	0x3bd0e1d5	0.0063745775
139	0xbcd88564	-0.026430793
140	0x3d70d295	0.058794577
141	0xbd144553	-0.036198925
142	0xbda3d593	-0.079997204
143	0xbd3934fa	-0.045216538
144	0x3d139791	0.036033217
145	0x3c9384d0	0.018007666
146	0xbd728222	-0.059206136
147	0x3d83197b	0.064013444
148	0xbd50ff7a	-0.05102489
149	0x3d10068e	0.0351625
150	0xbbc8485c	-0.0061121415
151	0x3da0b4a9	0.07846958
152	0xbcc8e83e	-0.024524804
153	0x3c5a13b6	0.0133103635
154	0xbb96bc80	-0.0046001077
155	0xbc635618	-0.013875507
156	0xbdabd64c	-0.08390483
157	0xba6668c7	-0.0008789417
158	0xbd3f2e69	-0.04667512
159	0x3d301a40	0.042993784
160	0x3d37b08e	0.04484611
161	0xbce22111	-0.027603658
162	0x3c9ac2d0	0.018891722
163	0xbd5dc508	-0.05414298
164	0x3c9fb5e9	0.019495921
165	0xbd787a02	-0.06066323
166	0xbd22a7e1	-0.039710883
167	0xbd6f7fa8	-0.05847135
168	0x3d5f2fbe	0.05448889
169	0xbda6fc72	-0.08153619
170	0x3c63ced0	0.013904288
171	0x3d3f8a2a	0.046762623
172	0x3d7356b8	0.059408873
173	0x3d8cf8a0	0.06883359
174	0x3c94beea	0.018157441
175	0x3ce5e7ec	0.02806469
176	0xbd4a82f9	-0.04944131
177	0x3bc30d18	0.0059524886
178	0xba238600	-0.0006237924
179	0xbd78c9a2	-0.060739167
180	0xbd950182	-0.07275678
181	0x3bf20dda	0.007386905
182	0x3d0eec2c	0.0348932
183	0x3d83a0ef	0.0642718
184	0x3b9ef7fd	0.00485134
185	0x3cccde36	0.025008302
186	0xbd171b08	-0.036891013
187	0x3de21091	0.11038316
188	0xbd719b8f	-0.058986243
189	0x3d3fed98	0.046857446
190	0x3d8fe5e9	0.07026274
191	0x3d20c7d6	0.03925308
192	0xbbd34353	-0.0064472347
193	0xbd15c8ce	-0.036568455
194	0xbc63da26	-0.013906991
195	0x3d428b3a	0.047496058
196	0xbc60ef65	-0.013728951
197	0xbb680461	-0.0035403
198	0x3d0d9976	0.03457018
199	0xbce97853	-0.028499758
200	0xbd44dc67	-0.048061755
201	0xbcb763b5	-0.022386411
202	0x3d991c5a	0.07476111
203	0xbd25254f	-0.040318783
204	0xbd2e8ee1	-0.04261673
205	0xbd37e4d9	-0.04489598
206	0x3d8076ff	0.06272697
207	0x3da2226f	0.07916724
208	0x3d19b308	0.037524253
209	0x3dd1ab8c	0.10237798
210	0xbc1914b1	-0.009343312
211	0x3da95c39	0.08269543
212	0xbd67c049	-0.05657986
213	0x3d86c988	0.06581408
214	0x3bf67bb0	0.007522069
215	0xbcfc3e04	-0.03079129
216	0x3d839f85	0.0642691
217	0x3b8ada6e	0.0042374646
218	0x3cb5e7f9	0.02220534
219	0xbd12e9ee	-0.035867624
220	0x3c234a04	0.009966377
221	0xbd64d899	-0.055870626
222	0xbaaccc11	-0.0013183375
223	0x3ce3e590	0.027819425
224	0x3c045d29	0.008078852
225	0xbcc83a9e	-0.024442013
226	0x3d937c4d	0.07201443
227	0x3d6f000a	0.058349647
228	0x3d04ba71	0.032404367
229	0x3cf55dd0	0.02995196
230	0x3c99120f	0.018685369
231	0x3c946978	0.018116698
232	0xbccb6e89	-0.02483298
233	0xbd77f48c	-0.060535952
234	0xbcd3923c	-0.025826566
235	0xbd76e77c	-0.060279354
236	0x3d39ba1a	0.045343496
237	0xbd237d27	-0.039914276
238	0x3d211a1b	0.039331537
239	0x3d12bb97	0.03582343
240	0x3d12bc5b	0.03582416
241	0x3c8664e8	0.016405538
242	0xbdb3bad1	-0.08775867
243	0x3c2af6bb	0.010434802
244	0x3da11bae	0.078666076
245	0x3dbf70c4	0.0934768
246	0xbd1fdd0d	-0.03902917
247	0xbd854a4e	-0.06508313
248	0xbd0fe62d	-0.035131622
249	0x3d18862f	0.037237342
250	0x3d9551c1	0.07290984
251	0xbd5416d7	-0.051779594
252	0x3d19121f	0.037370797
253	0xbccfd033	-0.025367832
254	0x3d838db7	0.06423514
255	0xbd3278c0	-0.043572187

model.3.weight f4 [128, 256]
0	0xbd4dac64	-0.050213233
1	0xbd754909	-0.059884105
2	0x3d2bf9e4	0.04198636
3	0x3cdece97	0.02719812
4	0x3cb77ff9	0.02239989
5	0xbd9fcc2d	-0.07802615
6	0x3d3ea212	0.04654128
7	0xbcf088ad	-0.029362047
8	0x3ce2febc	0.027709357
9	0xbbe05d2c	-0.0068470445
10	0xbd28671c	-0.041113958
11	0x3b08e49f	0.0020888222
12	0xbc7b3b2e	-0.015333934
13	0x3b91533f	0.0044349725
14	0x3cf83b71	0.030301781
15	0xbcf335ec	-0.029688798
16	0x3d5ebc74	0.05437894
17	0xbd850a86	-0.06496148
18	0xbd78eaea	-0.060770907
19	0xbc4b8ca6	-0.01242367
20	0x3d38fd63	0.045163523
21	0xbd21ab28	-0.039469868
22	0xbd2ebd82	-0.042661197
23	0xbd71a340	-0.058993578
24	0xbc86ead1	-0.016469391
25	0x3c1e86ab	0.009675662
26	0xbcc503d8	-0.024049684
27	0xbd131f64	-0.03591861
28	0xbd35557d	-0.04427098
29	0x3d67241b	0.056430917
30	0x3c2e1004	0.010623936
31	0xbbf9d440	-0.007624179
32	0x3d7d9b93	0.061915945
33	0xbd79afdd	-0.060958732
34	0x3d2623ea	0.040561594
35	0x3c316802	0.01082802
36	0x3c0d139f	0.008610635
37	0xbd45c88f	-0.04828697
38	0xbd3a105a	-0.04542575
39	0x3d6bad14	0.057538107
40	0x3c008b9e	0.007845787
41	0xbd80e72b	-0.06294092
42	0x3cfb761c	0.030695967
43	0x3c50e455	0.012749751
44	0x3c128276	0.008942237
45	0x3a817653	0.0009877182
46	0xbd5ccfdc	-0.053909168
47	0xbca099d0	-0.019604594
48	0x3cb09481	0.021555187
49	0xbcc71db1	-0.02430615
50	0x3cf0b964	0.029385276
51	0x3d0c7686	0.03429272
52	0x3ceb8dc0	0.028754115
53	0xbcb3b880	-0.021938562
54	0xbd23d35c	-0.03999649
55	0xbc86ab3e	-0.016439077
56	0xbd785f6d	-0.06063788
57	0xbd4e058a	-0.05029825
58	0xbd3c12e4	-0.045916453
59	0xbcd8dcf0	-0.026472539
60	0x3cafef80	0.021476507
61	0xbd217bd4	-0.039424732
62	0x3c023a11	0.007948414
63	0x3c3f8868	0.011690237
64	0x3d32ef54	0.043685272
65	0x3b8f14a4	0.004366474
66	0xbd4f7882	-0.050652035
67	0xbcef2f1a	-0.029197264
68	0x3c169dea	0.009192923
69	0xbd3e18c6	-0.046410345
70	0xbd750d90	-0.059827387
71	0xbbb3ad91	-0.005483337
72	0xbd7375c4	-0.059438482
73	0xbd057f0b	-0.03259186
74	0x3d31d459	0.0434154
75	0xbcb501e6	-0.022095632
76	0x3d5455b6	0.051839553
77	0x3cb1fb84	0.021726377
78	0xbd446605	-0.047948856
79	0xbd319e78	-0.04336402
80	0x3c58fd1c	0.01324394
81	0x3b0382c9	0.0020066968
82	0xbcc4d53b	-0.024027457
83	0xbd69a748	-0.057044297
84	0xbcbed0cc	-0.023292921
85	0xbd1cff2e	-0.038329296
86	0xbaeb4180	-0.0017948598
87	0xbbdc867f	-0.0067299004
88	0xbcce3f73	-0.02517674
89	0xbd388ea4	-0.045057908
90	0x3c2d6928	0.010584153
91	0xbc8dadac	-0.017294727
92	0xbd1dce11	-0.0385266
93	0x3d0d95df	0.034566756
94	0xbcda69e2	-0.026661817
95	0x3ca7e384	0.02049423
96	0x3cd3c7d0	0.025852114
97	0xbd7c5ae8	-0.061610132
98	0xbce1f7c6	-0.027583968
99	0xbcc3e380	-0.023912191
100	0x3c08c790	0.008348361
101	0x3d3e4372	0.04645104
102	0xbb7520c0	-0.0037403554
103	0x3d696558	0.056981415
104	0xbd98f40b	-0.074684225
105	0xbd4f9d59	-0.050687168
106	0xbb8be314	-0.004269013
107	0x3c795c18	0.015219711
108	0xbc5aee97	-0.013362548
109	0xbd6cd14c	-0.05781679
110	0xbd586c0f	-0.052837428
111	0xbc69006b	-0.014221291
112	0xbd88c7e7	-0.06678753
113	0xbc1c777b	-0.009549971
114	0xbb752b15	-0.0037409712
115	0x3c71ed90	0.014766112
116	0x3ce0544b	0.027383944
117	0xbadb0240	-0.0016709045
118	0x3d3d6316	0.046237074
119	0x3cbc1585	0.02295948
120	0xbc754cba	-0.014971906
121	0x3b55eb0c	0.003264132
122	0x3ccf49a6	0.025303673
123	0x367fb264	3.8101798e-06
124	0xbce16252	-0.027512703
125	0x3b912ff0	0.0044307634
126	0x3c059c65	0.008154963
127	0xbc892d56	-0.01674525
128	0xbc0df294	-0.008663792
129	0xbd544904	-0.051827446
130	0xbbb25509	-0.005442266
131	0xbd18df46	-0.037322305
132	0xbcf032fe	-0.02932119
133	0x3d005dce	0.03133946
134	0x3ccc1d47	0.024916304
135	0x3c11b280	0.008892655
136	0xbd84344f	-0.064552896
137	0x3ccf2cea	0.025289971
138	0x3cab3030	0.020897001
139	0x3d17382b	0.0369188
140	0xbc59e701	-0.0132997045
141	0x3c683cff	0.014174699
142	0x3c769535	0.015050222
143	0x3d7088c0	0.058724165
144	0xbd747657	-0.05968317
145	0xbd284e64	-0.041090384
146	0xbd38992e	-0.04506796
147	0x3ba7ee40	0.005124837
148	0x3c921628	0.01783283
149	0xbcc97568	-0.024592116
150	0xbc00343b	-0.007824953
151	0x3aeb2f00	0.0017943084
152	0xbce5c688	-0.028048769
153	0xbd852140	-0.065004826
154	0xbc9b2ae4	-0.01894135
155	0x3d749ab4	0.05971785
156	0xbd3f2ea6	-0.046675347
157	0xbcfc1cce	-0.030775454
158	0x3d2d6090	0.042328417
159	0xbcd754da	-0.026285578
160	0xbcc58b50	-0.024114281
161	0xbc2ba8f0	-0.01047729
162	0xbcc0ac90	-0.023519784
163	0xbc2c442a	-0.010514298
164	0x3cac2e98	0.021018311
165	0xbb6309e5	-0.0034643349
166	0xbd43e8da	-0.047829486
167	0xbcfac6ca	-0.030612368
168	0xbd60b26a	-0.05485765
169	0xbd2631df	-0.040574905
170	0xbcc7b480	-0.024378061
171	0x3d154c20	0.03644955
172	0x3cc1f5fc	0.023676865
173	0x3b9753d1	0.004618146
174	0xba3b25df	-0.0007139127
175	0x3d7a5dca	0.0611246
176	0xbd584274	-0.05279775
177	0x3d031b58	0.0320085
178	0x3d513da0	0.05108416
179	0xbd11e0de	-0.03561484
180	0xbcfbcfd7	-0.030738754
181	0xbb3cbf9c	-0.0028800732
182	0xbd40699e	-0.046975724
183	0x3d761df4	0.06008716
184	0xbd925aa3	-0.07146194
185	0x3ce693b4	0.028146602
186	0xbd75691a	-0.059914686
187	0xbcef1a5c	-0.029187374
188	0xbcf21712	-0.029552016
189	0x3accf7cf	0.0015637818
190	0xbcdb915b	-0.02680271
191	0xbd674642	-0.056463487
192	0x3cb0e059	0.021591352
193	0xbc3e3428	-0.011609115
194	0xbd79ee43	-0.06101824
195	0x3cb9f4c5	0.022699723
196	0xbba7f4a9	-0.0051256013
197	0xbd8e2610	-0.069408536
198	0x3d2267eb	0.039649885
199	0xbd64e93f	-0.055886503
200	0xbcb1174c	-0.021617554
201	0xbd560802	-0.05225373
202	0x3a83b82e	0.0010049397
203	0x3ce8a8bc	0.028400771
204	0x3ce660f8	0.02812241
205	0x3cf3bc82	0.029752973
206	0xbd7f3bb7	-0.062312808
207	0x3cc97918	0.024593875
208	0xbd700da4	-0.05860676
209	0x3d40bfdf	0.047057983
210	0xbc99f7af	-0.018794863
211	0xbd4698fb	-0.048485737
212	0x3ca7a92c	0.02046641
213	0x3c9f85bd	0.019472951
214	0xbc251b78	-0.01007735
215	0xbc53d337	-0.0129287755
216	0x3cc530b3	0.024071073
217	0xbd6d212a	-0.057892956
218	0x3caa78bd	0.020809526
219	0xbd36d45e	-0.044636123
220	0x3c03517e	0.008015035
221	0x3bc088be	0.005875676
222	0xbd171536	-0.036885463
223	0xbd37715d	-0.044785846
224	0x3c9e0456	0.019289177
225	0xbd1e5c48	-0.038662225
226	0x3d3173ce	0.04332333
227	0xbd73b81a	-0.059501745
228	0xbd815ecd	-0.0631691
229	0xbc301478	-0.010747068
230	0x3cb817c7	0.022472275
231	0x3d582840	0.05277276
232	0xbd8615ee	-0.065471515
233	0xbd6ef288	-0.058336765
234	0x3d688f98	0.056777567
235	0x3cb057d6	0.021526258
236	0xbb56e086	-0.0032787635
237	0x3cb35858	0.021892712
238	0xbcbe8b9c	-0.02325993
239	0xbd6097a6	-0.054832123
240	0x3d2d0e0b	0.04224972
241	0x3a0b8980	0.00053229183
242	0x3bc629cd	0.0060474635
243	0x3d32c817	0.04364785
244	0xbc783384	-0.015149001
245	0xbd75cfbf	-0.060012575
246	0xbba25785	-0.004954281
247	0x3d19992e	0.0374996
248	0x3d807679	0.06272597
249	0x3d477082	0.04869128
250	0xbd7de377	-0.061984506
251	0xbd4beabc	-0.049784407
252	0x3c2c6abc	0.010523494
253	0xbd092a63	-0.03348769
254	0xbd3d2586	-0.046178363
255	0xbc6e9176	-0.014561048

model.3.bias f4 [128]
0	0x3cd06c8c	0.025442384
1	0x3d61840b	0.055057567
2	0x3bd40433	0.006470227
3	0xbc2fa8d0	-0.0107214
4	0x3c919031	0.017768951
5	0x3d157da9	0.036496792
6	0xbc6bf580	-0.0144017935
7	0x3d8c22bc	0.068425626
8	0xbc2691f9	-0.0101666385
9	0xbd68738f	-0.05675083
10	0xbcd8e347	-0.026475562
11	0xbd3b49eb	-0.04572479
12	0xbd34cd13	-0.044140887
13	0xbd8685df	-0.06568503
14	0xbd3664f7	-0.04452988
15	0xbd870188	-0.06592089
16	0x3b71d6ad	0.0036901638
17	0xbd396fd6	-0.04527267
18	0xbd2eb0ea	-0.042649187
19	0xbcb2ca01	-0.021824839
20	0xbd4253dd	-0.04744326
21	0x3d6117cc	0.054954335
22	0xbd352763	-0.044227015
23	0x3d14f57d	0.03636693
24	0x3d2658d8	0.04061207
25	0xbcbe0725	-0.023196766
26	0xbd660c3a	-0.056164004
27	0xbcafa727	-0.02144201
28	0x3d0764dd	0.033055175
29	0x3c8d5983	0.017254597
30	0xbd7baed4	-0.061446026
31	0x3d15aa1d	0.036539186
32	0x3b6a8f04	0.003579081
33	0xbd78ce19	-0.060743425
34	0x3d1e72e1	0.038683776
35	0xbc908636	-0.017642122
36	0x3d21cf61	0.039504413
37	0x3b3f5a36	0.0029198057
38	0x3d137372	0.03599877
39	0x3d7c9617	0.061666574
40	0x3c0c16e2	0.008550378
41	0xbba086e4	-0.0048988927
42	0xbd8831c4	-0.06650117
43	0x3dbc4af1	0.091939814
44	0x3d0eeece	0.03489571
45	0xbb2f315f	-0.0026732308
46	0x3cce2bd8	0.02516739
47	0xbd44fad0	-0.048090756
48	0x3c5a65c6	0.013329929
49	0xbca93493	-0.020654952
50	0x3d113f7d	0.035460938
51	0xbd637bf1	-0.05553812
52	0x3c8dceef	0.017310588
53	0xbcbf0dd6	-0.023322027
54	0xbcd0a38b	-0.025468608
55	0x3c7a50a6	0.015278017
56	0x3c2e8fc9	0.010654398
57	0xbc385ed4	-0.011253078
58	0x3d5c031e	0.05371391
59	0xbc0f38d9	-0.008741581
60	0xbd8c3b6f	-0.068472736
61	0xbd75012d	-0.059815574
62	0xbcd5555b	-0.026041677
63	0xbd746e01	-0.05967522
64	0xbd48552a	-0.048909344
65	0xbc47e074	-0.01219951
66	0x3bf70bfa	0.0075392695
67	0xbcc6ca30	-0.024266332
68	0x3d7be3de	0.061496608
69	0x3c5850cb	0.013202856
70	0x3d1633f7	0.03667065
71	0xbcd5b504	-0.026087292
72	0xbd6c5132	-0.05769462
73	0x3c09e8fe	0.008417366
74	0x3d3d1514	0.04616268
75	0x3c1c570c	0.009542238
76	0xbd4c3d6f	-0.049863275
77	0xbc5f0bbe	-0.013613639
78	0xbcce7c5b	-0.025205782
79	0x3d4833de	0.04887759
80	0x3d800579	0.06251044
81	0xbbd4cd08	-0.006494168
82	0x3d0aa63a	0.033849932
83	0x3d1969bf	0.037454363
84	0x3d439cf0	0.04775709
85	0x3a89c465	0.0010510801
86	0x3c9efab2	0.01940665
87	0xbd87f65d	-0.06638787
88	0xbc67a7a0	-0.014139086
89	0x3c43706c	0.011928659
90	0x3b3e58b1	0.0029044563
91	0x3d473f95	0.04864462
92	0xbd31402d	-0.043274093
93	0x3d25d00b	0.04048161
94	0xbd3accec	-0.045605585
95	0x3cf2a37a	0.029618967
96	0xbd21aa7f	-0.03946924
97	0x3d2442ca	0.040102758
98	0xbc9b1a8f	-0.018933563
99	0xbc3c6e6e	-0.011500938
100	0x3d56f6e6	0.052481554
101	0xbd696661	-0.0569824
102	0xbc43ad9c	-0.011943247
103	0xbd73a5e1	-0.059484366
104	0x3ce14551	0.027498873
105	0x3c93e6cc	0.018054388
106	0xbbecd68d	-0.007227725
107	0xbd12580d	-0.035728503
108	0x3c43f315	0.011959811
109	0xbc600b90	-0.013674632
110	0x3d4c00e6	0.049805544
111	0xbb873b77	-0.004126962
112	0xbd64a7d2	-0.05582411
113	0x3d26a570	0.040685117
114	0xbcebfe00	-0.02880764
115	0xbc87989a	-0.016552258
116	0x3cce4a40	0.02518189
117	0x3d005d70	0.03133911
118	0x3c2e4c08	0.010638244
119	0x3d598653	0.053106617
120	0xbd96eff7	-0.073699884
121	0x3ce01505	0.027353773
122	0xbd8a38b1	-0.06749094
123	0x3d53cf5d	0.05171143
124	0xbd498ce4	-0.04920663
125	0x3d187119	0.037217233
126	0xbd95cb17	-0.07314127
127	0xbbcb7c10	-0.0062098578

model.6.weight f4 [64, 128]
0	0x3d6318cc	0.05544357
1	0x3cf09000	0.02936554
2	0xbd150aa2	-0.036387093
3	0xbdbd6b1a	-0.092489436
4	0xbdca5b44	-0.09880689
5	0xbd4e9054	-0.05043061
6	0xbd596547	-0.0530751
7	0xbd566fa6	-0.05235257
8	0xbcc6481b	-0.024204304
9	0xbbc52037	-0.006015803
10	0x3cafdc88	0.021467462
11	0x3d5d6c9e	0.054058664
12	0xbd934d18	-0.07192439
13	0x3cc39a3e	0.02387726
14	0xbdb755fd	-0.08951948
15	0xbc09979f	-0.008397966
16	0x3d670a6a	0.056406416
17	0x3d5f8c23	0.054577004
18	0x3ca7a0b5	0.020462373
19	0xbd13672a	-0.035987057
20	0xbd6d9d16	-0.058011137
21	0x3d9cd14d	0.076571085
22	0x3b282242	0.0025655185
23	0x3d3bd62f	0.04585856
24	0xbc9fa0b0	-0.019485801
25	0xbce8cb53	-0.028417265
26	0xbce18558	-0.027529404
27	0x3bdf6213	0.0068171113
28	0x3cbee79a	0.023303796
29	0x3dae5e13	0.08514037
30	0x3c06adac	0.008220118
31	0xbdc00469	-0.09375841
32	0xbd662333	-0.056185912
33	0xbd9017dc	-0.07035801
34	0xbdb30c01	-0.08742524
35	0xbcd230d0	-0.025658041
36	0x3be92880	0.0071154237
37	0x3d9922de	0.074773535
38	0xbd25312e	-0.040330105
39	0xbc13002c	-0.008972209
40	0xbcb4b893	-0.022060668
41	0x3d294ca1	0.041332845
42	0x3d8b3ecb	0.06799086
43	0xbc63a106	-0.013893371
44	0x3cd32c06	0.025777828
45	0xbca49534	-0.020090677
46	0x3cf91b28	0.030408457
47	0x3dac70a9	0.08419926
48	0xbc881530	-0.016611665
49	0x3974ab7e	0.00023333539
50	0xbcc1ade6	-0.023642492
51	0xbd5a6856	-0.05332216
52	0x3d8c7bba	0.068595365
53	0x3d897d3b	0.06713339
54	0x3d1652c8	0.03670004
55	0xbd91d603	-0.071208976
56	0x3b1d2c22	0.0023982604
57	0x3d3514ab	0.044209164
58	0x3cebcfbe	0.028785583
59	0x3d73cc76	0.05952116
60	0xbd48a366	-0.048983954
61	0xbd2c8b6e	-0.042125158
62	0xbd75fc32	-0.060054965
63	0x3ccdfd53	0.025145208
64	0x3c431a69	0.011908152
65	0xbdcf2b36	-0.10115664
66	0xbd8e5dda	-0.069514945
67	0xbc95cdd3	-0.018286621
68	0x3c6e867c	0.014558431
69	0x3ae8909e	0.0017743295
70	0xbcd5fe13	-0.026122129
71	0xbd62b9e1	-0.05535305
72	0x3d29b25a	0.041429855
73	0xbd426f7d	-0.047469605
74	0x38e9be7d	0.00011145787
75	0xbda53adf	-0.080678694
76	0xbd75c1f0	-0.059999406
77	0xbb333b03	-0.0027348406
78	0xbcb442e2	-0.022004548
79	0xbd4ebd2e	-0.050473385
80	0xbce8c982	-0.028416399
81	0xbd6da3d9	-0.058017585
82	0x3d9110d4	0.07083288
83	0x3cfa7155	0.030571619
84	0x3db10bfd	0.08644865
85	0xbd5015eb	-0.050802153
86	0xbd5aa61d	-0.053381074
87	0xbd31d698	-0.043417543
88	0xbc1a9faf	-0.009437486
89	0x3d649c6d	0.05581324
90	0x3c0da2d4	0.008644778
91	0x3dad05c4	0.08448365
92	0xbd4fb2cf	-0.050707635
93	0xbdb4ea39	-0.08833737
94	0xbd075ee8	-0.033049494
95	0xbc757ce1	-0.014983387
96	0xbda738fd	-0.081651665
97	0xbd90b9ce	-0.070666894
98	0x3c2f69f7	0.010706416
99	0xbdd0961b	-0.1018488
100	0x3d71dc85	0.059048194
101	0xbd0a6cf7	-0.033795323
102	0xbd8ff448	-0.07029015
103	0xbbbc6366	-0.005749154
104	0xbd911f62	-0.07086064
105	0xbc8e126b	-0.017342767
106	0xbdbf5398	-0.09342116
107	0xbd8f4a5e	-0.06996606
108	0xbbbb5af0	-0.0057176277
109	0xbd10d133	-0.035355758
110	0xbd8d2749	-0.06892259
111	0x3d8aa02b	0.06768831
112	0x3ceff976	0.029293757
113	0x3d1826f5	0.037146527
114	0xbd2199c5	-0.039453287
115	0xbd2ed35a	-0.04268203
116	0xbc8f011d	-0.017456586
117	0x3c633fb6	0.01387017
118	0xbbc7c25c	-0.0060961675
119	0xbccffcbf	-0.025389073
120	0xbd64cb00	-0.05585766
121	0x3d7c82a5	0.06164803
122	0x3c819f94	0.015823163
123	0x3a445b35	0.00074903975
124	0x3c8611e1	0.016365947
125	0x3d8f74dc	0.07004711
126	0xb970470e	-0.00022914654
127	0xbdbaf599	-0.09128875
128	0xbd5db898	-0.05413112
129	0xbdaf4107	-0.08557325
130	0x3cc2c05a	0.023773361
131	0x3d1dec6a	0.03855554
132	0xbd66cddf	-0.056348678
133	0x3c8668f1	0.016407462
134	0xbd770261	-0.060305003
135	0xbd8efaf8	-0.06981462
136	0xbce654a7	-0.028116537
137	0xbda18545	-0.07886747
138	0x3c9b18d8	0.018932745
139	0x3d8decc4	0.06929925
140	0xbd6cd972	-0.05782456
141	0x3c9ac960	0.018894851
142	0x3d09f180	0.033677578
143	0xbd46db50	-0.048548996
144	0x3d824dde	0.06362508
145	0x3c115160	0.008869499
146	0x3b2d3d0c	0.0026434092
147	0xbc4f4d1a	-0.01265266
148	0xbd1155a9	-0.035482083
149	0x3c78f4ef	0.0151951155
150	0x3c06f83d	0.008237896
151	0xbd0e19c1	-0.03469253
152	0xbdc3ba5e	-0.09557031
153	0x3c854320	0.01626736
154	0x3cd713e4	0.026254602
155	0x3d58f883	0.052971374
156	0xbdbe91fc	-0.09305188
157	0x3d8631a5	0.06552438
158	0x3d4c21b7	0.04983684
159	0x3c0cfe38	0.008605532
160	0x3d99f9d7	0.07518356
161	0x3d8ed066	0.069733426
162	0xbd41e96c	-0.04734175
163	0xbd93f99a	-0.07225342
164	0xbd0d1e16	-0.03445252
165	0xbd715ed8	-0.05892834
166	0x3cdc023f	0.02685654
167	0xbd81ac0b	-0.06331643
168	0x3d286cc3	0.04111935
169	0xbdba4bb4	-0.090964705
170	0x3dc0510e	0.0939046
171	0x3d271686	0.040792964
172	0xbda12603	-0.07868578
173	0xbd36dbed	-0.04464333
174	0x3d30ce73	0.043165635
175	0x3ca02fc9	0.019554036
176	0x3d7b129f	0.061297055
177	0x3d39931d	0.045306314
178	0xbcead3a4	-0.028665371
179	0xbd9400e5	-0.07226733
180	0x3c93ac86	0.018026602
181	0xbce261ae	-0.027634468
182	0xbd285de0	-0.04110515
183	0xbd3a6053	-0.04550202
184	0x3c8fcfdb	0.017555168
185	0xbd2de29f	-0.04245245
186	0xbcb92791	-0.022601875
187	0x3d93168a	0.07182033
188	0x3d444a7a	0.04792259
189	0xbd77e38e	-0.060519747
190	0x3d1100e8	0.035401255
191	0x3d06436e	0.03277915
192	0xbd138414	-0.03601463
193	0xbd93408d	-0.071900465
194	0xbd4f0859	-0.05054507
195	0x3d5b88e1	0.053597335
196	0xbbd9d2a5	-0.0066474252
197	0xbc8c6af8	-0.01714085
198	0x3da3ff75	0.08007709
199	0xbdb705a9	-0.089366265
200	0xbdb1ebe0	-0.08687568
201	0xbc8f3e91	-0.017485889
202	0x3cd94c90	0.026525766
203	0x3c2cb6ad	0.0105416
204	0xbccc5a0b	-0.02494528
205	0x3bedfe2b	0.007262965
206	0x3cffcc39	0.03122531
207	0x3d7b11fd	0.06129645
208	0x3d00912f	0.031388458
209	0xbd347503	-0.044056904
210	0x39a2250a	0.00030926644
211	0x3d128832	0.035774417
212	0xbd9db958	-0.07701367
213	0xbab11dc9	-0.0013512905
214	0xbdba93f6	-0.091102526
215	0x3c0a01f2	0.008423315
216	0xbae54d74	-0.0017494396
217	0xbc2a588c	-0.010397088
218	0xbdb53712	-0.088483945
219	0xbda1f96e	-0.07908903
220	0xbd38f5c0	-0.04515624
221	0xbc97ed46	-0.018545758
222	0x3daec9fc	0.08534619
223	0xbd8d05fd	-0.06885908
224	0x3d823806	0.06358342
225	0xbcb23b91	-0.02175692
226	0x3d634bb4	0.055492118
227	0xbd281a23	-0.04104055
228	0xbd9be1d8	-0.07611436
229	0xbd03d6d0	-0.032187283
230	0xbd6039c1	-0.05474258
231	0x3d80a01e	0.0628054
232	0x3d7d9035	0.061905105
233	0x3c93dccd	0.018049622
234	0xbc975c59	-0.018476652
235	0xbc50dc57	-0.012747846
236	0xbc74c155	-0.014938672
237	0x3cec5950	0.028851181
238	0xbda13766	-0.078718945
239	0xbc79dfe1	-0.015251131
240	0xbd92403b	-0.07141157
241	0x3d703a2b	0.058649223
242	0xbc6ef16f	-0.014583929
243	0xbd2e99af	-0.042627033
244	0xbbe29a5b	-0.0069153733
245	0xbd139e07	-0.03603938
246	0xba9917ad	-0.001168003
247	0x3d2d5101	0.04231358
248	0x3d0ecadf	0.03486144
249	0x3d86b037	0.06576579
250	0x3cbd5de1	0.023116054
251	0xbd6eb4fa	-0.05827806
252	0xbd06e73c	-0.032935366
253	0x3d4ddc6a	0.05025903
254	0x3d627cbb	0.055294733
255	0xbdb28751	-0.08717216

model.6.bias f4 [64]
0	0xbcc0a911	-0.023518117
1	0xbd849623	-0.06473949
2	0x3d4ac37f	0.049502846
3	0x3a14a2f0	0.00056700315
4	0xbd3f9634	-0.046774104
5	0xba4ddd84	-0.0007853138
6	0xbd02c54c	-0.03192644
7	0x3db9c5d1	0.090709336
8	0xbd755f65	-0.05990543
9	0xbd5b3831	-0.053520385
10	0xbda42002	-0.080139175
11	0x3ca5696a	0.020191867
12	0xbd65c0e5	-0.05609216
13	0xbbb77cbe	-0.005599587
14	0x3c43c8ac	0.011949699
15	0x3d89b300	0.06723595
16	0xbd4d3445	-0.050098676
17	0x3d6b8f0a	0.05750946
18	0xbccd21e6	-0.025040578
19	0xbbdff6eb	-0.006834855
20	0xbd8140f1	-0.06311215
21	0x3da3d1fd	0.079990365
22	0xbd11604b	-0.035492223
23	0x3cac72db	0.021050861
24	0xbd35fbe8	-0.04442969
25	0xbdc98019	-0.09838886
26	0xbd2d4f9b	-0.042312246
27	0x3d6b675a	0.05747161
28	0xbda06059	-0.07830877
29	0x3c178bc2	0.009249629
30	0xbd47cabe	-0.048777334
31	0xbd14daad	-0.036341358
32	0xbd2a8919	-0.041634653
33	0x3ca3c9d6	0.019993704
34	0xbd8241dc	-0.06360218
35	0x3d0afef6	0.033934556
36	0xbdb7552d	-0.08951793
37	0xbd5f68c5	-0.054543275
38	0xbd7828bb	-0.06058572
39	0xbd6b102c	-0.05738847
40	0x3dd213fa	0.102577165
41	0x3d85fab1	0.06541956
42	0xbd4e6e18	-0.050397962
43	0xbd81480a	-0.063125685
44	0x3d2b08de	0.041756503
45	0x3cc04215	0.02346901
46	0xbd856419	-0.06513233
47	0x3caeb95b	0.021328619
48	0xbbb5d498	-0.005549025
49	0xbd3f1485	-0.04665043
50	0x3d407626	0.046987675
51	0xbd0ec29b	-0.03485356
52	0x3d63e16e	0.05563491
53	0xbd966ca6	-0.07344942
54	0xbb2437df	-0.0025057716
55	0x3d05829e	0.03259527
56	0x3cd8c3f1	0.02646062
57	0x3d304c22	0.043041356
58	0xbcbdb377	-0.023156865
59	0xbc7c3116	-0.015392562
60	0x3d986fc2	0.07443191
61	0xbb2a6841	-0.0026002082
62	0x3d2396d2	0.039938755
63	0xbd9d3bc6	-0.076774165

model.9.weight f4 [4, 64]
0	0x3d6242aa	0.055239357
1	0xbdea5d13	-0.11443534
2	0xbdf09ba0	-0.11748433
3	0xbc676a22	-0.014124425
4	0x3d347b06	0.044062637
5	0xbd20341a	-0.039112188
6	0xbd9ff803	-0.07810976
7	0xbda29e1a	-0.07940312
8	0xbd9cf01f	-0.07662987
9	0x3c9e5513	0.019327676
10	0xbdb7481d	-0.089493014
11	0x3dfe4ed7	0.12417381
12	0x3dacd110	0.08438313
13	0xbce25393	-0.027627742
14	0xbde655e9	-0.11246855
15	0x3dc39e57	0.09551685
16	0x3d841426	0.064491555
17	0xbdc15fdf	-0.09442114
18	0x3c843ccf	0.016142277
19	0xbcd506a2	-0.02600414
20	0x3da81439	0.08206982
21	0x3dfb8ee8	0.122831166
22	0x3c920f0e	0.017829444
23	0xbc18c4c0	-0.009324253
24	0xbceb999b	-0.028759768
25	0xbdf94e0a	-0.12173088
26	0xbdcdbec2	-0.1004615
27	0xbdeb3ccb	-0.11486205
28	0xbd3b88ff	-0.045784947
29	0x3de83cae	0.11339699
30	0x3adacf11	0.0016693791
31	0xbd39f312	-0.045397826
32	0xbdc8d94a	-0.098070696
33	0xbdefbd72	-0.11706056
34	0xbdbf2941	-0.093340404
35	0xbbc0ba80	-0.0058816075
36	0x3cb67432	0.022272203
37	0x3de0cd3b	0.109766446
38	0x3d46e4b1	0.04855794
39	0xbdd05e50	-0.10174239
40	0xbda8253a	-0.082102254
41	0x3d1fc2e4	0.03900422
42	0x3dde2fa6	0.10848932
43	0xbdecba00	-0.11558914
44	0x3ccc97b1	0.024974676
45	0x3db44999	0.088031
46	0x3d9a4892	0.07533373
47	0xbd7b144e	-0.06129866
48	0xbdfa96bc	-0.122357816
49	0xbc877a67	-0.016537858
50	0xbd10b605	-0.035329837
51	0x3db5ef6a	0.08883555
52	0xbdeec484	-0.11658576
53	0x3d077c66	0.03307762
54	0xbdc1b44e	-0.094582185
55	0xbd7a90ec	-0.061173365
56	0x3db6e422	0.08930232
57	0x3a2dc876	0.0006629297
58	0xbd8299f4	-0.063770205
59	0xbd134e6d	-0.035963465
60	0xbdfcf432	-0.12351264
61	0xbda3d276	-0.079991266
62	0x3d98d267	0.07462006
63	0x3cc6b659	0.024256872
64	0xbd5958a4	-0.05306305
65	0x3daea6de	0.08527921
66	0x3d5d4aba	0.054026343
67	0xbdc240a1	-0.09484983
68	0xbdaa89aa	-0.083270386
69	0x3d7c40d0	0.061585248
70	0x3de4d1e6	0.111728474
71	0x3dee624a	0.11639841
72	0x3c97f10c	0.018547557
73	0xbd2d8bf4	-0.042369798
74	0xbdbecbcf	-0.09316217
75	0xbc8b388a	-0.016994733
76	0xbcdd7fa2	-0.0270384
77	0xbdf3e8df	-0.11909651
78	0x3de66445	0.11249594
79	0xbcec045d	-0.028810674
80	0x3b61536f	0.0034382006
81	0xbd9e3c96	-0.077263996
82	0x3dfe3c5e	0.12413858
83	0xbd806427	-0.062691025
84	0xbd357a24	-0.044305936
85	0xbdb0bbfd	-0.08629606
86	0x3d5bb382	0.05363799
87	0x3e01e4c8	0.1268493
88	0xbd93ccf2	-0.072168246
89	0xbd665b9c	-0.05623971
90	0x3dbf5570	0.09342468
91	0xbd21e609	-0.03952602
92	0x3c84810d	0.016174817
93	0x3d872a9a	0.065999225
94	0x3df27ccc	0.11840209
95	0x3dcefe35	0.1010708
96	0x3d1aa2fb	0.037753087
97	0xbdd3f5d0	-0.103496194
98	0x3de57f8d	0.11205969
99	0xbd3639a7	-0.044488575
100	0x3c99e349	0.018785136
101	0x3b897187	0.0041944417
102	0xbda9e665	-0.082958974
103	0x3d918bfb	0.07106777
104	0xbda18642	-0.07886936
105	0xbe04f12c	-0.12982625
106	0xbc935800	-0.017986298
107	0x3dbabcc9	0.09118039
108	0x3d84d6e1	0.064862974
109	0xbd383479	-0.044971917
110	0xbcf41b15	-0.02979807
111	0xbd440d10	-0.04786402
112	0x3dbdafa7	0.09262019
113	0xba6d969b	-0.00090632745
114	0xbde706cd	-0.11280594
115	0x3cd307aa	0.02576049
116	0xbd80e683	-0.062939666
117	0x3b91054d	0.0044256807
118	0xbd6e2a6d	-0.05814593
119	0xbdbe816b	-0.09302028
120	0x3dfc0e06	0.12307362
121	0xbdc11f05	-0.09429745
122	0x3d89d20e	0.06729518
123	0x3c148680	0.00906527
124	0xbd5e0db4	-0.054212287
125	0x3bfc4d1c	0.007699622
126	0x3cf836fc	0.030299656
127	0xbd90263b	-0.07038542
128	0x3d92ab9a	0.07161637
129	0x3b00a62f	0.0019630303
130	0x3d251693	0.04030473
131	0xbc2bfe15	-0.01049759
132	0x3d2056cb	0.039145272
133	0x3d8da40e	0.069160566
134	0x3c1b6f29	0.009486952
135	0x3d278298	0.04089603
136	0x3d2ed107	0.042679813
137	0x3dac2de7	0.08407193
138	0x3c7dc813	0.015489596
139	0x3dd42da6	0.10360269
140	0x3db772f0	0.089574695
141	0x3da44de0	0.08022666
142	0xbe0bd362	-0.13654855
143	0xbdfd7c90	-0.12377274
144	0xbcc04ac7	-0.023473157
145	0x3ca4e9ce	0.020131018
146	0xbe098a4c	-0.13431662
147	0xbc987c07	-0.018613828
148	0xbda6b9ae	-0.08140884
149	0x3d372bd4	0.044719532
150	0x3dba8e31	0.09109152
151	0xbd92d2a7	-0.07169085
152	0x3de0e6ac	0.10981497
153	0xbdb3f7d9	-0.087875076
154	0xbd89e9fe	-0.067340836
155	0xbd662b90	-0.05619389
156	0x3d6ef756	0.058341347
157	0x3daf3b58	0.08556241
158	0xbc5f9db8	-0.013648443
159	0xbdaad32a	-0.083410576
160	0xbc524d35	-0.01283579
161	0x3db5adc6	0.08871035
162	0xbd884a6a	-0.06654818
163	0x3dcb2938	0.09919971
164	0x3dc5dedb	0.09661647
165	0xbd78d38a	-0.060748614
166	0x3d6ac87e	0.05732011
167	0xbdc10d65	-0.09426383
168	0xbddef0e4	-0.1088579
169	0xbdce3543	-0.100687526
170	0x3d0097ea	0.031394877
171	0x3d20633f	0.03915715
172	0xbc324474	-0.010880578
173	0x3de20ac5	0.110372104
174	0xbd9fcee6	-0.078031346
175	0x3d82393d	0.063585736
176	0xbd893254	-0.066990525
177	0x3ce9cd12	0.028540168
178	0xbd00124c	-0.03126745
179	0x3d155076	0.036453687
180	0xbdad9efb	-0.08477589
181	0x3d943fda	0.07238741
182	0xbd7a9cf2	-0.06118483
183	0x3ce7fb98	0.028318211
184	0x3c4a7686	0.01235736
185	0xbd75db72	-0.060023732
186	0xbd9fad9b	-0.077967845
187	0x3d31d9f2	0.04342074
188	0xbe10329c	-0.14081806
189	0xbe033f57	-0.12817131
190	0x3db7fd4c	0.089838594
191	0x3dc81209	0.09769065
192	0xbd84d5e1	-0.06486107
193	0x3dc6cb45	0.09706739
194	0xbc8229bd	-0.015889043
195	0x3da4543d	0.0802388
196	0x3de714ef	0.1128329
197	0xbd9ae9ac	-0.075641006
198	0xbd732c03	-0.059368145
199	0x3dd0123a	0.101597264
200	0x3dd8f498	0.105935276
201	0xbd07a6c9	-0.033118043
202	0xbbb584d2	-0.005539515
203	0xbc0f53d5	-0.008748014
204	0x3c8af34c	0.016961716
205	0x3db74856	0.08949344
206	0xbdb35977	-0.087572984
207	0x3dac32c9	0.08408124
208	0x3d4bf462	0.04979361
209	0xbd64b42d	-0.05583589
210	0x3c4084de	0.011750428
211	0x3d2ba10f	0.041901644
212	0xbdb42d19	-0.08797664
213	0x3d6c60d7	0.05770954
214	0x3d963e20	0.07336068
215	0xbde98da5	-0.1140397
216	0xbdc7d230	-0.09756887
217	0xbd86db24	-0.065847665
218	0x3d770c42	0.060314424
219	0xbde0d076	-0.10977261
220	0xbd21fcef	-0.039547857
221	0x3d9e039e	0.07715534
222	0x3de71417	0.11283129
223	0xbd7826a4	-0.060583726
224	0xbaf08c77	-0.0018352409
225	0x3e01ae2e	0.126641
226	0xbc5fa939	-0.013651186
227	0xbd7219dc	-0.059106693
228	0xbd751c73	-0.059841584
229	0x3b007403	0.0019600398
230	0xbde57818	-0.11204547
231	0xbd300ada	-0.0429791
232	0x3d02f8c6	0.03197553
233	0xbdd88c92	-0.10573687
234	0x3d957b03	0.07298853
235	0x3bed2a6f	0.0072377245
236	0x3d2e6351	0.042575184
237	0xbd6970f5	-0.05699249
238	0x3c30a68a	0.0107818935
239	0x3d4cd72b	0.050009888
240	0xbcee00b9	-0.029053079
241	0xbdc7fb01	-0.09764672
242	0xbe0973c5	-0.13423069
243	0x3ce86a28	0.028370932
244	0xbd386af8	-0.04502389
245	0xbdc12be3	-0.09432199
246	0x3d627f39	0.05529711
247	0x3da64ac4	0.08119729
248	0xbd6806b0	-0.056647003
249	0xbd3088e0	-0.043099284
250	0xbc9d637c	-0.019212477
251	0x3dc371cb	0.09543189
252	0xbda00bcb	-0.07814749
253	0xbd6618a7	-0.056175854
254	0xbdb45ad7	-0.08806389
255	0x3da88577	0.082285814

model.9.bias f4 [4]
0	0xbc046058	-0.008079611
1	0x3dbe99df	0.09306692
2	0x3d681e25	0.056669373
3	0x3da380f1	0.07983578
