models/discriminator.pth (torch, 433649 bytes, 13 tensors)

discriminator.0.weight f4 [256, 148]
0.02875493 -0.028480908 -0.03157017 0.048524503 -0.038903136 0.009387652 0.04801416 -0.049441803
-0.06286126 -0.005319676 0.035157114 -0.017227788 0.038774237 0.066964984 -0.034399353 0.04887483
0.030485552 -0.03537819 0.026677262 0.034442674 0.021829464 -0.05437889 -0.06656821 0.046742983
0.057551466 -0.014327943 0.055356294 -0.018814733 0.052549552 -0.028277876 -0.094915345 -0.013576481
0.020792034 0.10147422 -0.0018116396 0.008019322 -0.06498579 -0.036932025 0.07361982 0.08161925
0.004631764 -0.00083332293 -0.060248267 -0.013966942 -0.054460566 -0.048676323 0.045498267 -0.017773692
-0.023039674 0.033211008 -0.040321417 -0.0051643522 0.04798453 -0.08155137 -0.03857403 -0.012612218
-0.040735032 0.07984467 0.06382556 0.07677932 0.032466017 0.040805843 0.07871416 -0.052794714
-0.078295276 0.048324615 -0.034239177 0.03407269 -0.042307466 0.017078135 0.08426345 0.0017409691
-0.030144172 -0.04878802 -0.083330885 0.029991658 0.06276694 -0.089670256 0.030349562 -0.07170012
-0.052392274 -0.06008949 0.051951494 0.096186794 0.02598443 -0.08270589 0.052581128 0.060500152
0.08845266 -0.021998374 -0.004468752 0.06889752 0.052021403 0.009615093 -0.057119127 0.0019414596
0.035785306 -0.041699015 0.09024286 -0.016329037 0.083397135 -0.05860494 0.01963214 -0.077824205
-0.03224448 0.049956247 0.0223489 0.012783732 0.09661415 -0.0825586 0.01279254 -0.04114065
0.0009326911 -0.038648635 0.076005496 -0.019756421 -0.078219056 -0.051711265 -0.013282382 -0.03807931
-0.0827491 -0.0023051952 0.004522342 0.066849425 0.008471192 -0.052789185 0.033532355 -0.009598589
0.05013159 -0.055923317 -0.04619568 0.07532717 0.063226014 -0.09265607 0.012112804 -0.05832173
-0.096094966 0.04971325 0.006622099 -0.09383918 0.010602966 -0.05835496 0.0036571987 0.06384561
-0.058358505 0.0026543078 0.027796049 -0.008201122 -0.020222366 -0.027279519 0.021819148 0.024346216
0.04666286 -0.062632 -0.040072814 -0.015361456 0.017346388 -0.03766897 0.028414156 0.07712809
0.062223747 0.078457944 0.009944202 -0.071307786 -0.061815824 -0.025947044 -0.04566209 -0.0138663165
0.03615673 -0.0392359 0.02698667 0.103678554 -0.055233426 0.035187967 -0.03340718 0.023407351
-0.04275566 -0.040697176 -0.040858906 0.011119668 -0.028255379 -0.035408065 -0.043045733 0.00033303504
0.0740065 0.0024118172 0.021446398 -0.026424363 0.041758124 -0.08808875 0.048876286 -0.00095825596
-0.040384363 -0.065906 -0.091995366 0.07351039 0.022921594 -0.0082961945 0.01961675 -0.048539665
0.08726329 0.049311817 -0.025870888 0.049500972 0.014140795 0.032622308 -0.03127441 0.03547382
-0.047141258 0.03474261 -0.037469994 -0.014715293 0.015330427 -0.07005173 -0.07096202 -0.030725362
0.042804345 -0.019121906 -0.08282678 -0.10838367 0.013095458 0.093455896 0.020382823 0.05445313
0.058748115 0.029521108 -0.04642683 -0.07811098 0.07805351 0.08429227 0.08433247 -0.0015092393
-0.03598085 0.031455092 0.06584882 -0.056565154 -0.08302946 0.0003599291 0.091960795 0.08632881
-0.01668898 -0.008191711 0.032837942 0.036764443 -0.023034686 0.08007447 0.06717909 -0.05405944
-0.014912646 -0.099378735 -0.043243304 -0.03359147 -0.0926628 -0.04244248 -0.012382936 -0.0720258
00000000: 758f eb3c cb50 e9bc b94f 01bd a1c1 463d
00000010: e558 1fbd abce 193c 7faa 443d 7d83 4abd
00000020: 67bd 80bd ad50 aebb e800 103d 4a21 8dbc
00000030: bcd1 1e3d f024 893d 56e6 0cbd f930 483d
00000040: d6bc f93c b9e8 10bd 468a da3c c313 0d3d
00000050: b4d3 b23c 66bc 5ebd ea54 88bd 9275 3f3d
00000060: 16bb 6b3d c0bf 6abc 48bd 623d 5b21 9abc
00000070: 333e 573d 01a7 e7bc fa62 c2bd e36f 5ebc
00000080: 0e54 aa3c b7d1 cf3d 8a74 edba 7963 033c
00000090: 4517 85bd 0946 17bd fdc5 963d fe27 a73d
000000a0: 0dc6 973b 5b73 5aba e3c6 76bd 9ad5 64bc
000000b0: 0b12 5fbd d360 47bd 645c 3a3d 229a 91bc
000000c0: b3bd bcbc 4408 083d 1228 25bd ba39 a9bb
000000d0: 6d8b 443d 6804 a7bd cdff 1dbd 7aa3 4ebc
000000e0: c7d9 26bd 9a85 a33d fab6 823d 7a3e 9d3d
000000f0: 16fb 043d 0724 273d e434 a13d 453f 58bd
00000100: 4659 a0bd 08f0 453d 613e 0cbd ce8f 0b3d
00000110: 984a 2dbd 72e7 8b3c 5192 ac3d 3b31 e43a
00000120: e9f0 f6bc f2d5 47bd 62a9 aabd 11b1 f53c
00000130: f48b 803d 0aa5 b7bd a59f f83c 83d7 92bd
00000140: 4899 56bd 6620 76bd 17cb 543d 95fd c43d
00000150: 4ddd d43c b561 a9bd 4f5f 573d 02cf 773d
00000160: ab26 b53d ef35 b4bc 9c6e 92bb 251a 8d3d
00000170: 6514 553d 9f88 1d3c bff5 69bd 9378 fe3a
00000180: 9d93 123d 96cc 2abd 40d1 b83d 79c4 85bc
00000190: 1ecc aa3d bc0b 70bd 95d3 a03c 4c62 9fbd
000001a0: ca12 04bd ec9e 4c3d 0a15 b73c dc72 513c
000001b0: a4dd c53d 7c14 a9bd cd97 513c 1983 28bd
000001c0: d77f 743a 084e 1ebd c5a8 9b3d 38d8 a1bc
000001d0: 5031 a0bd 31cf 53bd 599e 59bc 0df9 1bbd
000001e0: 5c78 a9bd c212 17bb 2730 943b 5ae8 883d
000001f0: c1ca 0a3c 7939 58bd 3959 093d 6643 1dbc
00000200: c856 4d3d d90f 65bd ae37 3dbd 2245 9a3d
00000210: a47c 813d 77c2 bdbd c874 463c c4e2 6ebd
00000220: 70cd c4bd 1fa0 4b3d 31fe d83b c22e c0bd
00000230: 10b8 2d3c 9c05 6fbd 9dad 6f3b 7dc1 823d
00000240: 5409 6fbd e5f3 2d3b 8ab4 e33c 005e 06bc
00000250: 60a9 a5bc 4c79 dfbc 12be b23c b771 c73c
00000260: 8e21 3f3d 3545 80bd 6423 24bd 9eae 7bbc
00000270: 031a 8e3c c74a 1abd cec4 e83c 55f5 9d3d
00000280: 54de 7e3d 8fae a03d 02ed 223c d109 92bd
00000290: 9732 7dbd e58e d4bc 2c08 3bbd 8c2f 63bc
000002a0: 1419 143d d3b5 20bd 2613 dd3c 6c55 d43d
000002b0: 723c 62bd 4221 103d f8d5 08bd c6c0 bf3c
000002c0: 8f20 2fbd 15b2 26bd ab5b 27bd 452f 363c
000002d0: d377 e7bc 0c08 11bd b950 30bd 359b ae39
000002e0: b890 973d 940f 1e3b 5bb0 af3c e877 d8bc
000002f0: 910a 2b3d e067 b4bd 8032 483d 7833 7bba
00000300: 136a 25bd baf9 86bd 1168 bcbd 9e8c 963d
00000310: 11c6 bb3c c3ec 07bc 4eb3 a03c 87d1 46bd
00000320: 19b7 b23d 30fb 493d 2fef d3bc 88c1 4a3d
00000330: cbae 673c f89e 053d 9919 00bd ff4c 113d
00000340: 3117 41bd 444e 0e3d 237a 19bd 6a18 71bc
00000350: 792c 7b3c 4877 8fbd 8954 91bd c1b3 fbbc
00000360: 9c53 2f3d 8ba5 9cbc 16a1 a9bd 42f8 ddbd
00000370: 558e 563c ce65 bf3d e1f9 a63c 3f0a 5f3d
00000380: dda1 703d 40d6 f13c 0f2a 3ebd a6f8 9fbd
00000390: 85da 9f3d 6da1 ac3d 81b6 ac3d abd1 c5ba
000003a0: a860 13bd 0ed7 003d bfdb 863d ddb0 67bd
000003b0: 590b aabd deb4 bc39 f155 bc3d 29cd b03d
000003c0: 54b7 88bc 8736 06bc 1481 063d 5096 163d
000003d0: 3db3 bcbc 15fe a33d 3195 893d 6e6d 5dbd
000003e0: 2c54 74bc 1487 cbbd e41f 31bd 3697 09bd
000003f0: fec5 bdbd 2ad8 2dbd cce1 4abc 4382 93bd

discriminator.0.bias f4 [256]
0.08481433 -0.09293174 0.0018079017 -0.041633677 0.083636366 0.005545107 0.032700937 0.00879664
-0.034038894 0.0039696973 -0.057381827 0.07730714 0.022196293 0.03611427 0.060288243 0.0848515
0.03941344 0.07610377 -0.011430172 -0.007857393 0.025847567 0.015989698 0.058203712 -0.008316573
-0.018029887 0.08832286 -0.035269387 0.0029906137 0.01119006 -0.089364074 -0.014881398 0.0151467305
-0.049464464 -0.02364075 -0.051215753 0.054939948 0.033383187 -0.014099167 0.031130081 -0.0010918807
0.026679656 0.079734035 0.10595409 -0.0054074973 -0.06455377 -0.028221104 -0.06947997 0.07012062
0.04325683 0.0009782988 -0.07231126 0.043661296 -0.013992853 -0.050028004 -0.06354248 0.0026947297
0.05344462 -0.07633291 -0.06351175 -0.065303944 -0.035025474 0.067888804 -0.0941029 -0.05444483
-0.0072517 -0.027759409 0.009514694 -0.003984225 -0.057505697 -0.08977771 0.012913345 0.05191228
-0.009057155 -0.04567149 -0.034222335 -0.043833595 -0.00019864953 0.012614323 0.01452988 -0.00741307
-0.052556153 0.02372806 -0.04159891 -0.09040442 -0.04463233 0.07641585 0.004161367 -0.0120073315
-0.0006402637 -0.11379279 0.022306217 -0.06221415 0.022524778 -0.057490427 -0.043280713 0.00900883
-0.000114802795 -0.042702917 0.0028964302 0.004503174 -0.046294264 0.00094385655 -0.032066848 0.07573642
0.042571217 -0.0037100879 -0.028952084 -0.12917338 -0.032421097 0.019493371 -0.019291006 -0.0021638176
-0.037434794 0.0003167523 0.03134674 -0.00096722227 0.0017903348 0.028597774 -0.076977655 0.006042759
0.06354664 -0.012493749 -0.016245577 -0.037890017 -0.024063615 -0.011820711 -0.01333947 0.039169546
-0.04840035 -0.009203994 -0.06348357 -0.06236043 0.015064497 0.046362717 0.010019804 -0.028097872
-0.030664725 0.017372215 0.078970164 -0.044149265 0.05707654 -0.08089829 0.02347321 -0.028212467
-0.046262342 0.09312095 0.060868986 0.023531547 -0.041750036 -0.053922128 -0.027474415 0.043235652
-0.0034875534 0.02788488 -0.04103407 -0.040934127 0.0621837 -0.053075943 0.061992787 -0.029203104
0.022828769 0.017074563 -0.02089906 0.010634867 -0.03111323 -0.090273395 0.012206813 0.048880678
0.02278703 0.038707387 0.043828283 0.04348092 0.020833237 0.020489765 -0.05531446 0.009236807
-0.036142528 0.011027554 -0.044217948 -0.021341886 0.028449196 0.08229389 0.061325353 0.07315113
0.044780537 -0.00020257987 -0.047556244 -0.035193272 -0.041315176 -0.013339737 0.072333686 0.05126774
-0.10682127 0.04073342 0.036305454 0.007045131 -0.1027047 -0.0028212005 0.029269036 0.055118907
0.038926948 -0.047202755 -0.098310806 -0.003999077 0.008845726 0.041711114 0.004255872 -0.015982868
0.012462783 0.057695948 0.06412482 0.083276756 -0.0445508 -0.050889276 -0.06335392 0.08918474
0.038713604 0.021547558 -0.03813337 0.03368357 -0.060619965 0.043447345 0.053679753 0.035866473
-0.002409475 0.06307053 -0.019155424 0.03063114 -0.08591436 0.03723761 -0.030844752 0.011353011
0.02802106 -0.057422273 0.004753787 -0.0048978156 -0.018994613 0.0063033183 0.0025842753 -0.061943647
-0.046010256 0.07365013 -0.0033794653 -0.001733975 -0.05329554 -0.058433376 -0.012039657 -0.017301068
0.023956193 -0.0058267945 -0.038028322 -0.06473732 0.0038882955 0.069956265 0.042093027 0.07422519
00000000: 23b3 ad3d ff52 bebd 1df7 ec3a 1388 2abd
00000010: 8b49 ab3d bbb3 b53b 6bf1 053d c81f 103c
00000020: 5e6c 0bbd 3c14 823b 3509 6bbd 3553 9e3d
00000030: 00d5 b53c 8fec 133d cef0 763d a0c6 ad3d
00000040: fd6f 213d 4bdc 9b3d 9e45 3bbc 4bbc 00bc
00000050: 47be d33c d4fc 823c 0467 6e3d 3c42 08bc
00000060: 6ab3 93bc 9ee2 b43d a276 10bd 2cfe 433b
00000070: 8356 373c 8304 b7bd 1bd1 73bc fe29 783c
00000080: 409b 4abd 3faa c1bc 9cc7 51bd b608 613d
00000090: cfbc 083d 3100 67bc 8304 ff3c 701d 8fba
000000a0: 4b8f da3c 994b a33d 75fe d83d 6031 b1bb
000000b0: c434 84bd f22f e7bc 844b 8ebd 669b 8f3d
000000c0: 132e 313d 433a 803a ed17 94bd 30d6 323d
000000d0: 4842 65bc 2aea 4cbd 8f22 82bd 109a 303b
000000e0: bfe8 5a3d 6e54 9cbd 7312 82bd 13be 85bd
000000f0: df76 0fbd 4909 8b3d 05b9 c0bd 8b01 5fbd
00000100: ab9f edbb b367 e3bc 85e3 1b3c 1a8e 82bb
00000110: 188b 6bbd 60dd b7bd 7f92 533c f9a1 543d
00000120: 7664 14bc 0712 3bbd b82c 0cbd db8a 33bd
00000130: 944c 50b9 4eac 4e3c bc0e 6e3c 57e9 f2bb
00000140: 1f45 57bd 5961 c23c 9e63 2abd f425 b9bd
00000150: 64d0 36bd ea7f 9c3d 145c 883b 66ba 44bc
00000160: 5fd7 27ba 320c e9bd 87bb b63c 44d4 7ebd
00000170: e285 b83c 157b 6bbd 1e47 31bd c699 133c
00000180: 48c2 f0b8 41e9 2ebd 09d2 3d3b 5d8f 933b
00000190: 0e9f 3dbd 246d 773a 8758 03bd b21b 9b3d
000001a0: 285f 2e3d f224 73bb ec2c edbc 0746 04be
000001b0: fccb 04bd 90b0 9f3c 2c08 9ebc d6ce 0dbb
000001c0: 3a55 19bd c611 a639 7065 003d 308d 7dba
000001d0: aba9 ea3a e145 ea3c 76a6 9dbd 5602 c63b
000001e0: be24 823d 95b2 4cbc 7215 85bc 9032 1bbd
000001f0: 0f21 c5bc a8ab 41bc cb8d 5abc 3f70 203d
00000200: 723f 46bd 59cc 16bc ad03 82bd a66d 7fbd
00000210: 14d1 763c d5e6 3d3d 1b2a 243c 822d e6bc
00000220: 9734 fbbc 2d50 8e3c 1cbb a13d dcd5 34bd
00000230: 17c9 693d 01ae a5bd e44a c03c d51d e7bc
00000240: 957d 3dbd 32b6 be3d c251 793d 3bc5 c03c
00000250: 1602 2bbd 73dd 5cbd 0612 e1bc de17 313d
00000260: 708f 64bb d56e e43c 5713 28bd 8baa 27bd
00000270: 56b4 7e3d 2966 59bd 26ec 7d3d 593b efbc
00000280: 6603 bb3c f4df 8b3c 8134 abbc dd3d 2e3c
00000290: 2ce1 febc 42e1 b8bd 16ff 473c 1b37 483d
000002a0: deab ba3c a38b 1e3d 4985 333d 0d19 323d
000002b0: 77aa aa3c 27da a73c 6a91 62bd fa55 173c
000002c0: 300a 14bd eaac 343c e11d 35bd 2ed5 aebc
000002d0: 4a0e e93c b389 a83d 4b30 7b3d 42d0 953d
000002e0: cc6b 373d 9f6b 54b9 56ca 42bd d226 10bd
000002f0: 1a3a 29bd ea8e 5abc af23 943d 1ffe 513d
00000300: 1cc5 dabd 16d8 263d 07b5 143d d8da e63b
00000310: d756 d2bd e4e3 38bb 9ec5 ef3c 5dc4 613d
00000320: dd71 1f3d ad57 41bd 2d57 c9bd b00a 83bb
00000330: aaed 103c 46d9 2a3d d874 8b3b 81ee 82bc
00000340: b330 4c3c 9652 6c3d e053 833d 018d aa3d
00000350: e67a 36bd 4671 50bd b3bf 81bd 7da6 b63d
00000360: 2892 1e3d 8184 b03c bd31 1cbd c8f7 093d
00000370: a44c 78bd d8f5 313d 4ddf 5b3d b9e8 123d
00000380: 48e8 1dbb 1f2b 813d d6eb 9cbc 28ee fa3c
00000390: def3 afbd 7786 183d 22ae fcbc fb01 3a3c
000003a0: 6c8c e53c 9e33 6bbd a8c5 9b3b db7d a0bb
000003b0: 979a 9bbc 118c ce3b f25c 293b 9fb8 7dbd
000003c0: 4075 3cbd e1d5 963d 057a 5dbb 8c46 e3ba
000003d0: 6d4c 5abd d657 6fbd fb41 45bc f8ba 8dbc
000003e0: c73f c43c b2ee bebb 96c3 1bbd 0095 84bd
000003f0: c6d2 7e3b 3b45 8f3d bd69 2c3d 6003 983d

discriminator.3.weight f4 [128, 256]
-0.02149533 0.07180423 -0.028906075 -0.04328676 -0.015390924 0.058806755 0.0387736 -0.0004969773
-0.048004452 0.093745545 0.010277872 0.063554525 -0.029231606 -0.029544553 -0.053149138 0.048772596
-0.03094815 0.058246613 0.07057486 0.09222223 0.037808724 0.056238215 0.043197013 0.004670101
0.103293836 0.07860604 0.06689776 0.00041816215 -0.04159109 -0.05108257 -0.038347475 0.033918858
-0.037370283 0.06714655 0.029159049 0.01717277 0.013005168 -0.010191539 0.07600639 0.046495747
-0.005098452 0.005094751 -0.041298017 0.005202411 0.042087957 0.02782202 -0.013333597 0.052659865
0.04198098 0.06662539 -0.005672715 0.04460142 0.023578951 0.04610727 -0.0074995817 -0.060671568
0.01819253 0.08006874 0.04474466 0.031303633 0.027345857 -0.034127932 0.024002558 0.018631158
0.035498146 -0.06497861 0.0203216 0.09148116 0.038524188 0.0063656606 -0.0046014977 0.044699635
0.023305602 0.022723181 0.021871008 -0.02672292 0.01681698 0.08172051 0.03424066 0.09958467
0.054001357 -0.03923549 0.0749113 -0.0023603875 0.081942886 0.02439351 0.07112936 0.044546816
0.044885308 -0.052034806 0.09137294 0.023052922 0.056802493 -0.004031915 0.0646641 -0.037568208
-0.04593396 0.011374807 0.090405166 0.080118336 -0.005296196 -0.041912943 0.003081621 0.05823009
-0.019039689 0.008149177 0.0062647285 6.639697e-05 -0.03123347 0.04236577 -0.0056899292 -0.013907957
0.036026824 -0.03931865 0.008187063 -0.0007715928 0.03077607 0.034922466 0.07431582 0.03906555
-0.007177071 0.09371206 0.035720874 0.06322738 0.03516772 0.036052108 0.002835253 -0.005494103
-0.03053986 -0.06362279 0.012612812 -0.048649408 0.011975296 0.024445077 0.04919697 0.0013650572
0.005119193 -0.037643258 0.037337106 -0.034843415 0.0709163 0.03255456 0.01998695 0.040182173
0.011206158 0.0051719947 0.060931206 0.029090319 0.06801658 0.058951322 0.07559474 -0.047014143
-0.0059073735 0.011136317 0.019825445 0.07285237 0.06893971 0.024863167 0.039798178 0.030146535
0.056337 0.08054107 0.099389836 0.016720008 -0.014482003 -0.022641027 -0.06395608 0.049318362
0.04727038 0.036369488 0.020108532 -0.032556146 0.041767176 0.07251615 0.02187029 0.051067915
0.048511777 0.04481992 0.021924011 -0.035857044 0.036579497 -0.019990373 -0.016367398 0.004434178
0.019870693 0.14084522 0.0058479477 0.0056745056 -0.015590097 0.080207005 0.018214371 -0.041378304
-0.06642261 0.046120875 -0.021836445 0.022980085 0.04257729 0.016574856 -0.04215358 0.055173095
0.048962045 0.07892032 -0.059315603 0.04798148 -0.009285046 0.047154546 0.06782352 0.039449584
0.06778087 -0.025539245 0.033073515 0.03144238 0.03840001 0.023975005 0.07881974 0.05209203
-0.024230413 -0.04885264 -0.0017314575 0.075542316 -0.041674145 -0.03152786 0.040999684 -0.01732967
0.13165271 -0.0026241054 -0.03350521 0.082289934 0.020364339 0.04911632 -0.021961816 0.006368828
0.06448325 -0.036119774 0.026296878 0.04371257 0.043862823 0.01826134 0.03338807 0.054171734
-0.019411426 0.0015858889 -0.015461349 0.059443463 0.019673081 -0.021417392 -0.007202812 0.08075016
0.05849669 0.07723509 -0.057931267 0.04625499 0.059783753 0.06571786 0.03905394 -0.03929923
00000000: f916 b0bc 190e 933d 6fcc ecbc 754d 31bd
00000010: 372a 7cbc 5adf 703d 11d1 1e3d 9547 02ba
00000020: 51a0 44bd aafd bf3d 8564 283c e028 823d
00000030: 1f77 efbc 6b07 f2bc e9b2 59bd c6c5 473d
00000040: fa86 fdbc 0094 6e3d 8d89 903d 02df bc3d
00000050: 52dd 1a3d 0b5a 663d 5aef 303d a607 993b
00000060: b88b d33d 34fc a03d b101 893d c63c db39
00000070: 6b5b 2abd f53b 51bd 3e12 1dbd 80ee 0a3d
00000080: 9511 19bd 2184 893d f5de ee3c e9ad 8c3c
00000090: a113 553c 6afa 26bc 3da9 9b3d 5372 3e3d
000000a0: ea10 a7bb def1 a63b 1c28 29bd fd78 aa3b
000000b0: 6c64 2c3d 01eb e33c 2975 5abc dfb1 573d
000000c0: 40f4 2b3d e472 883d 2fe2 b9bb fbaf 363d
000000d0: a528 c13c fada 3c3d 0dbf f5bb c082 78bd
000000e0: 8008 953c 14fb a33d 2d46 373d 3d38 003d
000000f0: 6b04 e03c bbc9 0bbd 03a1 c43c 5fa0 983c
00000100: 8166 113d 8113 85bd 7c79 a63c 795a bb3d
00000110: 8acb 1d3d 0897 d03b 29c8 96bb f716 373d
00000120: 64eb be3c f725 ba3c d42a b33c 06ea dabc
00000130: c3c3 893c 155d a73d ef3f 0c3d 0cf3 cb3d
00000140: 8730 5d3d 65b5 20bd 186b 993d bbb0 1abb
00000150: acd1 a73d e6d4 c73c 45ac 913d b976 363d
00000160: a8d9 373d 7322 55bd bc21 bb3d 7bd9 bc3c
00000170: bba9 683d 281e 84bb 9d6e 843d 1fe1 19bd
00000180: 3f25 3cbd 665d 3a3c 5826 b93d 1515 a43d
00000190: b68b adbb e8ac 2bbd 05f5 493b ad82 6e3d
000001a0: 1ff9 9bbc 2084 053c 5a48 cd3b 9a3e 8b38
000001b0: 56dd ffbc bb87 2d3d 9672 babb 33de 63bc
000001c0: dd90 133d 980c 21bd 0823 063c b744 4aba
000001d0: 191e fc3c dc0a 0f3d e532 983d 3303 203d
000001e0: a32d ebbb 1cec bf3d 0d50 123d 5b7d 813d
000001f0: 070c 103d 60ab 133d a7cf 393b e007 b4bb
00000200: ba2e fabc aa4c 82bd f8a5 4e3c 9a44 47bd
00000210: 0834 443c 0b41 c83c c382 493d b8eb b23a
00000220: e7be a73b d12f 1abd cbee 183d f8b7 0ebd
00000230: 913c 913d ee57 053d acbb a33c 1096 243d
00000240: 099a 373c d679 a93b 0093 793d d24e ee3c
00000250: 474c 8b3d f176 713d 6ad1 9a3d e791 40bd
00000260: a492 c1bb 1975 363c f968 a23c a033 953d
00000270: 4330 8d3d d7ad cb3c 6a03 233d def5 f63c
00000280: a0c1 663d b7f2 a43d e68c cb3d 66f8 883c
00000290: ec45 6dbc ad79 b9bc 68fb 82bd 0d02 4a3d
000002a0: 969e 413d 2cf8 143d a6ba a43c 9859 05bd
000002b0: 0f14 2b3d 5983 943d 5329 b33c 972c 513d
000002c0: 49b4 463d 1895 373d fc99 b33c d6de 12bd
000002d0: 62d4 153d dac2 a3bc ec14 86bc 954c 913b
000002e0: ddc7 a23c bb39 103e 24a0 bf3b 34f1 b93b
000002f0: 9b6d 7fbc 9243 a43d 4e36 953c 4c7c 29bd
00000300: 9408 88bd 3ee9 3c3d 58e2 b2bc bb40 bc3c
00000310: 8665 2e3d fec7 873c 3ba9 2cbd 2ffd 613d
00000320: 6d8c 483d faa0 a13d ebf4 72bd 3a88 443d
00000330: 4e20 18bc 2025 413d 0fe7 8a3d e395 213d
00000340: b2d0 8a3d ae37 d1bc 1878 073d bac9 003d
00000350: 5449 1d3d 3b67 c43c 3e6c a13d 745e 553d
00000360: dc7e c6bc b519 48bd 13f2 e2ba eeb5 9a3d
00000370: 82b2 2abd 5b23 01bd 49ef 273d f4f6 8dbc
00000380: f8cf 063e 2ff9 2bbb c23c 09bd a087 a83d
00000390: 1dd3 a63c 322e 493d 44e9 b3bc 9ab1 d03b
000003a0: cb0f 843d 54f2 13bd 8d6c d73c f40b 333d
000003b0: 81a9 333d ce98 953c eec1 083d 2ee3 5d3d
000003c0: b604 9fbc 9add cf3a 9951 7dbc fd7a 733d
000003d0: 7129 a13c 8773 afbc 9105 ecbb 5760 a53d
000003e0: 3a9a 6f3d 6e2d 9e3d 5649 6dbd df75 3d3d
000003f0: cfdf 743d 1697 863d 06f7 1f3d 3bf8 20bd

discriminator.3.bias f4 [128]
-0.035216883 0.06312646 0.042129494 -0.025513902 0.0035758105 -0.04348502 -0.03576484 -0.048257984
-0.041066665 0.0025711108 0.011694009 -0.040353373 -0.051150184 -0.032904755 -0.04348869 0.034025077
0.038234066 -0.024508832 0.06683418 0.078451745 0.034980543 0.068664715 0.0006098323 0.00801448
0.06512075 -0.038541835 -0.01082526 0.07345429 -0.0003064187 -0.02990631 -0.05106386 0.0048581376
-0.0008976216 0.06994658 -0.018390605 0.011170275 0.04782427 -0.08071491 0.053493455 -0.008550014
-0.05218378 -0.03947206 -0.03566724 0.04885752 -0.078089915 -0.0037973775 -0.032701187 0.005562859
0.06212284 0.062788524 -0.044098232 -0.026129168 0.051021844 -0.040228046 0.012548003 -0.0022150103
0.025863498 0.008711764 0.043259457 0.02886004 0.05464488 0.015775234 0.04838284 0.017401734
0.027602125 -0.030395512 0.05140362 -0.03382642 -0.07375846 0.048011422 -0.010255694 0.034258142
0.07202086 -0.003329859 -0.03862939 -0.0027380642 0.04014318 0.00901734 0.06755837 0.041382506
-0.025700461 -0.016223315 -0.019898169 -0.04755541 -0.0239276 0.009965702 -0.025306296 -0.026641734
-0.011723438 0.032884937 -0.0036284626 -0.027798412 0.013529275 -0.022264624 -0.045794744 0.061871223
-0.048772443 -0.018825097 0.023894804 -0.04026725 0.011787098 -0.016511226 0.034172505 -0.04913257
0.06281735 -0.045356125 0.054299347 0.061268825 -0.07983736 -0.061051875 0.07850221 0.026023963
0.07673305 0.08046802 0.016690677 -0.031557627 0.0034117103 0.01668875 0.00026244225 0.037215523
0.012280472 0.042922683 0.007637006 -0.023514392 0.03185041 0.06994532 -0.04421939 0.040908866
00000000: 943f 10bd 7248 813d fa8f 2c3d 8802 d1bc
00000010: 2558 6a3b 591d 32bd 277e 12bd 2aaa 45bd
00000020: 8535 28bd 1580 283b 3b98 3f3c 9449 25bd
00000030: db82 51bd 23c7 06bd 3221 32bd e15d 0b3d
00000040: 539b 1c3d bfc6 c8bc 5ce0 883d 4fab a03d
00000050: c247 0f3d 16a0 8c3d 27dd 1f3a 2a4f 033c
00000060: 075e 853d 0bde 1dbd 6e5c 31bc 346f 963d
00000070: d2a6 a0b9 14fe f4bc 5728 51bd 0331 9f3b
00000080: 5e4e 6bba 2740 8f3d e5a7 96bc 8703 373c
00000090: 62e3 433d dc4d a5bd f41b 5b3d 5c15 0cbc
000000a0: a9be 55bd 74ad 21bd d017 12bd d31e 483d
000000b0: 9bed 9fbd 6cdd 78bb aef1 05bd a548 b63b
000000c0: 8574 7e3d 4597 803d 59a0 34bd d60c d6bc
000000d0: 48fc 503d 2ac6 24bd 2496 4d3c b529 11bb
000000e0: b0df d33c c9bb 0e3c d430 313d e46b ec3c
000000f0: 4fd3 5f3d 103b 813c 162d 463d 158e 8e3c
00000100: da1d e23c 0200 f9bc 9a8c 523d 928d 0abd
00000110: ad0e 97bd a0a7 443d 8007 28bc 4452 0c3d
00000120: ac7f 933d c439 5abb da39 1ebd 1871 33bb
00000130: 2d6d 243d 77bd 133c 0b5c 8a3d b480 293d
00000140: c689 d2bc c2e6 84bc 7c01 a3bc 76c9 42bd
00000150: d003 c4bc 2f47 233c 264f cfbc c43f dabc
00000160: aa13 40bc 5bb2 063d 80cb 6dbb 7fb9 e3bc
00000170: e4a9 5d3c 4d64 b6bc 4593 3bbd ae6c 7d3d
00000180: 9dc5 47bd 1737 9abc 09bf c33c 46ef 24bd
00000190: ac1e 413c 8d42 87bc 78f8 0b3d 3c3f 49bd
000001a0: 62a6 803d 58c7 39bd fe68 5e3d 05f5 7a3d
000001b0: c581 a3bd 8811 7abd c4c5 a03d 3530 d53c
000001c0: 3826 9d3d 6bcc a43d e3ba 883c 9242 01bd
000001d0: 0097 5f3b d8b6 883c 6798 8939 4e6f 183d
000001e0: 0834 493c b2cf 2f3d da3f fa3b 41a1 c0bc
000001f0: 9375 023d 7e3f 8f3d 641f 35bd 0e90 273d

discriminator.6.weight f4 [64, 128]
0.01239246 -0.049187772 -0.02237972 0.05511788 -0.0020149285 0.01029651 0.08988424 0.103395395
-0.06481882 0.083368726 0.022178423 0.12567785 -0.0033242684 0.104423285 -0.014759677 0.014427838
0.029713836 -0.059633497 -0.101325385 0.0048916265 -0.12223168 0.032761574 0.09534632 0.026582683
0.013918941 0.059418894 -0.043609105 0.0027281253 0.11409779 0.018402046 0.023031075 -0.04520842
-0.057591137 -0.0099618 0.049016856 0.052230977 0.06837352 0.038777743 0.05632632 0.008706552
0.0047875606 0.10942935 0.123742394 -0.022576649 -0.10745712 0.018623918 0.054974597 0.10440534
0.04467129 -0.0873511 0.01303217 0.0019867844 -0.037760425 -0.09965542 0.010204696 0.056028426
-0.032437347 -0.033021048 0.00812417 -0.030040206 -0.07999376 -0.01953408 -0.024975674 -0.05660066
-0.025164805 -0.011344043 -0.066599816 0.11312682 -0.07773737 0.056475583 0.07527865 0.059558764
0.027526718 0.0996008 -0.01283007 0.11655758 0.09637741 -0.09436239 0.029646503 0.123370506
0.020848319 0.100269064 0.012923582 -0.07669289 0.1095794 0.01907202 -0.08641046 -0.07600586
0.019663224 -0.049301177 -0.06260506 0.084020086 0.04031761 0.10858345 0.07354473 0.013851081
0.06810881 -0.120020896 0.07353748 -0.0319755 -0.080882214 0.114376634 0.010511381 -0.044688895
0.048186712 0.009418558 0.12076658 0.106888354 0.0057065375 -0.0015867543 -0.07729347 0.0002697148
-0.09490674 0.056306873 -0.04822307 -0.0389651 0.07180855 -0.026812745 0.035173744 0.028450789
0.029248765 -0.010705383 0.09377995 0.10547373 0.05859192 0.054988906 0.0362767 0.083567366
-0.029221294 -0.012742548 0.020284034 0.08863883 0.07087171 -0.011250878 0.109243564 -0.025976166
-0.14470306 0.11777958 0.061927173 -0.022040572 -0.05922244 0.078912854 -0.0058582337 0.08783298
-0.06766315 0.0027073221 -0.04829094 0.011801303 -0.10747476 0.07121078 0.019607695 0.034686584
0.05714451 -0.021216884 0.10648828 0.084627286 0.060769066 0.06494253 0.042353522 0.061480988
0.04185718 0.06689165 0.047683336 0.0773305 -0.005707672 -0.07677847 0.046048425 0.09750393
0.034071594 0.122161895 0.00636408 0.06860828 -0.06875594 0.04458527 0.043391425 0.033660926
0.055568125 -0.044888444 -0.120042615 0.045681376 0.046396904 -0.091697484 -0.024332352 0.07685002
0.03834098 -0.021552231 0.068191424 0.062792815 0.041014265 -0.06254074 0.119475834 -0.017603897
-0.023057418 -0.054078247 0.0399889 0.03345317 -0.0063495724 -0.023939881 0.056875072 0.035763755
-0.063420385 0.11591538 0.14171731 0.085449174 -0.0087876385 0.020723063 0.08038934 -0.038411967
-0.075868025 0.025857417 -0.0025325872 -0.057196334 0.0074971733 0.005842813 0.0040220344 0.00665602
0.02482075 0.018502312 -0.0822031 0.08091853 -0.07499687 0.08513378 0.09587777 -0.069226526
0.10513302 -0.05766906 -0.031372104 0.004401633 -0.06403347 0.11944647 0.01364211 -0.0045312494
0.001687437 -0.06669116 -0.016125701 -0.04202343 -0.052528 -0.11119039 0.0014682373 -0.025013598
-0.0839992 0.025232336 0.04667598 0.051877536 0.10559599 0.07067406 -0.031741492 0.12337462
-0.022018628 0.07396077 0.119594924 0.08147492 -0.037314087 0.06068286 -0.016931305 -0.036748603
00000000: bf09 4b3c 1e79 49bd ad55 b7bc 49c3 613d
00000010: e40c 04bb b1b2 283c 3a15 b83d f7c0 d33d
00000020: bbbf 84bd 39bd aa3d 86af b53c b2b1 003e
00000030: f8db 59bb e0db d53d 93d2 71bc bd62 6c3c
00000040: 6e6a f33c 4142 74bd af83 cfbd f049 a03b
00000050: 9a54 fabd 0031 063d ee44 c33d edc3 d93c
00000060: 450c 643c 3a61 733d 769f 32bd 59ca 323b
00000070: 1aac e93d e3bf 963c aaab bc3c 772c 39bd
00000080: afe4 6bbd d136 23bc e6c5 483d 26f0 553d
00000090: 6b07 8c3d 69d5 1e3d 6db6 663d eda5 0e3c
000000a0: f8e0 9c3b 7f1c e03d a76c fd3d aaf2 b8bc
000000b0: 7b12 dcbd 3091 983c 0b2d 613d 78d2 d53d
000000c0: 3ef9 363d 22e5 b2bd e284 553c b634 023b
000000d0: adaa 1abd 2418 ccbd 9931 273c 107e 653d
000000e0: 06dd 04bd 1441 07bd 3d1b 053c e116 f6bc
000000f0: c5d3 a3bd ef05 a0bc c999 ccbc 18d6 67bd
00000100: 6c26 cebc 5ddc 39bc 7c65 88bd 09af e73d
00000110: c534 9fbd f152 673d b12b 9a3d e4f3 733d
00000120: b67f e13c 81fb cb3d 3735 52bc beb5 ee3d
00000130: 8561 c53d 1241 c1bd 39dd f23c ada9 fc3d
00000140: 18ca aa3c de59 cd3d 6fbd 533c 2911 9dbd
00000150: 2a6b e03d ed3c 9c3c f8f7 b0bd f6a8 9bbd
00000160: c514 a13c 08f0 49bd 1537 80bd b912 ac3d
00000170: 1424 253d 0061 de3d 9f9e 963d a5ef 623c
00000180: a27c 8b3d 84cd f5bd d19a 963d bef8 02bd
00000190: 93a5 a5bd 4c3e ea3d ed37 2c3c b40b 37bd
000001a0: 6e5f 453d 4c50 1a3c 7854 f73d 48e8 da3d
000001b0: e8fd ba3b a4fa cfba 0a4c 9ebd 8268 8d39
000001c0: 775e c2bd 09a2 663d 8e85 45bd de99 1fbd
000001d0: 5c10 933d 67a6 dbbc 5812 103d a111 e93c
000001e0: 1b9b ef3c a165 2fbc b40f c03d 9c02 d83d
000001f0: 15fe 6f3d 0c3c 613d e196 143d 5e25 ab3d
00000200: 7f61 efbc 1fc6 50bc b42a a63c 4688 b53d
00000210: 3025 913d 9a55 38bc 17bb df3d f8cb d4bc
00000220: 0a2d 14be 6c36 f13d 59a7 7d3d 6e8e b4bc
00000230: 3b93 72bd 109d a13d 6df6 bfbb c7e1 b33d
00000240: fa92 8abd 546d 313b b8cc 45bd 415a 413c
00000250: ba1b dcbd f5d6 913d 51a0 a03c 8513 0e3d
00000260: 5d10 6a3d 08cf adbc 8716 da3d 1251 ad3d
00000270: fce8 783d 9700 853d e37a 2d3d 7dd3 7b3d
00000280: 6f72 2b3d 7dfe 883d 9a4f 433d 745f 9e3d
00000290: 6c07 bbbb 083e 9dbd 469d 3c3d 24b0 c73d
000002a0: a88e 0b3d 0430 fa3d c689 d03b 7f82 8c3d
000002b0: eacf 8cbd 0b9f 363d 35bb 313d 0ae0 093d
000002c0: 679b 633d f2dc 37bd e7d8 f5bd 651c 3b3d
000002d0: ae0a 3e3d e4cb bbbd a454 c7bc 8b63 9d3d
000002e0: 6e0b 1d3d 4e8e b0bc f2a7 8b3d 8599 803d
000002f0: 93fe 273d 5c15 80bd bfaf f43d 0c36 90bc
00000300: e9e2 bcbc 2781 5dbd 67cb 233d 3106 093d
00000310: 1310 d0bb 921d c4bc d6f5 683d 047d 123d
00000320: 8ce2 81bd 0b65 ed3d 581e 113e faff ae3d
00000330: 07fa 0fbc 6ac3 a93c 2ba3 a43d de55 1dbd
00000340: b260 9bbd efd2 d33c c3f9 25bb b446 6abd
00000350: d9aa f53b 1175 bf3b 45cb 833b be1a da3b
00000360: e354 cb3c 2992 973c 195a a8bd 9db8 a53d
00000370: f597 99bd 9f5a ae3d 905b c43d a3c6 8dbd
00000380: fb4f d73d 6436 6cbd 0980 00bd 933b 903b
00000390: fb23 83bd 5aa0 f43d 2883 5f3c e07a 94bb
000003a0: fd2c dd3a 6095 88bd 0c1a 84bc c320 2cbd
000003b0: 9a27 57bd cab7 e3bd de71 c03a 51e9 ccbc
000003c0: c607 acbd 0bb4 ce3c 502f 3f3d 8a7d 543d
000003d0: b642 d83d 90bd 903d 5e03 02bd d5ab fc3d
000003e0: 6960 b4bc bf78 973d 2fee f43d 53dc a63d
000003f0: a8d6 18bd 978e 783d 85b3 8abc b485 16bd

discriminator.6.bias f4 [64]
0.00724326 -0.05153707 0.050217424 0.085088454 0.046966955 0.05093968 0.038954612 0.11225392
-0.010982572 0.117972605 -0.015095746 0.062923096 -0.017709527 -0.036967177 0.057101544 -0.059739247
-0.034474704 0.049539153 0.0786938 -0.0027797485 -0.012832036 0.0449773 -0.05295415 -0.014028058
-0.071423806 -0.03151382 -0.046853576 -0.03638345 0.11095249 0.013616252 0.081041366 0.118223995
0.041982945 -0.0152857555 0.049794275 0.0470182 0.09793364 -0.0034587695 -0.027001439 -0.044927552
0.028790923 -0.007836465 0.06932233 0.05015141 0.06250059 0.039156985 0.06308841 0.116564654
0.072514676 0.061021175 0.032517713 -0.006292569 0.016065465 0.04924657 0.06521402 -0.022314664
0.05871047 -0.03953206 -0.062144566 -0.003756088 0.09769579 -0.019147862 0.058814365 0.0794862
00000000: de58 ed3b 8918 53bd c9b0 4d3d db42 ae3d
00000010: 6c60 403d 20a6 503d df8e 1f3d 62e5 e53d
00000020: 3ff0 33bc 9f9b f13d 2654 77bc d3dd 803d
00000030: 9213 91bc e56a 17bd 4fe3 693d 24b1 74bd
00000040: 5935 0dbd 91e9 4a3d 372a a13d 712c 36bb
00000050: 763d 52bc 1e3a 383d 73e6 58bd f1d5 65bc
00000060: a546 92bd a314 01bd 89e9 3fbd d006 15bd
00000070: 0f3b e33d b316 5f3c 04f9 a53d 6c1f f23d
00000080: 4ff6 2b3d 1b71 7abc 15f5 4b3d 2896 403d
00000090: 6f91 c83d 86ac 62bb 1f32 ddbc f405 38bd
000000a0: f1da eb3c 8464 00bc def8 8d3d 916b 4d3d
000000b0: 4f00 803d 1363 203d 7f34 813d 73b9 ee3d
000000c0: 9382 943d 57f1 793d 4b31 053d e531 cebb
000000d0: b99b 833c c5b6 493d ee8e 853d 3ecd b6bc
000000e0: 647a 703d 5fec 21bd 4d8b 7ebd b328 76bb
000000f0: bb14 c83d fadb 9cbc 55e7 703d a9c9 a23d

discriminator.9.weight f4 [1, 64]
-0.18928808 -0.14731191 -0.17299496 -0.10674582 -0.14081463 0.1521387 -0.18986197 0.12711962
-0.13053192 0.094460204 0.16754235 0.09269038 0.1690897 0.17357707 0.10968641 -0.13981989
0.1073334 -0.17758274 0.1460885 -0.1371831 0.086275004 0.17501663 0.12776616 -0.16622497
-0.083349 -0.11260044 -0.18509226 -0.18958306 0.14661992 0.15703806 0.114149995 0.16434461
-0.093021244 -0.16077834 0.17605554 -0.08415966 0.1669649 -0.14068885 0.20533036 -0.19776134
-0.15247959 -0.11053383 0.10638276 0.115605034 0.11490714 0.1592753 0.18488623 0.09980178
0.08019269 0.12763058 -0.111468874 0.14817227 0.12736425 0.14812379 0.11711175 -0.069800325
-0.10861613 -0.09946489 -0.16483246 0.11821255 0.082831085 -0.150236 -0.095080726 0.16829437
00000000: bcd4 41be efd8 16be 9725 31be 8d9d dabd
00000010: b631 10be 3fca 1b3e 2d6b 42be a52b 023e
00000020: 29aa 05be 5a74 c13d 3990 2b3e 74d4 bd3d
00000030: da25 2d3e 30be 313e 45a3 e03d f22c 0fbe
00000040: 9dd1 db3d 40d8 35be 3998 153e ba79 0cbe
00000050: f3b0 b03d 8f37 333e 22d5 023e e136 2abe
00000060: e1b2 aabd 0f9b e6bd d388 3dbe 1022 42be
00000070: 8823 163e 96ce 203e 79c7 e93d f449 283e
00000080: ec81 bebd 14a3 24be e747 343e e65b acbd
00000090: d9f8 2a3e bd10 10be 1f42 523e f381 4abe
000000a0: 9c23 1cbe 905f e2bd 34df d93d 55c2 ec3d
000000b0: 6f54 eb3d 1019 233e d152 3d3e e064 cc3d
000000c0: 113c a43d 97b1 023e cb49 e4bd 79ba 173e
000000d0: c66b 023e c3ad 173e 49d8 ef3d 79f3 8ebd
000000e0: 2272 debd 40b4 cbbd d7c9 28be 6c19 f23d
000000f0: 58a3 a93d 77d7 19be afb9 c2bd 5c55 2c3e

classifier.0.weight f4 [128, 148]
0.011824703 -0.06601048 0.087392725 0.040788073 0.016417446 -0.05459794 0.009412788 0.04802631
0.0011159574 -0.012992799 0.11214294 -0.05931585 0.047076255 0.030261576 0.008305724 0.065953255
0.04948827 0.05922962 -0.03802228 -0.0498678 0.01244917 -0.07376918 -0.06712886 -0.058409154
-0.008194932 0.021701552 -0.028139489 0.04637748 0.044576664 -0.029548341 -0.025680749 0.04014832
-0.062278654 0.08644081 0.03884383 0.001095647 0.07235451 -0.04214816 -0.015317877 0.044853497
-0.034559775 -0.03762984 -0.08318465 0.03297088 0.0016848983 0.02947394 -0.016783964 0.06234601
-0.05514851 0.048956193 0.049612347 0.08425427 -0.060512785 0.030878138 -0.03841697 -0.11532185
0.072022945 -0.07114805 0.04753557 -0.024230715 0.0011919116 -0.02324795 -0.05100179 0.047619563
0.087861225 0.07692555 -0.08060564 -0.03148314 -0.05147256 -0.033321217 0.026938502 0.009015197
-0.02219377 0.06991728 0.028115423 0.06602076 0.056923326 -0.045027282 0.052501924 0.03941607
-0.060166657 0.07489354 0.07713985 -0.0665513 -0.028326893 0.029845344 0.013831377 0.05137048
0.034455597 -0.044256624 0.03790096 0.015903182 -0.034650724 0.042947 -0.02011983 0.012782528
0.012627395 0.084490426 0.01809198 0.0115545625 0.07915159 0.046852916 0.0010793239 0.017320761
-0.035550218 0.07086669 0.071121976 0.028284872 0.094830416 -0.024070349 0.06273984 0.022850452
-0.01689555 0.022565454 -0.008862881 -0.05403803 -0.012830998 -0.059243917 -0.088044815 -0.05454386
-0.05962382 -0.06036498 0.029690348 0.0675843 -0.013773116 -0.063806556 -0.089571066 -0.036164742
-0.0659665 0.049248304 -0.029138494 -0.067223884 -0.025064807 -0.05013162 -0.09804487 -0.049152832
-0.04113182 0.07963763 0.08815301 0.026466716 0.080051534 -0.048818912 0.02134953 0.07272302
-0.053311203 -0.0054881615 -0.005917117 0.0263922 -0.025957666 -0.03830159 0.014254858 -0.11136702
-0.06689019 -0.06378102 0.105285674 0.06225024 -0.08838422 -0.083446674 0.05599786 0.035174537
0.041622836 -0.02186716 -0.0441118 -0.08794656 0.0057338276 -0.048205163 0.0077378624 -0.05435696
-0.027455157 -0.04371375 -0.0555373 -0.018616866 -0.07242682 -0.0067831543 -0.0134635735 -0.09653564
0.004582073 0.056458645 -0.040873557 -0.021952473 -0.041850783 -0.010049346 -0.044637397 -0.06517133
0.00032541552 -0.032124687 0.014369469 -0.08927739 -0.023274466 -0.0050824443 0.06731652 0.0057704244
-0.046448153 0.065814696 -0.0021223908 0.069489665 0.079010144 0.012416784 0.021710554 0.048620656
0.048996095 -0.054055214 -0.03729281 0.08096641 0.044290207 0.08714455 -0.06880904 -0.03333674
-0.02536446 0.021788234 -0.028047243 0.046944674 0.04864749 -0.08366913 -0.048777953 0.026880074
-0.05219352 -0.044535626 0.06825771 0.08084211 0.032221373 0.036420044 -0.042926226 0.007279376
-0.087826766 -0.019672208 0.05017698 0.078854054 -0.018679159 0.06117943 0.05474478 -0.05386515
0.018595092 0.0345243 0.06937586 -0.03995613 0.037242465 0.078151174 0.029305635 -0.09928498
-0.055190526 0.05347985 0.10268392 -0.03339819 0.03575695 -0.044519708 0.0122946305 0.0033687658
0.035755124 -0.02544732 -0.03435788 0.049572576 0.06988989 -0.08980676 -0.0083156675 0.0008460952
00000000: 66bc 413c 8130 87bd f5fa b23d 6511 273d
00000010: e17d 863c 17a2 5fbd 1838 1a3c 3cb7 443d
00000020: 5145 923a c0df 54bc 33ab e53d 2df5 72bd
00000030: 08d3 403d 20e7 f73c bb14 083c 8012 873d
00000040: 36b4 4a3d c29a 723d 40bd 1bbd 2e42 4cbd
00000050: 9bf7 4b3c 4c14 97bd db7a 89bd 703e 6fbd
00000060: 0944 06bc 74c7 b13c c984 e6bc 50f6 3d3d
00000070: 0596 363d 5d0f f2bc 6f60 d2bc 9172 243d
00000080: e717 7fbd e107 b13d b51a 1f3d d09b 8f3a
00000090: 9a2e 943d 8da3 2cbd d5f7 7abc 4db8 373d
000000a0: 8d8e 0dbd bf21 1abd b75c aabd 790c 073d
000000b0: ced7 dc3a 5573 f13c 867e 89bc 885e 7f3d
000000c0: 67e3 61bd 4a86 483d 5136 4b3d 818d ac3d
000000d0: 41dc 77bd 26f4 fc3c 1d5b 1dbd dd2d ecbd
000000e0: c480 933d 12b6 91bd a8b4 423d 7e7f c6bc
000000f0: eb39 9c3a 7c72 bebc 41e7 50bd bb0c 433d
00000100: 96f0 b33d 258b 9d3d 9214 a5bd 77f4 00bd
00000110: e4d4 52bd d47b 08bd 22ae dc3c 7ab4 133c
00000120: b6cf b5bc ca30 8f3d 5152 e63c e435 873d
00000130: 6f28 693d 876e 38bd 420c 573d bf72 213d
00000140: 5071 76bd c961 993d 7ffb 9d3d 0c4c 88bd
00000150: cd0d e8bc 397e f43c 009d 623c da69 523d
00000160: 5021 0d3d 6f46 35bd 093e 1b3d 6447 823c
00000170: ebed 0dbd 32e9 2f3d 57d2 a4bc cf6d 513c
00000180: 22e3 4e3c 5109 ad3d a235 943c 594f 3d3c
00000190: 3b1a a23d d8e8 3f3d 1a78 8d3a 45e4 8d3c
000001a0: 1b9d 11bd 8e22 913d 66a8 913d adb5 e73c
000001b0: 7336 c23d 2e2f c5bc bf7d 803d df30 bb3c
000001c0: 8968 8abc 30db b83c 9e35 11bc fb56 5dbd
000001d0: 1b39 52bc c0a9 72bd d750 b4bd 6269 5fbd
000001e0: 1b38 74bd 4541 77bd 2c39 f33c a369 8a3d
000001f0: a3a8 61bc 03ad 82bd 0971 b7bd 7b21 14bd
00000200: 7219 87bd 97b8 493d dab3 eebc adac 89bd
00000210: b654 cdbc d056 4dbd c0cb c8bd 7b54 49bd
00000220: d779 28bd 0e19 a33d 9189 b43d bad0 d83c
00000230: 0ff2 a33d 57f6 47bd 36e5 ae3c cfef 943d
00000240: d95c 5abd 09d6 b3bb 60e4 c1bb 7434 d83c
00000250: 2ca5 d4bc 21e2 1cbd 358d 693c 6414 e4bd
00000260: b9fd 88bd a09f 82bd 04a0 d73d 1cfa 7e3d
00000270: c902 b5bd 17e6 aabd 035e 653d 2d13 103d
00000280: b57c 2a3d c222 b3bc 93ae 34bd 531d b4bd
00000290: d5e2 bb3b c772 45bd e58d fd3b 67a5 5ebd
000002a0: a3e9 e0bc 300d 33bd 147b 63bd 6682 98bc
000002b0: 8354 94bd 3945 debb 5296 5cbc 7ab4 c5bd
000002c0: 3725 963b 2e41 673d 086b 27bd acd5 b3bc
000002d0: ba6b 2bbd 03a6 24bc b4d5 36bd 8c78 85bd
000002e0: 889c aa39 2d95 03bd ec6d 6b3c 10d7 b6bd
000002f0: 18aa bebc a28a a6bb 3edd 893d d415 bd3b
00000300: 6b40 3ebd dbc9 863d cf17 0bbb 9950 8e3d
00000310: 12d0 a13d c46f 4b3c 55da b13c 7426 473d
00000320: 21b0 483d 0069 5dbd 58c0 18bd b8d1 a53d
00000330: a669 353d d878 b23d c1eb 8cbd 1b8c 08bd
00000340: 21c9 cfbc 3d7d b23c 55c3 e5bc 0f49 403d
00000350: 9742 473d b95a abbd 64cb 47bd 9a33 dc3c
00000360: dfc8 55bd fd6a 36bd b3ca 8b3d 8c90 a53d
00000370: 8ffa 033d 2f2d 153d 69d3 2fbd d587 ee3b
00000380: 85de b3bd 9c27 a1bc 6186 4d3d 3c7e a13d
00000390: 0905 99bc 4897 7a3d 103c 603d b4a1 5cbd
000003a0: bc54 983c 5a69 0d3d ee14 8e3d 0aa9 23bd
000003b0: 8e8b 183d b90d a03d 5f12 f03c ec55 cbbd
000003c0: 760f 62bd b00d 5b3d f24b d23d 8acc 08bd
000003d0: e175 123d 4c5a 36bd 6b6f 493c 83c6 5c3b
000003e0: f773 123d e676 d0bc d9ba 0cbd 9d0c 4b3d
000003f0: 6e22 8f3d 9bec b7bd 703e 08bc 7dcc 5d3a

classifier.0.bias f4 [128]
-0.05813795 0.07535347 0.08870573 -0.010172069 0.09403545 0.07206278 0.06271082 0.021324404
-0.023400944 -0.03336008 -0.029517282 0.06574927 0.105679125 0.084185936 -0.021308446 0.09984642
0.038093183 0.0404007 0.026739204 0.101707466 0.017079014 -0.040515654 0.08362913 0.118311375
0.059833933 0.070880696 0.0064779646 0.038404327 -0.0025514178 -0.0354354 0.10068927 0.08534595
0.10134842 0.0019644522 0.09009417 0.099113315 0.093234204 0.09064793 0.09096616 0.08843978
0.044730775 0.010036587 0.10918385 0.092655875 0.006182423 -0.07734129 0.12956157 0.13285348
0.015750473 -0.032314334 -0.030376785 0.10524236 -0.0018479513 -0.051238485 -0.03710594 0.057110753
0.085499525 -0.056269746 0.10849674 -0.016376914 0.008157568 -0.008021863 -0.052982066 0.035791736
0.02698634 -0.020213451 0.040882885 0.03865849 -0.011933668 0.07038749 0.04407416 -0.035702992
-0.02516136 0.07305142 0.034948695 0.08944525 0.08447373 0.10546757 0.13100837 -0.040450078
0.013201458 0.074769996 0.06312227 -0.00084158627 0.08777156 0.032275144 0.076633275 0.023052419
0.08776669 -0.03736979 0.017499 0.0892012 0.0694888 -0.009923489 0.012341472 0.06468194
-0.029301433 0.012252642 -0.05343459 0.104660355 -0.03672843 0.1332293 0.11622301 -0.017606724
-0.009275905 -0.033083323 0.071346134 0.09377863 -0.018345227 0.04492876 0.08653431 0.018484449
0.036559284 0.012103818 -0.046862673 0.06341554 0.058424186 -0.045583617 0.091625765 0.048880048
0.09045426 -0.03309536 0.00076680386 0.040268578 -0.012663639 0.09333716 -0.01729542 0.007057974
00000000: 0f22 6ebd ec52 9a3d 5aab b53d c0a8 26bc
00000010: a895 c03d a795 933d 886e 803d 84b0 ae3c
00000020: 56b3 bfbc 94a4 08bd 3ace f1bc 8ea7 863d
00000030: 4c6e d83d ad69 ac3d 0d8f aebc 487c cc3d
00000040: 9907 1c3d 347b 253d 2d0c db3c 014c d03d
00000050: 4ae9 8b3c bef3 25bd c045 ab3d 3c4d f23d
00000060: 6d14 753d e629 913d 1b45 d43b db4d 1d3d
00000070: b035 27bb b624 11bd 2d36 ce3d dcc9 ae3d
00000080: c38f cf3d 0abe 003b 4b83 b83d ecfb ca3d
00000090: 93f1 be3d 9fa5 b93d 774c ba3d ea1f b53d
000000a0: 9e37 373d 7f70 243c c89b df3d 5dc2 bd3d
000000b0: ec95 ca3b 1c65 9ebd caab 043e be0a 083e
000000c0: 2307 813c 095c 04bd bcd8 f8bc 4e89 d73d
000000d0: f536 f2ba 72df 51bd 66fc 17bd f7ec 693d
000000e0: 601a af3d 1b7b 66bd 8a33 de3d e128 86bc
000000f0: 52a7 053c 226e 03bc b903 59bd 5b9a 123d
00000100: 7512 dd3c ae96 a5bc d074 273d 5d58 1e3d
00000110: 6e85 43bc 5127 903d 1b87 343d 4d3d 12bd
00000120: 321f cebc fc9b 953d 5d26 0f3d 122f b73d
00000130: 9000 ad3d 62ff d73d 0f27 063e fbae 25bd
00000140: ee4a 583c 0321 993d 4046 813d e69d 5cba
00000150: 93c1 b33d f132 043d e8f1 9c3d 6dd8 bc3c
00000160: 06bf b33d 1111 19bd 105a 8f3c 1eaf b63d
00000170: 2550 8e3d 2196 22bc e333 4a3c f777 843d
00000180: 8f09 f0bc 4ebf 483c 3bde 5abd 2b58 d63d
00000190: 8d70 16bd 436d 083e 5406 ee3d fa3b 90bc
000001a0: f7f9 17bc 6182 07bd ec1d 923d 030f c03d
000001b0: bb48 96bc 3807 383d e638 b13d b36c 973c
000001c0: 30bf 153d 184f 463c 13f3 3fbd 02e0 813d
000001d0: 334e 6f3d e3b5 3abd 4aa6 bb3d 7236 483d
000001e0: 1540 b93d 008f 07bd 5603 493a aaf0 243d
000001f0: 277b 4fbc 8e27 bf3d 20af 8dbc 9446 e73b

classifier.3.weight f4 [64, 128]
-0.025431477 0.07979598 -0.04639858 0.053421948 -0.11265089 0.1110517 0.06120141 0.047858335
0.04086057 -0.08603911 0.0437804 -0.06172413 -0.021086916 0.06459648 0.022903897 0.057399236
-0.019500459 0.03452744 -0.08088335 0.030265715 0.0024312143 0.07426509 0.052114386 -0.03051952
-0.038159937 -0.06743868 -0.066659085 -0.09908666 0.026016846 -0.04566333 -0.090426184 0.08556495
-0.032191172 0.041677747 0.101647384 -0.0542846 0.010112157 0.08536002 -0.02367591 0.0644616
-0.09614574 -0.071924925 0.024702309 -0.040792946 0.071785934 -0.01557499 0.10516603 -0.053443674
-0.030360654 0.07221464 -0.091488935 0.09066352 0.005363904 -0.09789382 0.08946833 -0.0056090103
-0.11613532 -0.04380706 -0.028294751 -0.04464423 -0.04053772 0.025396334 -0.009259865 0.10960425
0.06576294 0.026116585 0.043857772 -0.06641193 0.06387098 0.07208299 -0.023825616 0.020765515
-0.058819402 -0.07174936 -0.067805 -0.081334 -0.07841374 0.03735347 0.039109807 -0.034328405
-0.0185943 0.030697292 0.103617996 0.093691826 -0.096307985 0.07361506 0.087481245 -0.07314933
-0.017926686 -0.0038748372 -0.045153193 -0.09183538 0.024187773 -0.0005980303 0.01436963 0.017752264
0.042068817 -0.06650076 -0.010190451 -0.01838089 -0.005266974 -0.008184323 0.10891572 0.02224923
0.076204665 -0.0003473484 0.122185975 0.08788697 0.08107532 0.09566768 -0.037616167 -0.080400646
-0.032618385 0.073303126 0.041159436 -0.08274785 0.06837005 -0.032479215 -0.07233674 -0.07885391
0.0518043 0.09085665 0.058873326 -0.09014247 -0.08593461 0.009232271 -0.06438025 -0.014844197
0.07252462 0.024902133 -0.07459164 0.046301287 0.01806458 -0.012193107 0.020226847 -0.014456521
-0.034939703 0.025918603 0.01622889 0.038823582 0.081134655 0.07575527 0.05778999 -0.0001485651
0.057492267 0.020256445 -0.005779574 0.028451476 0.05005952 0.027776545 0.019088829 -0.017408311
0.002647204 -0.104121655 0.034505658 -0.049328104 -0.1233413 -0.0056159105 0.031962864 -0.012638846
-0.10491446 0.08083428 -0.06226558 0.020906936 -0.023831688 0.0708699 -0.0782592 -0.08770484
-0.08894636 -0.035492662 -0.008942231 0.06291755 0.035394542 -0.03174916 0.08755413 -0.08538551
-0.047214653 0.058352895 0.05690325 0.0033243946 0.07364927 -0.08655114 0.08001952 0.00763051
-0.05540439 0.03731861 -0.04804929 0.04291764 -0.06706094 -0.089340016 -0.041568235 0.01721868
-0.00863265 0.04417249 -0.046793155 -0.062481824 -0.01474531 0.073875286 0.09372389 -0.08430741
0.052469306 0.057552423 -0.03877731 -0.08727915 0.063897856 0.06732476 0.03791244 -0.088442184
0.08181666 -0.025464699 0.017690381 -0.013629626 0.04545611 0.008604207 0.0074327793 -0.020469159
-0.007587101 0.041609336 -0.097549036 -0.09527643 -0.047444154 -0.06385602 -0.010816219 -0.056610133
0.09093045 0.009044502 -0.007633886 -0.03258692 0.016650263 -0.025978386 0.0011944569 0.09517098
0.039041765 -0.02352818 0.011547021 0.051174186 0.08473687 0.0673618 0.026247626 -0.029888371
0.0026929541 0.026815983 -0.06234915 -0.112760425 0.07356106 0.03485532 0.079737104 0.026846407
-0.036687125 0.017152244 0.061949518 -0.046942722 0.045447554 0.010475247 0.012860205 -0.061026677
00000000: ac55 d0bc 136c a33d 700c 3ebd f9d0 5a3d
00000010: 83b5 e6bd 136f e33d 54ae 7a3d 1a07 443d
00000020: 6a5d 273d 4635 b0bd 1453 333d 71d2 7cbd
00000030: 78be acbc 294b 843d f4a0 bb3c 761b 6b3d
00000040: 6dbf 9fbc a56c 0d3d 2ba6 a5bd ceef f73c
00000050: 0255 1f3b 4c18 983d e575 553d 1304 fabc
00000060: 984d 1cbd 4a1d 8abd 8f84 88bd f2ed cabd
00000070: 4821 d53c 7909 3bbd 5d31 b9bd ad3c af3d
00000080: e4da 03bd 49b6 2a3d 812c d03d 8759 5ebd
00000090: 76ad 253c 3cd1 ae3d fbf3 c1bc 7104 843d
000000a0: 0fe8 c4bd 604d 93bd 7f5c ca3c 8116 27bd
000000b0: 8104 933d 3e2e 7fbc 4a61 d73d c1e7 5abd
000000c0: e8b6 f8bc 45e5 933d 8d5e bbbd ccad b93d
000000d0: b0c3 af3b 8e7c c8bd 2c3b b73d cacb b7bb
000000e0: 5bd8 edbd 086f 33bd 65ca e7bc dedc 36bd
000000f0: e10a 26bd f90b d03c b0b6 17bc 3178 e03d
00000100: b8ae 863d 73f2 d53c 35a4 333d fa02 88bd
00000110: cace 823d 3fa0 933d f02d c3bc 711c aa3c
00000120: 9dec 70bd 54f1 92bd 59dd 8abd 7192 a6bd
00000130: 6297 a0bd f4ff 183d 9b31 203d f19b 0cbd
00000140: 1353 98bc e378 fb3c ac35 d43d 80e1 bf3d
00000150: 1f3d c5bd 7ec3 963d 5e29 b33d 51cf 95bd
00000160: fcda 92bc fbf0 7dbb 8ef2 38bd 3014 bcbd
00000170: 7025 c63c 22c5 1cba 996e 6b3c 326d 913c
00000180: 5a50 2c3d 8d31 88bd d9f5 26bc 8593 96bc
00000190: 9596 acbb 8a17 06bc 340f df3d 0444 b63c
000001a0: 3111 9c3d 501c b6b9 a43c fa3d 15fe b33d
000001b0: d10a a63d 6bed c33d 6913 1abd 18a9 a4bd
000001c0: db9a 05bd f31f 963d cc96 283d b477 a9bd
000001d0: 9905 8c3d ed08 05bd 4925 94bd 297e a1bd
000001e0: bf30 543d 0d13 ba3d 2825 713d 9e9c b8bd
000001f0: 7cfe afbd f442 173c cbd9 83bd 1335 73bc
00000200: ca87 943d 8fff cb3c 80c3 98bd 6ba6 3d3d
00000210: 2cfc 933c 99c5 47bc c6b2 a53c 0bdb 6cbc
00000220: ef1c 0fbd 4053 d43c 73f2 843c 7a05 1f3d
00000230: ed29 a63d 9425 9b3d 32b5 6c3d 24c8 1bb9
00000240: 037d 6b3d d8f0 a53c 9562 bdbb 1213 e93c
00000250: 360b 4d3d a38b e33c 2d60 9c3c e09b 8ebc
00000260: b77c 2d3b bc3d d5bd ce55 0d3d 440c 4abd
00000270: 5d9a fcbd ac05 b8bb 7eeb 023d 2a13 4fbc
00000280: 64dd d6bd 718c a53d 310a 7fbd 0645 ab3c
00000290: ac3a c3bc 3d24 913d 5c46 a0bd 989e b3bd
000002a0: 8229 b6bd c160 11bd 6f82 12bc ebda 803d
000002b0: def9 103d 680b 02bd 944f b33d 99de aebd
000002c0: 2764 41bd 7203 6f3d 6213 693d 16de 593b
000002d0: 6ed5 963d b941 b1bd 46e1 a33d 5b09 fa3b
000002e0: b7ef 62bd 66db 183d 55cf 44bd 68ca 2f3d
000002f0: 3f57 89bd e6f7 b6bd 7443 2abd 300e 8d3c
00000300: f56f 0dbc 36ee 343d 2eaa 3fbd f1ec 7fbd
00000310: 5096 71bc ed4b 973d 50f2 bf3d 5da9 acbd
00000320: 0eea 563d 17bc 6b3d f5d4 1ebd 69bf b2bd
00000330: e1dc 823d 90e1 893d 134a 1b3d 2d21 b5bd
00000340: 7e8f a73d 589b d0bc 6beb 903c cb4e 5fbc
00000350: 3030 3a3d a9f8 0c3c ac8e f33b f0ae a7bc
00000360: 379d f8bb 8d6e 2a3d cac7 c7bd 4a20 c3bd
00000370: cd54 42bd f2c6 82bd 8336 31bc 07e0 67bd
00000380: be39 ba3d 642f 143c ad25 fabb dd79 05bd
00000390: 2266 883c a0d0 d4bc 538f 9c3a 01e9 c23d
000003a0: 42ea 1f3d 2bbe c0bc b72f 3d3c 069c 513d
000003b0: 868a ad3d fcf4 893d 4305 d73c 75d8 f4bc
000003c0: 467c 303b 31ad db3c d361 7fbd f0ee e6bd
000003d0: 2ea7 963d 74c4 0e3d 354d a33d ffec db3c
000003e0: 3d45 16bd dd82 8c3c c7be 7d3d 0347 40bd
000003f0: 3727 3a3d 5fa0 2b3c 9cb3 523c 1cf7 79bd

classifier.3.bias f4 [64]
-0.037014253 -0.07481322 0.008528904 0.003918163 0.0042709904 -0.002814458 -0.040533118 0.0073358775
0.07464085 0.07932493 0.015460884 -0.02312918 0.017436652 -0.023225946 0.08818492 0.08009248
0.11094443 0.0040059355 0.0036781086 -0.05090847 0.024323171 0.03402911 0.047282573 0.013639544
0.0046055196 0.05773988 0.11339587 0.0026717917 -0.028636025 -0.019820549 -0.01513241 -0.046921954
-0.03693715 0.0006623728 -0.052654322 -0.07565794 -0.03959028 0.011806641 -0.016111769 0.0032813787
-0.06978944 0.031077372 0.108910665 -0.0763541 -0.024260918 -0.026720876 0.055952657 0.00167514
-0.049920052 0.108986825 0.09972667 -0.062836625 0.09536978 0.0391504 0.061341085 0.018843247
0.009794602 0.042600587 0.11892312 -0.013013575 -0.013833821 -0.012140941 0.03891323 0.057695508
00000000: 429c 17bd ac37 99bd d1bc 0b3c ef63 803b
00000010: aaf3 8b3b c572 38bb 0e06 26bd cd61 f03b
00000020: 4ddd 983d 1c75 a23d a64f 7d3c 6879 bdbc
00000030: 4fd7 8e3c 5744 bebc 4c9a b43d 8707 a43d
00000040: d536 e33d 3944 833b 6c0c 713b 6685 50bd
00000050: 6341 c73c 1c62 0b3d 5fab 413d 6578 5f3c
00000060: e6e9 963b a780 6c3d 183c e83d 3a19 2f3b
00000070: 1996 eabc b45e a2bc eeed 77bc 3c31 40bd
00000080: 694b 17bd 16a3 2d3a 0fac 57bd 8df2 9abd
00000090: 6b29 22bd a470 413c d4fc 83bc 660c 573b
000000a0: c4ed 8ebd f995 fe3c 8e0c df3d 8a5f 9cbd
000000b0: d5be c6bc bde5 dabc 9d2e 653d 5f90 db3a
000000c0: f878 4cbd 7c34 df3d 7f3d cc3d 7db0 80bd
000000d0: 3b51 c33d 2b5c 203d ca40 7b3d 275d 9a3c
000000e0: 8a79 203c f47d 2e3d f78d f33d e436 55bc
000000f0: 40a7 62bc ccea 46bc 7b63 1f3d 2052 6c3d
