models/discriminator.pth (torch, 433649 bytes, 13 tensors)

discriminator.0.weight f4 [256, 148]
00000000: 0a42 36bd ad0f 653d 7392 f53c cbfb 943d
00000010: 06e9 8dbd a160 ba3b 4425 243c 2dab 263d
00000020: 35d0 acbb 1842 a13d 757e 49bd f3d9 443d
00000030: 7c01 0a3a b78a 99bc 7143 8d3d 69eb 743d
00000040: 3acd d43c d475 623b d141 83bd b785 893d
00000050: fc5e 313d bc80 8f3d 8af7 e1bb 46e9 853d
00000060: f575 e4bb fa79 97bd 970c 163d 3b85 3f3d
00000070: 0d44 83bd 141d 773d 188c 68bd 7ecd 10bc
00000080: f5ee 8b3a 2507 26bd 33ce fb3c 6344 00bd
00000090: 7055 57bd 8cb7 973c 145d 0d3c 178c 6dbd
000000a0: 5a51 1f3c 82db 643d c3b6 f03c ed47 e13c
000000b0: 2ff0 cc3c 5514 4d3d eb68 1bbd 5c1d f3bc
000000c0: 2c20 393d 8f25 f6b9 c9df 313c 3a32 81bd
000000d0: c617 023d ef9a 893d 19e4 cfbc 3782 6d3d
000000e0: daec e63c 6d5e 84bd 8c00 7bbc b1a3 7bbd
000000f0: 3cf9 233c 5420 283d 2014 d3bc 7e0b 94bc
00000100: 4fe7 0bbd 1ce4 313d 6e3d 1bbd 8435 2a3d
00000110: 1f18 b0bc 7be1 1abc 6ca1 9dba 93ea a4bc
00000120: 1a10 f63c c408 b4bc 8fc7 893c 4f1d 89bd
00000130: 7def d33b 8e28 d0bb f4b2 183d 667a 4d3a
00000140: f9e4 2a3d 59ef b53c c16f 25bc ceb3 73bd
00000150: b52c 05bd 7db2 25bd 0e7a 3d3d 5705 0c3d
00000160: 76ff 29bb 8ea3 a3bb 698b 7e3d e14b 66bd
00000170: 066e 6fbd 0eee 87bc fb0b cd3c 10c9 75bd
00000180: 8969 01bb b933 163d f1dd babc 4fdb 6bbd
00000190: b9d7 163d 45ea d0bc 0af7 febb 94b3 243c
000001a0: 521e dbbb e578 86bc 2344 133d f693 df3b
000001b0: 857b 31bc 2461 14bc 73af 42bd 6a28 d7bc
000001c0: 8a54 19bd 7b5d d9bc 429a cebb 6d1c 3b3d
000001d0: 0e6a 113d d8bd 523d 8095 8bb8 98cf 58bd
000001e0: c4a4 d3ba 3535 32bd a70a 29bb c2e1 0abd
000001f0: da06 51bd fa96 943c bc47 2cbd 4a42 453c
00000200: f28a 03bd 69cf 59bc 7c09 a73c 2735 a4bd
00000210: c7fb 05bd 046a 573c 0bfc beba 37f1 243d
00000220: 0873 97bd 7925 5e3d 9763 323d 033b 87bd
00000230: f185 f63a d64a 8bbc 9485 27bc 5fb1 6a3d
00000240: e3e4 d63b 9322 543d 7775 b0bb 89dc 493d
00000250: 22ce 89bc 6ce7 89bb 7cab a1bd a0f1 02bc
00000260: 7401 ac3b 3c4a 543d 1d2b 3e3d 6a0a 0bbd
00000270: 45df 97bd e44e 95bd 9a91 34bd 8c92 a1bd
00000280: 2a80 8a3d 4e1d 943b cfe1 1e3d 95a2 6e3d
00000290: 442a 8dbd 0b0b 84bd af55 58bd f523 25bc
000002a0: 7ca4 7abd 39c0 293d abb6 e5bc 84c4 563c
000002b0: fea7 54bd acce b3bb 5cdf a3bc f689 493d
000002c0: 0ad1 3cbd 74ad 8a3c 5324 56bd 6e9d 22ba
000002d0: 4e78 e33d ae17 653d 7933 7b3d 7002 333c
000002e0: f9c0 a8bc 2e7a 9cbc 3f22 94bd bfea b63b
000002f0: 15ce 873d 5081 02bc c9d4 bdbc 7031 cabd
00000300: 3f5e d23c f6b7 2abc b58a 2a3d 4830 7d3d
00000310: 3d54 06bc 8a36 a73d 65a6 debb cfc4 c9bd
00000320: e8e7 98bd db56 c4bd af7c a5bc 6d52 6f3c
00000330: 53d1 ad3d ec29 f03c f0aa 80bc 4ae3 8f3d
00000340: 55ec 9a3c 5528 81bc a816 9dbc 8169 623d
00000350: db73 aabd 5472 d1bc b267 a73d 52e4 c73d
00000360: 8507 923d 3b20 683d d0ae 8dbc 73ef b9bc
00000370: 8707 87bd 8c1a 24bd 9f28 73bc d736 b93d
00000380: 21d3 3a3d ca4a 3c3c 005a 75bd b214 e73c
00000390: 4e52 2b3c ab11 da3c 32dd d1bd f2fb 923d
000003a0: ed8d 833d 8ec0 d43d b603 5f3d 9098 bd3d
000003b0: fdb1 bf3d 79a0 92bd f804 45bd 80fb 933c
000003c0: a4a0 c23d 0ed5 2abd 59fb 5b3d e318 473c
000003d0: 453e 67bc 6843 3fbd 6ead cfbc b44c 07bd
000003e0: 8c88 623d 5958 18bc 9a29 8a3d 0eda 8dbd
000003f0: 8e83 6a3d 8cd3 d93c 3a3b 7bbd dc8c 9cbd
-0.044496574 0.055923153 0.029977059 0.07274588 -0.06929211 0.0056877886 0.01001865 0.04069059
-0.0052738436 0.078739345 -0.049192864 0.048059415 0.00052645034 -0.018742902 0.06897629 0.059794817
0.025976766 0.0034555094 -0.06409038 0.06714957 0.043303475 0.07006976 -0.006895964 0.06538634
-0.0069720694 -0.07396312 0.0366331 0.046757918 -0.06409464 0.060330465 -0.05677423 -0.008838056
0.0010676073 -0.040534157 0.030737972 -0.03131522 -0.052571714 0.01852014 0.008628149 -0.05799493
0.009723986 0.0558734 0.029384023 0.027500117 0.025016872 0.05006822 -0.037941854 -0.029677086
0.045196697 -0.0004694876 0.010856577 -0.06308408 0.031760953 0.06719004 -0.02537732 0.05798551
0.028189112 -0.06463323 -0.015319955 -0.061435405 0.010008153 0.041046456 -0.025766432 -0.018071886
-0.03415614 0.043430433 -0.03790038 0.041554943 -0.021495877 -0.009453173 -0.0012026257 -0.020131385
0.030036975 -0.021976836 0.01681879 -0.06695043 0.006467758 -0.0063524907 0.037280038 0.0007838368
0.04172227 0.022208856 -0.010097445 -0.059497647 -0.03251334 -0.040453423 0.04625898 0.03418478
-0.002593962 -0.0049938625 0.06214467 -0.056224708 -0.058454536 -0.016593006 0.025030127 -0.0600062
-0.0019746742 0.03667042 -0.022810908 -0.057582196 0.036826823 -0.025502333 -0.007780914 0.01005258
-0.006686964 -0.016415069 0.035953652 0.0068230582 -0.010832672 -0.009056363 -0.047530603 -0.026264388
-0.03743414 -0.026533833 -0.00630501 0.045681406 0.035501532 0.05145058 -6.655883e-05 -0.05293235
-0.0016147126 -0.043507773 -0.0025793703 -0.033906706 -0.051031925 0.018138397 -0.0420606 0.01203973
-0.03211493 -0.013294079 0.020390265 -0.080179505 -0.032710817 0.013147835 -0.0014570964 0.040269103
-0.07394987 0.054234955 0.043552008 -0.066030525 0.0018808228 -0.017003458 -0.010224719 0.05729806
0.006558047 0.051790785 -0.0053850967 0.049282584 -0.016821925 -0.004208496 -0.07894036 -0.007992178
0.0052491967 0.051828608 0.046427835 -0.03394548 -0.07415632 -0.07290438 -0.04408417 -0.0788928
0.067627266 0.004520095 0.038789567 0.05826052 -0.06892827 -0.06447419 -0.05281609 -0.010079374
-0.06119202 0.041443083 -0.028041204 0.013108376 -0.051918022 -0.0054872837 -0.020003967 0.049203835
-0.046097793 0.016928412 -0.052280735 -0.00062032684 0.11106931 0.055930786 0.061328385 0.010925874
-0.020599829 -0.019101229 -0.072330944 0.005582183 0.06631104 -0.007965401 -0.023172753 -0.09872711
0.025679706 -0.010419836 0.041636188 0.061813623 -0.008198795 0.081646994 -0.006794738 -0.098519914
-0.074661076 -0.09586879 -0.020201055 0.014607054 0.08487191 0.029316865 -0.01570651 0.07025774
0.01891152 -0.015766302 -0.019175842 0.055276398 -0.08322879 -0.025567211 0.08174075 0.097603455
0.071303405 0.056671362 -0.017295271 -0.022697186 -0.065932326 -0.04006438 -0.014841228 0.09043663
0.045611504 0.0114924405 -0.059900284 0.02820811 0.010456635 0.026619753 -0.10247268 0.07176961
0.064235546 0.103882894 0.0544469 0.092576146 0.093601204 -0.07159514 -0.04810044 0.01806426
0.09503296 -0.04170709 0.0537065 0.01215193 -0.014113967 -0.046695143 -0.025351252 -0.033032134
0.055306002 -0.0092984075 0.06746216 -0.06926356 0.057254367 0.026590131 -0.06133578 -0.07644054

discriminator.0.bias f4 [256]
00000000: df8b afbd 238e 603e ec6e c4bd 56fc 8a3e
00000010: dc83 d03d 5771 e93d e5ad a5bd 3a17 063e
00000020: 2429 22be 75e0 eabd 1e94 51bc 817f b73d
00000030: 64ba ce3d 535d c33d 1ec9 d63d e5a0 393e
00000040: 50d8 adbd 6a8a 773e 5f61 f73d 1a8f 623e
00000050: 4e5e b7bd d08e 453e 16a5 13be a185 c53d
00000060: 0aeb 12be 271a efbd fc8e 35be b0a2 573e
00000070: 007a 2a3e 4aa1 84bd 843d ea3d 7f0d 283e
00000080: b248 293e 774d 39be c84f a6b6 249f bf3d
00000090: b8df 30be 9230 ecbd 9ec8 553e 5b64 643e
000000a0: 4653 ab3c 919d f13d d7d4 05be bc5e 413e
000000b0: 80e6 6e3e 7174 36be ad2b 2e3c fd22 383e
000000c0: 4f96 383e 6431 373e d931 753e 0375 333e
000000d0: 8666 fc3d 2950 003e 0769 b7bd 6599 493c
000000e0: 3b6e 373e 8436 0cbd 380a 233d 4544 08be
000000f0: 2c27 883e a587 4f3e 1945 333e 81f1 3d3e
00000100: 57ce ad3b 6280 263e 7b38 46bd c125 373e
00000110: 12d9 ae3d 185a 433e 1ad0 563e bfcb 95bd
00000120: 512d 573e fe89 363e 02f0 533d 5950 f43b
00000130: fd73 db3d 8eb1 9fbd 0699 a53d 42fd 933d
00000140: 8449 773e 49b9 593e 06eb 803e 0755 4b3e
00000150: 6b55 28be ad1a 3e3e f7f0 2d3e ea60 f23d
00000160: fff4 603e c234 703e 72ef e23d 4837 92bd
00000170: e478 253e 352d 8cbd af13 393e d8d5 b93c
00000180: a275 c33d a642 6e3d 05cb 28be 2450 8f3d
00000190: 8173 663d dc6c fa3d 8c2b c23c 7f65 b73d
000001a0: 41f4 253e 171d 423e 0157 103e 4c4f 083e
000001b0: 50b2 723e ed13 653e 41c6 e13d af70 c3bd
000001c0: 2679 7c3e 3e7b af3d e656 f6bd f113 e73d
000001d0: c935 4c3d c8c9 e53d 3385 593d 65ed a8bd
000001e0: 603b 423e c5a3 0cbe c92a 6e3e 9411 04be
000001f0: 7df4 7d3e 793b 263e 4cfe 9c3d 07a2 ca3d
00000200: e463 81bd edfd 8f3d 379d 03be b822 2abd
00000210: 0cde e3bd ff75 87bd 71e0 f03d 81fe c33d
00000220: 259e 2d3e fd6f 843d ee86 6b3e c7b6 8a3d
00000230: f004 163e 47fd a43d cfc8 373e 5b3c 463e
00000240: ca89 633e 265b 8b3d 7318 4a3e 0821 453e
00000250: 24f4 243e 2677 e43d c94f 4f3e 30bd 303e
00000260: 1b2c 243e 5db5 2ebe 9023 3e3e 729e 46bc
00000270: 6cb0 083e a38d 2f3e 3c14 2abe a90f 663e
00000280: 50ab 263e 3688 0a3e 7a2c 703e 1dd7 563e
00000290: 3762 4f3e aa48 393e d21d 793e 5817 613e
000002a0: b648 023e 8714 a03d 5765 ec3d 94d3 e7bd
000002b0: 9272 dd3d d353 d53d b311 113d 271a 753e
000002c0: 6cf0 543e 111e 80bd 6a8a 2fbe 012a 11bc
000002d0: eb68 f13d 6b52 153d db46 a93d 329b ea3d
000002e0: 6b00 08be 22ea 3a3e 0974 2d3e 79d8 823e
000002f0: c3ab 203e 0631 1b3e cf29 653e 7a58 823d
00000300: e1a7 5f3e 99a9 5cbd baf1 b33d 3ec0 c9bd
00000310: 40dc 4c3e f9ca 5bbd 31c0 643e 0c8d 0c3e
00000320: b791 a6bd f346 15be 5a82 da3d 886b 843e
00000330: 6fed 743e f6ba d03d 1a42 31be c250 173e
00000340: cc3c 483e c2fc 74bd 9821 d53d c007 0a3e
00000350: 7e1e 853d e39e 433e f1a0 243e 0c6b 423e
00000360: e8a7 f7bd 5c21 d73d 4393 84bb 152e b73d
00000370: ee87 07be ed54 8b3d 82f6 21bd ba01 42be
00000380: c970 e43d 1158 25be 87e3 0e3e 736c 3a3e
00000390: 207a 413e 5ee7 d73c c93f 6d3e b9ed 163e
000003a0: 11e7 dfbd ce01 0fbe 2b5f 123e 6810 263e
000003b0: a800 e9bd 235c 80bd 8c00 1e3e 98e4 ad3d
000003c0: 3ac7 4d3d 465b 6a3e 4231 dfbd 7fff abbd
000003d0: 75b5 563e 36f8 6b3d b577 083e 40cc 1a3e
000003e0: e2df 7f3c 01d5 5f3e 86e2 c03d 04de 15be
000003f0: 315b f5bb bddb 8d3d 7da5 de3d ac84 133d
-0.085716 0.21929221 -0.09591469 0.27145642 0.101814 0.11398571 -0.080898084 0.13094798
-0.15836006 -0.11468593 -0.012791662 0.08959866 0.10094145 0.095392846 0.10487579 0.18127783
-0.08488524 0.24173895 0.12079119 0.22124901 -0.08953534 0.1929276 -0.14418444 0.09644628
-0.14347473 -0.1167491 -0.17730325 0.21058154 0.16648102 -0.06476076 0.114375144 0.16411398
0.16531637 -0.18095957 -4.9564733e-06 0.093565255 -0.17272842 -0.115327016 0.2087731 0.22303908
0.020913731 0.117976315 -0.13069473 0.18883795 0.23330116 -0.17817856 0.01063053 0.17982097
0.18026088 0.17889935 0.23944797 0.17525105 0.12324242 0.12530579 -0.08955579 0.0123046385
0.17913143 -0.034231678 0.039804667 -0.13307293 0.26592386 0.20266588 0.17506827 0.18549158
0.0053041386 0.16259912 -0.048393708 0.17885496 0.085374966 0.19077337 0.20977822 -0.07314252
0.2101338 0.17826077 0.05174256 0.0074558672 0.107154824 -0.07797538 0.080858275 0.072260395
0.24149138 0.21262087 0.2517931 0.19856654 -0.16438834 0.18564864 0.16986452 0.11834891
0.21968459 0.23457626 0.11080827 -0.0713945 0.16159397 -0.0684456 0.18073915 0.022684976
0.09543921 0.05816903 -0.16483696 0.069977075 0.056262497 0.122277945 0.023702405 0.08954906
0.16206457 0.1895641 0.1409569 0.133115 0.23700833 0.22370882 0.11024142 -0.09542977
0.2465559 0.085684285 -0.12028293 0.112831004 0.04985598 0.11220127 0.053105544 -0.082484044
0.18967962 -0.13734348 0.23258509 -0.1289733 0.24800296 0.16233625 0.07665691 0.098941855
-0.06317881 0.070308544 -0.12852941 -0.041537017 -0.111263365 -0.06614303 0.11761559 0.09570027
0.16954859 0.064666726 0.2300069 0.06773143 0.14650321 0.08056121 0.17947696 0.19358961
0.22220531 0.068044946 0.19735889 0.19250882 0.16108757 0.11155538 0.2024528 0.1725967
0.1603245 -0.17061372 0.18568254 -0.012122737 0.1334855 0.17143874 -0.16609281 0.22466911
0.16276288 0.13528523 0.23454466 0.20980497 0.2025231 0.18094125 0.24327782 0.21981561
0.1272305 0.07816415 0.115427665 -0.11319652 0.10812868 0.10416379 0.03541727 0.23935758
0.20794839 -0.06255735 -0.17142645 -0.008860112 0.1178759 0.036455553 0.08265468 0.114553824
-0.1328141 0.18253377 0.16938795 0.2555578 0.15690522 0.1515542 0.2237923 0.06364532
0.21841384 -0.05387268 0.0878634 -0.098511204 0.20005894 -0.053660367 0.2233894 0.1372568
-0.08133262 -0.14577846 0.10669394 0.2586329 0.23918699 0.1019191 -0.17310372 0.147769
0.19554442 -0.05981136 0.10406798 0.13479519 0.064999565 0.19103579 0.1607702 0.18986148
-0.120925725 0.1050441 -0.0040458753 0.08944336 -0.13235447 0.06803308 -0.03954173 -0.18945971
0.111543246 -0.16146876 0.13953982 0.18205433 0.18894243 0.026355442 0.23168863 0.14739121
-0.10932744 -0.13965532 0.14294116 0.16217196 -0.11377078 -0.06267574 0.15429896 0.084908664
0.050238825 0.2288638 -0.10898067 -0.083983414 0.20967658 0.05760976 0.13326915 0.15116978
0.015617343 0.21858598 0.09418206 -0.14635473 -0.0074876775 0.069266774 0.10871408 0.036015198

discriminator.3.weight f4 [128, 256]
00000000: a0f0 abbb 9d80 183d 40de 583d 5fb8 4dbb
00000010: 7389 3ebc 8ab3 423d 0058 453d 5624 9abc
00000020: 5d91 a43c f10e 55bd 715c 463d 3b0f e2bc
00000030: f466 b73b 0740 24bd 510b 3f3d 8f0a 49bc
00000040: b65f c0bb 7477 b1bb 6651 4f3d 7ee2 023d
00000050: 0d61 4d3d 5850 b43c 0659 013d f63e 353d
00000060: ad46 3ebd 5740 3c3c 2f21 5dbd bc11 48bc
00000070: d65d 35bd 942b b8bb 24f6 c3bc 0cfe 8cbb
00000080: 88d2 47bd 0d95 25bd a5fe 18bb 784f 3abb
00000090: a1a6 e6bc c2c2 c6b9 093d 5d3d 18bc 01bd
000000a0: fcc9 6e3d 7be5 1dbd cf78 943c caed 9dba
000000b0: 299b 68bd 921d 19bb df94 88bc ecd8 2cbc
000000c0: bfc2 963c 6830 7abd 5d2b 1b3d 2c23 033d
000000d0: 46a3 8aba faf0 133d 25db 9c3b de35 5d3b
000000e0: 43cc 30bc 8d43 4d3d 3d6d 3c3d 0c9b b03c
000000f0: f034 36bd 9f54 203d 9ecd a2bc eeed d9bc
00000100: 0111 083d 6c86 003c 5691 673d 8148 edbc
00000110: 75a5 ed3c 4b56 943c d75a 893c a6cc df3c
00000120: e34a f83a 206c f6ba 4223 fabc 4e7d 8bbc
00000130: fcfa 6f3c 7690 223d 6cda 7b3c 1a47 0e3d
00000140: 1a65 143d da14 27bd 50eb 1f3d 8089 5ebd
00000150: e252 0c3c bf49 46bd f0af d63b 445c 5fbd
00000160: 9c6f 5a3c 28f2 49bd 3b94 d6bc 79c6 d4bc
00000170: f14f 76bd 3208 90bc 27e8 ebb9 5208 95bc
00000180: 97aa 61bd d631 4a3d 060f 903c 2668 39bd
00000190: acf3 d3bc fcaf 3f3d 7686 84bc 75af 653d
000001a0: ebda 51bd 2d10 c23c 5d24 4bbd fd44 983c
000001b0: 9975 37bd d85e 57bd 7d67 87bc 7b5f 6a3d
000001c0: d7be dfb9 bb29 26bc b38a 1bbd 40c7 593d
000001d0: cbdd 363d 775d 40bd 4f25 6bbd b222 c83b
000001e0: c7b4 debc 10c5 463d 46f6 5bbd f820 093d
000001f0: b5e5 c23b f993 c3bc 1785 3a3c 3916 f6bb
00000200: 1886 de3c c8f6 683c 772a 103d cc0b 01bd
00000210: a3b6 b93c 4369 32bd c528 0cba 7445 05bb
00000220: c978 9a3a c849 90bc e028 413d 255a 20bd
00000230: bbeb 12bd 922e 06bd 14da 51bd 2deb f63c
00000240: c8fd 4dbd 1c4c ebbc 7e63 9a3c fc94 1d3d
00000250: 5be7 8abd b211 f63b 00c1 f63c ca4e ddbc
00000260: f126 443d 6cd2 953c 3e89 81bc 01a7 27bd
00000270: fc36 29bd a619 97bc 0632 84bc c48d 1c3d
00000280: 4b74 913c 2bf4 41bc f4f2 0bbd 19e4 feba
00000290: b6d1 8dbd e662 d4bc 6624 1b3c 55f3 35bc
000002a0: 2f5d 4fbd 6342 18bc f4af 123d 9723 bd39
000002b0: 6eb5 7cbd 1e71 5fbd 4dcd 653d 6b8d fabc
000002c0: 1fcd f7bc db84 663d a1b4 4f3c ccd5 2c3d
000002d0: f487 88bc 847e 453d e180 113d 1268 7a3d
000002e0: 373f a2bb cee4 05bd 07eb 763c b811 fa3c
000002f0: a2b8 55bd e048 26bd b0ab f03c 85e1 50bc
00000300: 39e4 2e3d d40b c73b 9d70 23bd bbc7 4a3d
00000310: 8bd0 2bbd 8afc 36bc 0974 02bb 0973 d33c
00000320: 9e8b 763c 8fa1 193c 558d 5c3d a3ac 37bd
00000330: 3210 fdbc 2aa0 e5bc 9a18 6f3d f78e 4abd
00000340: e820 353d 475d a1bb d562 3a3c b570 75bc
00000350: 22f7 78bd bdd8 0d3d 437a 053d 1066 ac3c
00000360: a4b5 81bb 23e3 78bc 17e9 423c 24f8 5d3d
00000370: f473 5ebd e754 6e3d 5fb0 4b3d 302a 8ebc
00000380: d5b3 a9bc a4fd c4bc 7c0c 70bd 44cc 61bd
00000390: 1274 25bd 29cd e03c ca51 daba e6f0 783d
000003a0: 3a5c 653d c97c 0f3d ad43 413d 8b6f 27bd
000003b0: c17f 393d db73 173b 3540 c73c e266 f5bc
000003c0: 2808 a0bc ec6d 783d d597 873c bd62 223c
000003d0: 62e0 fdba dd26 4d3d 0347 83bd 6433 e63c
000003e0: d70d 763d df58 d8bc a575 543d 261a 1abd
000003f0: 5751 74bd ec10 4dbd 459d 39bc 5076 b1bc
-0.0052471906 0.03723203 0.05294633 -0.0031390411 -0.01162945 0.047534503 0.048179626 -0.018816154
0.020088846 -0.052016202 0.048428003 -0.027595153 0.0055969898 -0.040100124 0.04664165 -0.012270584
-0.0058707846 -0.0054158513 0.050614737 0.03195428 0.050141383 0.022010967 0.03157904 0.044249497
-0.04645412 0.011489949 -0.053986724 -0.012211259 -0.044278942 -0.0056204293 -0.02392108 -0.0043027457
-0.048784763 -0.04042535 -0.002334514 -0.0028428715 -0.028155627 -0.0003791061 0.054013286 -0.03167352
0.058298096 -0.038548928 0.018124012 -0.0012049016 -0.056788597 -0.0023363573 -0.01667255 -0.010549765
0.018403409 -0.06108132 0.03788315 0.032015964 -0.0010577224 0.036118485 0.0047868663 0.0033754031
-0.010790887 0.05011325 0.046002615 0.021558307 -0.04448408 0.0391432 -0.019873437 -0.026602712
0.03321934 0.007844549 0.056535088 -0.028965237 0.02900956 0.018107554 0.016766949 0.027319264
0.0018943216 -0.0018800534 -0.03053439 -0.017027523 0.014647242 0.03968855 0.0153719 0.034735776
0.03622923 -0.04079137 0.03904277 -0.05433035 0.008564683 -0.048410174 0.006551735 -0.05453135
0.013332274 -0.049303204 -0.026193729 -0.025973545 -0.06013483 -0.017582033 -0.0004499566 -0.018192444
-0.055094328 0.049363934 0.017585289 -0.04526534 -0.025873028 0.04679869 -0.016177397 0.056075532
-0.051234167 0.023689354 -0.049595226 0.018587584 -0.044789884 -0.052580684 -0.01652884 0.057219964
-0.0004267606 -0.010141785 -0.03797407 0.053168535 0.044645112 -0.046964135 -0.057408627 0.0061076516
-0.02718581 0.048527777 -0.05370166 0.033478707 0.0059477934 -0.02387427 0.01138427 -0.0075099734
0.02716355 0.0142189935 0.035196748 -0.03150539 0.022670096 -0.043557417 -0.00053466513 -0.0020335587
0.0011785264 -0.017613307 0.047158122 -0.03914847 -0.03586934 -0.032759257 -0.051233366 0.030141437
-0.050290853 -0.028722815 0.01884627 0.03847216 -0.06782409 0.0075094337 0.030121326 -0.027015109
0.0478887 0.018288814 -0.015812512 -0.04093075 -0.041312203 -0.018444847 -0.016137134 0.038221136
0.017755648 -0.011837999 -0.034167245 -0.001944664 -0.06924765 -0.025926065 0.009469127 -0.011105378
-0.050625976 -0.009293172 0.035812333 0.00036075406 -0.061696462 -0.054551236 0.056103993 -0.030585011
-0.030249177 0.056279045 0.012677343 0.04219608 -0.01666639 0.048216358 0.0355233 0.061134405
-0.0049513835 -0.03268891 0.015070683 0.030526027 -0.052178033 -0.040596843 0.029378742 -0.012749081
0.04269812 0.006074408 -0.03990232 0.049506884 -0.04194693 -0.011168608 -0.0019905588 0.025811689
0.015047936 0.0093768975 0.053845722 -0.044842374 -0.030891512 -0.028030474 0.05837307 -0.04945275
0.044220835 -0.0049244496 0.011376102 -0.014980485 -0.06078256 0.034630526 0.0325873 0.021044761
-0.003958421 -0.015190872 0.011896393 0.054191723 -0.0543098 0.058186438 0.049728747 -0.017354101
-0.020715633 -0.024046727 -0.058605656 -0.055126444 -0.040393896 0.027441578 -0.0016656455 0.060776614
0.055996157 0.035031114 0.04718368 -0.04087786 0.04528785 0.0023109827 0.024322608 -0.029956285
-0.01953514 0.060651705 0.016551891 0.009911236 -0.001936924 0.05008589 -0.06410029 0.028100677
0.060071792 -0.026409565 0.051870007 -0.037622593 -0.059647884 -0.050064966 -0.011329 -0.021662861

discriminator.3.bias f4 [128]
00000000: 629c e0bd 7e7b ee3d d57d 7d3d 758f bfbd
00000010: 3fb9 153e 5e9a 2dbd 3a4e f6bd 7f9f a0bd
00000020: 4066 c3bd d181 eb3d 4264 d23d fa6e 06bd
00000030: e794 5b3d 6340 a3bd add7 82bd 733a 5dbd
00000040: 7c8b adbd 71e8 35bc 6962 aabc 89b3 ad3d
00000050: 55ff c5bd 3b98 443c 2803 ef3d 5777 b9bd
00000060: fb12 233d e98a cabd 45fa 2a3e 6645 f1bd
00000070: 8952 4bbd aa50 e03d 63d5 85bd dc13 123e
00000080: 4bc7 543d f29b 893d a79a bbbc 36f5 43bd
00000090: a232 97bd 3dd1 cbbd 896d 283e ae48 15bd
000000a0: 0c05 c23d cb12 7cbd 7a3c 80bd 606e 04be
000000b0: c447 ecbd 2a9a 1f3e 5c4c bd3d 1bbe 4b3c
000000c0: 32bb d8bb 69fe 063e ac18 0e3e ca9b bdbd
000000d0: 721b 1dbe 4a32 60bd 7c6b 3ebd 1ef9 663c
000000e0: c1db d53d d216 cd3d 9f62 2b3e 6790 75bd
000000f0: 913a a4bd d586 b13d cdad 643b 1f13 3f3d
00000100: 723e 353e 1b1a 2bbd d85a 07be b539 c13d
00000110: 6564 0ebd 6e15 0b3d bcac 90bd 7160 cebd
00000120: dc32 b8bd 5930 43bd f3b3 94bd 2917 3b3d
00000130: c128 eebd 40bd 213d 483e 94bd 7ffd a3bd
00000140: 4456 2dbd 198c debc 1737 dc3d ad10 d5bc
00000150: 8fa3 2b3e 4059 d23d 8f33 a8bc 98ef ffbc
00000160: 91bc c93d 4811 063e 7b6b 233e f679 efbd
00000170: 163e 643d ebab 8d3d b95d dc3d 769a fa3b
00000180: 1f8d 7b3d 0384 adbd d801 143e 7e45 1f3e
00000190: 8ab3 9abd 9425 fc3d 9c8c 4bbb dd76 bf3d
000001a0: 491c 123e 3077 213e c502 323e dda2 f73d
000001b0: cda6 c4bc c202 bb3c 5d6b d43d 766d dabd
000001c0: 6592 e5bd 9950 70bd 38b2 b2bd 34ec da3d
000001d0: 2f55 0abd 3a9f f43d 8612 debd 5e8c 163e
000001e0: ceee bbbd 5056 223e 563f 2bbd ae42 133e
000001f0: 935c dbbd 530e 563d 5e99 e8bd 8894 253d
-0.10967328 0.11644648 0.06188758 -0.09353534 0.14621447 -0.042383544 -0.12026639 -0.078429215
-0.09540987 0.1149937 0.10273029 -0.03282068 0.0536088 -0.07971265 -0.06388793 -0.05401082
-0.0847387 -0.011102782 -0.020798879 0.08481509 -0.09667841 0.011999185 0.11670524 -0.090559654
0.039813023 -0.09889776 0.16697033 -0.11780815 -0.04963926 0.109528854 -0.06534841 0.14265388
0.051947873 0.06719197 -0.022900892 -0.047841273 -0.07382704 -0.099520184 0.16448034 -0.036446266
0.09473619 -0.06154136 -0.06261535 -0.1293273 -0.11537126 0.15586153 0.0924308 0.012435461
-0.0066141123 0.13182987 0.13876599 -0.0925823 -0.15342501 -0.05473546 -0.046489224 0.01409748
0.10442305 0.10014118 0.1673684 -0.059952166 -0.08018983 0.08668295 0.0034893632 0.046649095
0.17699602 -0.041772943 -0.13218248 0.09434835 -0.034763712 0.033955984 -0.070641965 -0.100769885
-0.08994076 -0.04765353 -0.07260885 0.045676384 -0.11628867 0.039487123 -0.07238442 -0.08007335
-0.042318597 -0.027166413 0.10752695 -0.026008928 0.16761611 0.10270929 -0.020532398 -0.031242177
0.09850419 0.1309253 0.1595897 -0.11693184 0.055723272 0.069175564 0.10760064 0.0076478077
0.06141388 -0.08472445 0.14453828 0.15553853 -0.075537756 0.12311855 -0.0031059152 0.09348843
0.14268602 0.15768123 0.17383869 0.120916106 -0.024005318 0.022828463 0.103720404 -0.10665409
-0.11209563 -0.058670614 -0.08725399 0.106895834 -0.033772644 0.119444326 -0.10843377 0.14701983
-0.09176408 0.15853238 -0.04180845 0.14380905 -0.107110165 0.052259754 -0.113573775 0.040424854

discriminator.6.weight f4 [64, 128]
00000000: c99f 48bd c42b c3bc d95d 1bbd 017b b1bc
00000010: e468 1d3d eb74 803c abb4 08bd c10c 913d
00000020: bdd6 89bd 4440 cb3a 83db fb3c dd7b 9dbd
00000030: 0de5 203e 4174 66bd bcd3 95bd 0501 8d3b
00000040: 2eba 853c 0612 353d 86f6 17bd 63e1 113e
00000050: bf51 d83c ff87 b0bd fac1 2c3e f48e babd
00000060: f2ae d6bc c098 5bbd 8749 383d 06ee 16bd
00000070: 42c6 84bd 602b 0d3d 3d13 23bd 7222 0b3e
00000080: cbeb 753d 23e8 a93d 1230 253d 7928 603d
00000090: d13c dfbd 3b11 4b3d bd20 bb3d a671 adbd
000000a0: 3a60 a93d 1f0d 303d 876c 26bd ca6f 073d
000000b0: 4794 863d 5515 f03d 6681 20bd 30fe d03c
000000c0: 019c 5b3b 3061 e83d b2f1 b63c a549 893c
000000d0: f11e cebd a796 953c 4d2d 303d 6b1d f0bc
000000e0: a8f9 91bc 13eb 7c3d 0656 ff3d b61f 0fbd
000000f0: 7c3a a9bd 359a 96bc 34c2 5bbd 3d1b a3bd
00000100: bd3b b53d 7caf 893d 4018 313c 2641 c73d
00000110: 7b94 9ebd 1bc9 aabd d56b 64bd 024f a7bc
00000120: d3b4 86bc b065 8bbd 295f 2fbc b1e6 d3bc
00000130: 6d94 55bd 2f93 463d 89e6 8abd a59e 033d
00000140: b3ad 3ebc 7054 3dbd 8b29 df3d 8ceb 773d
00000150: bf93 273e 3035 fc3d dc64 b0bd 4296 9c3b
00000160: 0396 513d 2616 9e3c b709 b83d cb01 aebc
00000170: 923f d5bc c2d0 823d 4c92 9b3d 3295 95bd
00000180: 4c36 f4bc 63fb b23b fdc1 a23d 6b4f ab3d
00000190: 08fd 3c3d 9628 8d3d 93cf 1d3d 69a2 65bd
000001a0: 14a0 bb3d bec2 2c3d 7ba3 1c3e 789c a03d
000001b0: ad63 79bd 700e 8f3c 1bdd 9a3d b5bf 463d
000001c0: 8b34 c03c c854 7bbd ee74 7dbc 3bcd 783d
000001d0: 5ddf a9bc 5d16 873c 02fe 1d3c 5ce0 69b7
000001e0: 4592 6dbd 5837 9f3d 067b 3abd bf9b 0b3e
000001f0: 5d0a bdbd 4b39 cf3c ea99 5a3c e1bd 303d
00000200: 2092 b63d 201b 1ebd 24fc 32bd f388 a6bd
00000210: 662d a13b 3c40 92bd 7557 05bd 3e48 e73c
00000220: 8fa5 95bd c73a acbd 3b98 d1bd f717 abbd
00000230: 84d7 eabd 79d6 4abd 5a4a 22bd f7d1 d2bc
00000240: aaa0 0dbd 7dfa 933c d316 f8bc a250 193d
00000250: 7fc5 7c3d 7cca 383d 80c1 10be 7ab3 313d
00000260: 6f3a 7dbd b46c 9b3d 3872 02be b2bf 6abc
00000270: e73d b63c 57f7 dd3b 0fe0 4e3d 693a 973b
00000280: 7843 273d 8261 b53d 2735 d8bc 9d57 433c
00000290: 0c61 1c3d 4588 0b3d ea58 debd 5ec9 313d
000002a0: bc0a a3bd bb00 a5bd 2ce2 7f3c 40f0 893d
000002b0: 4d5d 103c c42a cabb 9e79 213d c920 e4bb
000002c0: 1f82 25bd 9b82 c6bd 58b8 6b3c b306 9fbc
000002d0: 9664 53bd d73c 993d 525c bc3b 8307 98bd
000002e0: 0dc0 bebd 45e5 08bc 06a9 4f3d c4f9 ee3c
000002f0: 6783 82bb 2dc7 71bd 3ddc 49bd c596 033d
00000300: a0d1 7fbd 5866 033d 3217 973c 3f88 a6bd
00000310: 4cba 853d 036f af3d 40bb 9abd 6ea8 44bd
00000320: f821 bdbc f21c 3ebd 10ba 903d f093 47bd
00000330: 7be2 6dbd 0bc4 aebd dc20 f03c 5b4d a1bd
00000340: ca85 7ebc 027a 1d3d 4a1a 81bd 31c6 7ebd
00000350: c06d 0ebe f5a5 3a3c d64e bc3d f500 acbd
00000360: a339 993d ab70 93bd d7d5 95bd 4143 633b
00000370: d8d0 8cbb e29d 08be 5da1 2c3d e741 9abd
00000380: 4bdf e2bc 43af a03d bd57 22bd 867d 41bd
00000390: b416 debc 7f98 aebd ad91 d6bc 51fa 893c
000003a0: 95e3 b1bd 92e6 88bd b3fb d33a 7b4d 63bd
000003b0: d047 2dbd 11bc 81bd 7948 923c e745 08bc
000003c0: f051 ab3d addf 353d 5e18 92b9 9ebb 0bbe
000003d0: 5a3e e23c f7e8 8a3b 5e4f dcbc 901c 5e3d
000003e0: 452a 253c 4b35 04bd 2103 d63c 916d adbd
000003f0: 4d11 043d 2861 47bd 6b06 4d3d ad73 c63c
-0.048980508 -0.02382458 -0.037931297 -0.021665098 0.03843011 0.01568075 -0.033375423 0.07082511
-0.06730411 0.0015506824 0.03074432 -0.07689641 0.15712376 -0.056263212 -0.07315776 0.0043031
0.016324129 0.04420664 -0.037100337 0.14246134 0.026406167 -0.08619689 0.16870871 -0.091092974
-0.026206467 -0.05361247 0.044991996 -0.03684809 -0.06483127 0.034465194 -0.03981327 0.13587359
0.060039323 0.0829623 0.040329047 0.054726098 -0.10900272 0.04957698 0.09137104 -0.08468942
0.08270307 0.042981263 -0.040630843 0.033065595 0.065712504 0.11722819 -0.039185904 0.025511831
0.0033509734 0.11346662 0.022332046 0.01675875 -0.10064495 0.018260313 0.043011952 -0.029310903
-0.01781924 0.06174762 0.124675795 -0.03494235 -0.08263108 -0.018384079 -0.053652003 -0.0796418
0.08849285 0.06722924 0.010809004 0.09729223 -0.07743164 -0.08339139 -0.0557669 -0.020423416
-0.016443646 -0.06806505 -0.01070384 -0.025866838 -0.052143503 0.04848021 -0.06782252 0.032133717
-0.011638093 -0.046223104 0.108965956 0.06052737 0.16364954 0.12314832 -0.086129874 0.0047786543
0.051168453 0.01929767 0.08986228 -0.02124109 -0.02603129 0.06387474 0.07596263 -0.073038474
-0.029811047 0.0054620965 0.079471566 0.08364757 0.046139747 0.06892507 0.038528036 -0.05606309
0.09161392 0.042177908 0.15296738 0.07842344 -0.060886074 0.017462939 0.07561704 0.04852267
0.023462554 -0.06136015 -0.015469773 0.060742598 -0.02073639 0.016490156 0.00964308 -1.394012e-05
-0.05800082 0.07774228 -0.04552748 0.13633631 -0.09230492 0.025295874 0.01334236 0.043149833
0.0891459 -0.038600087 -0.04369749 -0.0813159 0.004918742 -0.07141158 -0.03255411 0.02823269
-0.073069684 -0.084096484 -0.10234114 -0.0835418 -0.114668876 -0.049520943 -0.03962169 -0.025734885
-0.03457705 0.018063778 -0.030284321 0.037430413 0.061711784 0.04511498 -0.14136314 0.043384053
-0.061823305 0.07589093 -0.12738883 -0.01432793 0.022246314 0.00677387 0.050506648 0.0046151173
0.040835828 0.08856489 -0.026392533 0.011922744 0.03817849 0.034065504 -0.10856803 0.04340493
-0.07961032 -0.0805678 0.015617888 0.06735277 0.008811307 -0.006169649 0.039422624 -0.006961916
-0.040407296 -0.0969288 0.014387213 -0.019412374 -0.051609598 0.074823074 0.00574831 -0.07423308
-0.093139745 -0.008355443 0.050698303 0.029171832 -0.0039829495 -0.05902784 -0.0492823 0.032126207
-0.062455773 0.032080024 0.018443678 -0.08131456 0.06529674 0.08566096 -0.07555246 -0.04801219
-0.023087487 -0.046414323 0.070667386 -0.04872507 -0.058077317 -0.08533486 0.029312544 -0.078760825
-0.0155348275 0.038446434 -0.06303842 -0.06220073 -0.13909054 0.011392106 0.09194724 -0.0839862
0.074816965 -0.07199224 -0.07316177 0.0034677538 -0.004297357 -0.13341478 0.042146076 -0.07532101
-0.027694365 0.078459285 -0.039634455 -0.04723885 -0.027110435 -0.0852518 -0.02619251 0.016842993
-0.08685986 -0.06684603 0.0016173035 -0.055493813 -0.042304814 -0.06334699 0.017856823 -0.008317447
0.08365238 0.044402767 -0.00027865445 -0.13645789 0.027617622 0.0042391974 -0.026893314 0.054226458
0.010080879 -0.032277387 0.026124539 -0.08468164 0.03224306 -0.04867664 0.05005495 0.02422508

discriminator.6.bias f4 [64]
00000000: a40f 853d 1946 b9bb 6e2f e9bd 269e d03d
00000010: 1d31 e93c eed5 f7bd a1cb c0bd 81df a43d
00000020: 169d c0bd ecf5 013d cb14 153e b132 c1bc
00000030: 504e 39bd 97da f9bc 926f 473d 791d ed3d
00000040: b803 3dbd 668a d53d 76f0 933c 7a17 5f3d
00000050: 80d5 31bd 7bdc 4dbc 2051 5a3c bdaf 83bd
00000060: 87d6 57bc e53b ba3d c4bc d5bd bf32 c23c
00000070: 42b8 ed3d 376c 2abd 915a 4a3e 0854 e7bd
00000080: 4d45 213c ed30 993d 3ade 613d af3a 8e3c
00000090: 6725 8c3d e1a8 3b3d 1ceb 2f3e 5286 e33d
000000a0: 03f7 633d b77b 623b 1687 d63d 1fe3 ec3d
000000b0: 8e1a 903d 04c6 373d db16 ec3d 9506 00bd
000000c0: 3734 bb3a 5110 6b3d 340e 783a b138 483c
000000d0: c656 753d 2196 e13c 3bfb 043d 7327 003e
000000e0: 504b 2a3d f6de b53d 5287 5c3d dfb3 5fbd
000000f0: 3b73 bdbc 8e08 8e3d 4968 9bbc ac13 cfbd
0.06497124 -0.0056541082 -0.113859996 0.101864144 0.028465802 -0.12101351 -0.09413839 0.080504425
-0.09404962 0.03172867 0.14558713 -0.023583742 -0.0452407 -0.03049974 0.048690386 0.11577887
-0.046146125 0.10426788 0.018058997 0.05446575 -0.0434165 -0.012564774 0.013325006 -0.06430004
-0.013173706 0.09093455 -0.10436395 0.023705838 0.1160741 -0.041607108 0.19761111 -0.112953246
0.009843183 0.07480035 0.055143572 0.017361967 0.068430714 0.045815352 0.17179531 0.11109604
0.05565549 0.0034558603 0.10474984 0.115667574 0.07036315 0.044866577 0.11527797 -0.031256277
0.0014282529 0.057388607 0.00094625656 0.012220548 0.059897207 0.027537407 0.032466155 0.12515049
0.04157573 0.08880417 0.05383999 -0.054614898 -0.023126235 0.069352254 -0.018970625 -0.10111174

discriminator.9.weight f4 [1, 64]
00000000: 2f39 42be d883 273c 611d c63d 06d9 87bd
00000010: 8964 e53d 9e8f ff3d c48e de3d dd07 0cbe
00000020: 47b5 b23d 0760 67bc 2f19 3dbe b676 cb3d
00000030: 2c3a e53c f50e 463d bed0 07be 8ec3 46be
00000040: e0b8 003e cb0d 17be 32dd 003d 9561 bcbd
00000050: 4e38 cf3c 2a9b 4c3c a7c8 883d 3ec5 173d
00000060: f8c6 f53d 5cbb efbd 5011 8b3d cbeb f7bd
00000070: 1c9a dfbd 8504 993d 1a65 d9bd 6705 ff3d
00000080: 38d1 ab3c 2bf8 19be 7a38 a8bd 4a54 823d
00000090: c9d5 bdbd 7d4b d13d dd49 b7bd 2e82 0ebe
000000a0: fb07 8cbd 4187 5e3d 5214 5fbe 9ac9 4dbd
000000b0: f255 d1bd 07b7 783d 4d47 56bd 9a15 83bd
000000c0: a6ff eb3d 3bb5 1ebe 1a10 a73d 024c b23d
000000d0: a464 18be 03ab aabd e8c3 ab3d 1098 1dbe
000000e0: de89 96bb 41ce febd 250b cabd e4e1 b83d
000000f0: 8291 b53d b7f9 b1bc 54aa b83b 3915 973d
-0.18967126 0.010224305 0.09673572 -0.06633191 0.11200816 0.12478565 0.10867074 -0.13674875
0.08725982 -0.014122016 -0.18466638 0.09934752 0.02798184 0.048354108 -0.13263223 -0.19410536
0.12570524 -0.14751355 0.03146095 -0.091983 0.025295403 0.012488166 0.066788964 0.03705334
0.12000841 -0.11705658 0.067904115 -0.12105521 -0.10918066 0.07471565 -0.10614987 0.12452202
0.020973787 -0.15036075 -0.08213897 0.06363733 -0.09269292 0.10219476 -0.08949635 -0.13916847
-0.0683746 0.054328207 -0.21785095 -0.05024109 -0.10221471 0.060721423 -0.05231409 -0.064006045
0.115233704 -0.15498821 0.08157368 0.087059036 -0.14882141 -0.08333399 0.083869755 -0.15390038
-0.004594072 -0.124416836 -0.09865407 0.0902746 0.08865644 -0.021725519 0.005635539 0.07377095

classifier.0.weight f4 [128, 148]
00000000: 330b 87bd 98f8 21bd 69a8 503d 18fd 6eba
00000010: 15b2 3f3d b9ff 71bd 7c71 643b 9686 b0bd
00000020: 1d13 bbbc e7d5 9dbd c81e 56bd 9259 803c
00000030: 8cc2 95bd f16c 31bd 4801 0c3c a550 52bb
00000040: 5028 823d bed0 563d 62d4 0f3c 8ef8 233c
00000050: a42d 303d 864e 553c 265f 393d 62e5 9e3d
00000060: 13f1 723d 4b61 713d c21e 8cbd 4f18 d8bd
00000070: 6d16 47bc 71a8 9ebd bdc0 f9bb 5852 f83c
00000080: f781 acbd 68b4 893d 4145 63bd 05dd 4b3d
00000090: 66d3 16bd e24f 043e 012d bcb9 165d 153e
000000a0: 53ec c6bd 003d 76bd 0c66 f13d 7498 a43d
000000b0: 14ff 4c3d 7eb6 843d 4c45 e8bc 8b68 edbd
000000c0: 8694 443c e2d4 68bd 9ddd afbd 9eec 133c
000000d0: 3ec8 61bd 4e1f 8abb 3969 313d f2f5 93bc
000000e0: a8c7 44bd d974 85bd 56e1 0dbe 39ea 573c
000000f0: cba2 a63d 4352 92bd 9030 883c 9d18 e3bd
00000100: bacb 093c d548 8a3d 95eb e13d 11a1 0c3e
00000110: 48bb 20be f675 da3d 490e 8ab9 b99a 083b
00000120: 2295 e03d 1d11 293b cdbd 87bd 30c4 8c3c
00000130: 852e b6bd b77b e8bd 21da fa3d aa5b 90bd
00000140: 131c 0cbc 7be0 a8bd 90c6 ed3c 4ca2 bbbd
00000150: 3640 e8bd 2059 28bd 83ff 23be 719d 8cbc
00000160: 9c18 b0bd 248b f13d 550f 5dbd da3f 513d
00000170: 8ce3 083e 39b7 80bd 2b83 273d 9ab9 b63d
00000180: 712a 71bc 3183 a43d 3848 6abd dae1 14bd
00000190: bf9c 30bd ea72 9b3d 84ae e03c c3ea 85bd
000001a0: 03e7 c6bd df22 853c 09bb 45bd 83e5 fdbb
000001b0: 3dfb 65bb b414 abbc d42a d43d f075 cdbb
000001c0: 6713 ba3d ffee c5bc e93f 02bd 9eee 90bd
000001d0: 6806 5b3d c278 8b3d 1109 5ebb 07c3 dbbb
000001e0: 64b8 97bd 1894 d13d 3a2e a83d dc02 b8bc
000001f0: 45ed 82bc 8826 e1bc d538 35bc 37f3 0dbe
00000200: 1b30 0e3e b49d 253e 58d5 e2bd 9657 153e
00000210: 9185 05be 439c 6abc a763 d23d 55ae c3bd
00000220: 90eb 84bb 3ee9 3e3d 8be5 183d d602 a7bc
00000230: 5922 8f3d c71c a13c 0760 033d 3038 53bd
00000240: b3e4 b3bd 19c3 203e ac31 04be 1d49 adbc
00000250: 2e6c 9d3a 1e81 10bd f4cd 92bd 492c b63d
00000260: 8a3a 153c 8b5f c63d 1531 c63d d4d6 abbc
00000270: 512a f5bc b546 8fba f79d b9bc 04bf 553d
00000280: 1b18 9dbc 4534 26bd aff0 19bd ef66 103d
00000290: fe5f fabc 5b28 24bd f42b 11bd bd10 1f3d
000002a0: ad48 b53c 1fce d33c 9c98 85bc 9f12 623b
000002b0: b3b4 43bd f83d db3c 91e6 bf3d db7b 47bd
000002c0: 6392 7cbd 9aee d93c ff85 c93c 2334 e83d
000002d0: 33b9 943d 6733 163d 0992 40bd f3ee c2bd
000002e0: 2d38 6d3d 4d45 cdbc e4d7 bebb 5992 ad3d
000002f0: 9300 8bbd 2014 57bd b131 90bc 267f 09bd
00000300: ac4e dbbd cd06 38bd b88d 913d e7cb d5bd
00000310: 7c13 b33d 1db4 3c3d 7e6b 723d 85d4 2abd
00000320: 34fe 3f3d 94ea 913c 6ac1 bebd ba63 093d
00000330: 491d 92bd 1dc6 2dbc 08b0 333d f878 5a3d
00000340: 86b9 ea3c 178f adbd 267a 663d 93ec 5fbd
00000350: 8f11 da3c 1ee2 10be 196e 2b3d 2a09 3bbd
00000360: 58fe 3dbd ee81 003d 1a51 f7bd d060 e33d
00000370: b696 063e 90f2 143e 624a 65bd 76de 95bd
00000380: c5ff 2d3d 8dcc cebb 82ef d7bd f28a 193e
00000390: e8e7 b23d 5226 2b3d 6cd3 ed3d 5e82 02be
000003a0: 795e 133e bc18 aabd 8ad3 553d b83f d3bd
000003b0: 1a58 ee3c e3f0 45bd 002a 773d 9126 89bd
000003c0: 0bc7 6fbd bd45 c8bd 99c5 0d3e 80a4 e6bc
000003d0: b223 74bd 8789 1abe 8db1 ed3c 56f0 943c
000003e0: f6e2 dd3a b70d 0cbd b978 d6bc 999f 9c3d
000003f0: b55d 353d 02e3 9fbd e25a 863c e799 4abd
-0.06593933 -0.039543718 0.05094186 -0.00091166934 0.04680069 -0.059081767 0.003485768 -0.0861942
-0.022836262 -0.07706814 -0.05227545 0.01566771 -0.073124975 -0.043316785 0.008545227 -0.0032091525
0.06355345 0.052445166 0.008778663 0.0100079905 0.043012276 0.01301921 0.045256756 0.07758595
0.059311938 0.058930676 -0.06841804 -0.105515115 -0.012151343 -0.077469714 -0.007621853 0.030312702
-0.08423226 0.06723863 -0.055485968 0.049771328 -0.0368227 0.12921098 -0.00035891685 0.1458629
-0.09713044 -0.060116768 0.11787042 0.080368906 0.05004795 0.0648012 -0.028353356 -0.115922056
0.011998301 -0.056843646 -0.08587191 0.009028582 -0.055122606 -0.0042151576 0.04331324 -0.018061612
-0.04804197 -0.065164275 -0.1385549 0.013178402 0.08136519 -0.071445964 0.016624719 -0.11088679
0.008410389 0.06752173 0.11031262 0.13733317 -0.15696442 0.106670305 -0.00026332054 0.0020844175
0.10965945 0.0025797554 -0.066279985 0.017183393 -0.08895592 -0.11351722 0.12248636 -0.070487335
-0.008551615 -0.08245941 0.029025346 -0.09161815 -0.11340372 -0.04110062 -0.16015439 -0.017164918
-0.08598444 0.11794117 -0.0539697 0.051086284 0.13368052 -0.06284947 0.040896576 0.089221194
-0.0147195915 0.08032835 -0.05719778 -0.0363482 -0.043118235 0.075902775 0.027426966 -0.06538918
-0.09712031 0.01625198 -0.048274074 -0.007748307 -0.0035092377 -0.020883895 0.10359731 -0.0062701628
0.09085732 -0.024161814 -0.03179923 -0.070767626 0.053472906 0.06810142 -0.0033879916 -0.0067065987
-0.074082166 0.10233325 0.08211942 -0.022462301 -0.01598228 -0.027484193 -0.011060913 -0.1386231
0.13885538 0.1617344 -0.11075848 0.14584193 -0.13039233 -0.014319482 0.102729134 -0.095547356
-0.0040564016 0.046609156 0.037328284 -0.020387094 0.06988973 0.019667042 0.032074 -0.051567256
-0.08783855 0.15699424 -0.12909573 -0.021153027 0.001201039 -0.035279386 -0.07168189 0.088951655
0.009108195 0.09686192 0.096773304 -0.020976461 -0.029927405 -0.0010931107 -0.022658331 0.05218412
-0.019176533 -0.04057719 -0.03758305 0.035254415 -0.03056335 -0.04007755 -0.035442308 0.038834322
0.022129381 0.025855122 -0.016308121 0.0034495962 -0.04777975 0.026762947 0.09370149 -0.048702102
-0.061663043 0.026603032 0.024600027 0.11338069 0.072618864 0.036670115 -0.04701427 -0.09518232
0.0579149 -0.02505746 -0.005824076 0.08475179 -0.06787219 -0.052509427 -0.01760182 -0.033568524
-0.10708365 -0.04492836 0.07107109 -0.10439282 0.08743951 0.046070207 0.059184544 -0.04170658
0.046873286 0.01781205 -0.093142346 0.033542372 -0.07134492 -0.010606316 0.04386905 0.05333802
0.028652918 -0.08474558 0.056268834 -0.054668974 0.0266197 -0.14148757 0.041853044 -0.045663036
-0.04638514 0.03137391 -0.12076016 0.1110245 0.13143429 0.14545655 -0.05597914 -0.07317822
0.04248025 -0.0063110054 -0.10543729 0.1499441 0.08735639 0.041784592 0.11612591 -0.12745044
0.14391507 -0.08305499 0.052203692 -0.10314888 0.029094744 -0.04832543 0.06034279 -0.06696809
-0.05853943 -0.097789265 0.13844909 -0.028154612 -0.059604354 -0.15091525 0.029015327 0.018181007
0.0016928602 -0.034192767 -0.026180612 0.07647628 0.04427882 -0.0780697 0.016400758 -0.04946318

classifier.0.bias f4 [128]
00000000: 80ec a23d 7afb 343d 7d80 8c3e efe7 6d3e
00000010: bcc9 f33d 2137 cc3d 3a68 563e 8491 7c3e
00000020: 9174 1b3e c23c b73c e040 8bbb 8d12 c13d
00000030: 370e f63d 5642 a23d da7a 5f3e 9fdc 103e
00000040: 3eba 573c 64fc 1ebd 569a 383e 2fab 043e
00000050: 7faf 303e 7216 2c3e 102b 903d 6f09 8d3e
00000060: 53d8 b23d 5a7f 6abc 951e 6d3e 4eee 813e
00000070: 770a 153e 4aef 673d c088 16bd c51b 603d
00000080: 944e 05be a246 423e ef63 143e b3ef e33b
00000090: 8d76 3a3e 1f3b 703d 0874 8d3e 2f07 553d
000000a0: 91e9 d53d 687f 1c3e 9e61 543e d7be 833e
000000b0: e930 c33d 9a61 b33d 3883 a33d 2427 29bd
000000c0: 9ea6 9c3d a04a 6c3e ecf2 cc3d 6894 443e
000000d0: 61ea 703e 4017 51bd 5c1a 983e 22fc cb3d
000000e0: cb93 8e3e 19c8 1c3e 8118 843b 5366 3c3e
000000f0: 80fd 3b3e 4d5b 94bc c721 1cbb 1c79 bdbc
00000100: d0a1 a43d 999e 563e f2e7 0f3e 56b8 afbd
00000110: c7da 463d 8bdf cc3d 483f 223e efc4 b0bd
00000120: 496b 0abd c7f6 a43d 95dc 4d3e 4073 b73c
00000130: 1657 453e 5547 713e deb2 943d 8930 d33d
00000140: 4149 cdbd 4049 003d f20f 843e 4a85 4b3e
00000150: a03b e33d 24b2 093e 47ad ff3c 2128 283e
00000160: 1d66 083e d80b 123e ecb7 2b3e b450 003e
00000170: a614 523e 3796 8a3e 2f96 633e c255 22bd
00000180: c1c9 663e e941 34be 38a2 ff3d 9b0e 7b3e
00000190: 6776 7b3e 26ab 223e 1b64 0f3e ccb6 773e
000001a0: 1e62 173e ca0f 883e ac92 613e b25a 373e
000001b0: a539 143e e76d 823e 5818 273e 2787 f23d
000001c0: efca 883d d476 25be cffb c93d b54c 003e
000001d0: 1c62 593d 625d 1b3e 9455 5d3e f4b5 263d
000001e0: 992d 8a3d 066b 7f3d 1470 943e 1eff 193e
000001f0: 6bb5 f7bc 2c4d 40be 3199 923c 7ba3 8f3d
0.07955265 0.04418514 0.2744178 0.23233007 0.11903712 0.099714525 0.20938197 0.24664885
0.15181185 0.022367839 -0.004249677 0.094273664 0.1201443 0.07922809 0.21824208 0.1414666
0.013166962 -0.038814917 0.18027624 0.12955926 0.17254446 0.16805437 0.070394635 0.2754626
0.08732667 -0.01431259 0.23156197 0.25377125 0.14554773 0.05662469 -0.03675151 0.054713983
-0.13018256 0.18972257 0.14491247 0.0069560646 0.18209286 0.058650132 0.27627587 0.052008804
0.1044494 0.15282977 0.20740363 0.25731537 0.09530813 0.087588504 0.07984012 -0.041297093
0.07648967 0.23075342 0.10007271 0.19197237 0.23526908 -0.051047564 0.2970761 0.099602
0.27847132 0.15310706 0.0040312414 0.18398409 0.18358421 -0.018109942 -0.0023823844 -0.023129039
0.08038676 0.20958938 0.14053324 -0.08580081 0.048548486 0.10003575 0.15844452 -0.08631312
-0.03379372 0.080548815 0.20103677 0.022393823 0.19271502 0.23562367 0.07260679 0.10311992
-0.10023738 0.031319857 0.25793415 0.19875064 0.11095357 0.13446862 0.031210555 0.16421558
0.13320203 0.1426233 0.1676938 0.12530786 0.20515689 0.2706773 0.22225259 -0.039632566
0.225379 -0.17603268 0.12482113 0.2451729 0.24556886 0.158856 0.14003031 0.24190825
0.14783522 0.26574546 0.22028607 0.17905691 0.14475115 0.25474474 0.1631788 0.118421845
0.066793315 -0.1615861 0.09862482 0.12529261 0.05307208 0.15172341 0.21614677 0.040700868
0.06746978 0.062357925 0.2899176 0.15038726 -0.030237874 -0.18779439 0.017895313 0.07013603

classifier.3.weight f4 [64, 128]
00000000: b484 ca3c 60f4 763d 7f0c 993d 8cea f6bb
00000010: 4ea4 373e 2d78 6a3d aaec f03d a4ac a53d
00000020: bc19 b13d 843e b0bd d5d3 12bd 7466 e5bd
00000030: 4a36 003e c697 4c3d 1579 603d e688 4bbd
00000040: e167 9bbc 4c7a 76bd 0026 6c3d 3330 a03d
00000050: 64e0 09bd f841 c2bc f6cf df3c d5fe 9fbd
00000060: dfb2 9cbd bc37 2d3c 1ce5 463d b6d3 c6bd
00000070: 0ad1 7a3d c70b abbc 097f a9bd 1d42 1c3d
00000080: e3bd 89bd 6cb4 753d 18b8 213d 9d39 ffbd
00000090: dfb1 133c 2dce 6fbd e04f a73d cf64 cdbb
000000a0: 3112 693c 4860 403d 4f03 523d 865e 6d3d
000000b0: 4c8f 5dbd 6166 bdbd 7c0b 56b9 567e 93bd
000000c0: a8d9 e13c d45c f43d 507b 213d 4776 b4bd
000000d0: f5c5 24bd 977e 18bd a4c4 143d 7248 77bd
000000e0: a4ab 0a3e 7bbc 343d 40c5 cfbd d909 69bd
000000f0: f41f d03d eb63 85bd c5e5 2bbd 91c8 4abd
00000100: 54f3 e3bb 20b8 c33d 6015 1fbd d931 f33c
00000110: 77e5 7bbb fff8 65bd 335e 0d3d f86b 2d3d
00000120: 5ad3 153d 49fd 18bd 4da3 503d b4f7 c2bd
00000130: b63e 533d 88e0 ea3d 4d2f 203c 45ef e9bc
00000140: 5dec 9abd 683c cdbd eeda e1bd 681a 9e3c
00000150: 48c9 583d dca4 d53c d424 31bd 5ef4 d23d
00000160: 0286 5cbd ce3e 0e3d 3b0c 273d 5347 0dbd
00000170: adbe b23d 5d9c 26bd 6b04 0bbd 7696 d53c
00000180: 97d7 c3bc 5fba 7bbc ab49 29bd 7401 a73c
00000190: c6f1 e83c a5ec 51bc d528 353b dd71 96bc
000001a0: 6c44 ec3d b36a 65bc a904 e63c 1c9d 8d3d
000001b0: 4a4e 933c ba30 3c3b 6322 103d 01f4 76bd
000001c0: b51f b5bd 3d77 a5bd 728e 333d 706a 8fbd
000001d0: 8bcb 0cbc 99ac dbbc 51c7 c5bd 7ad1 deba
000001e0: 5c85 45bd 1383 323d abda 9abd c414 69bc
000001f0: f4ae 59bd b1b1 443d c0bc a93b 9576 a53c
00000200: b453 c13b 2fec 813d b3ec 1a3c 2b1d 18bd
00000210: a4dd 823b 2821 283c 99af 8f3d eeed cebc
00000220: 741f 61bc 637d fcbc da87 e3bc f1d6 e9bd
00000230: 06d6 3c3d f42b 783d 30f8 80bd d22a 333d
00000240: eafc 5c3d c012 83bc 50b6 aabc 7fbc fabc
00000250: 6be0 d4bd d6fb b13d 64ed ba3c 1a41 80bd
00000260: cd01 f03c b820 2fbd 1390 5dbd 61fe d33d
00000270: 92a5 9b3d cbce 56bd a22e 863d 55a3 2b3c
00000280: 0c6d bdbd 71ed 1bbd 9ba8 01bd cfce 9c3d
00000290: 4e6d 74bd b4d8 6e3d a446 2a3d 4d49 5abc
000002a0: 99ac 933d 79dc 76bd 3da8 a33c fbca e5ba
000002b0: 24fe 2d3d fd26 6abd d582 47bd 0433 3e3d
000002c0: de6f 7f3d ddd5 b43d 11d0 b93c c669 a83d
000002d0: f64a 843d 1986 0bbd c2b2 09bd 6393 843d
000002e0: cbbe 663c 6422 bc3d 03e2 193d 2f41 053d
000002f0: 3cfd 913c 099c 8fbd f65f 033d 5594 de3b
00000300: 7067 79bd 8f2c 89bd 90c4 e4bc 7af1 fcbc
00000310: f1a9 a1bc fbe8 0abd 3531 5ebb 9bd1 adbd
00000320: 50ea cbbc d09e 84bd bb14 173d da8f 4b3d
00000330: fb25 19bc dd72 9c3d 1c8d d33d 3439 80bc
00000340: eac6 f539 15c1 91bd 69ad 6e3d d23e 6abd
00000350: c92b c63c 3a42 963d ef48 1abd b8b2 953d
00000360: e7b0 1bbd 9a2b c33d f680 013d 2753 553c
00000370: 5b0f b83c 2e0d 6abd 1488 913d 32e0 f73a
00000380: 5491 05bd 372a ccbc 3b31 42b9 95e5 ab3d
00000390: 18a8 6fbc 11a4 203d 3afa a63d 617d a63d
000003a0: 5a59 863d addf 1abd 3f88 98bd 409a 603d
000003b0: 29be 3f3c 5de4 043e ed7e 5bbb 8c19 513d
000003c0: 716c babd 2d3a 74bd c182 513d 38b9 c33d
000003d0: f6ab dcbb b3ec 013d a739 b4bc 9e76 423d
000003e0: 83c3 933d 210e 023b ec7d 76bd c253 6f3d
000003f0: d0a2 a2bd ea93 043d 50f5 57bd 131b 7bbd
0.02472148 0.060291648 0.074730866 -0.0075352844 0.17933771 0.057243515 0.1176389 0.08089569
0.086474866 -0.08605674 -0.03584655 -0.11201182 0.1252071 0.04994943 0.054802973 -0.049691103
-0.018970432 -0.060175225 0.057653427 0.07821693 -0.03366126 -0.023713097 0.027320843 -0.07812277
-0.076513045 0.01057237 0.04855834 -0.097083494 0.06123451 -0.02087964 -0.08276183 0.038148988
-0.06725671 0.059986517 0.039482206 -0.12462161 0.009014576 -0.058546234 0.08169532 -0.006268121
0.014225529 0.04696682 0.051272687 0.057951473 -0.054091737 -0.09248043 -0.00020412909 -0.07201831
0.027569607 0.11931768 0.03942424 -0.08811622 -0.04022785 -0.0372301 0.036320344 -0.060371824
0.13542038 0.04412506 -0.10145044 -0.056894157 0.101623446 -0.065131985 -0.041967172 -0.04950768
-0.006956497 0.095566034 -0.038838744 0.029686855 -0.0038436332 -0.056145664 0.034513664 0.042339295
0.036578514 -0.037350927 0.050936986 -0.09519902 0.051573478 0.11468607 0.009776902 -0.028556475
-0.07564614 -0.10021287 -0.11028086 0.0192997 0.05292633 0.026079588 -0.043248013 0.103005156
-0.053838737 0.034727864 0.04078315 -0.03449185 0.08727775 -0.040676463 -0.03393976 0.026072722
-0.023906512 -0.015364259 -0.04133002 0.020386435 0.028435599 -0.012812768 0.0027642746 -0.018364841
0.11536488 -0.01400249 0.028078394 0.06914732 0.017981667 0.0028715567 0.035189044 -0.060291294
-0.08843938 -0.080793835 0.04383702 -0.07002723 -0.00859345 -0.0268157 -0.09657157 -0.0016999685
-0.048222885 0.043582033 -0.07561239 -0.014226142 -0.053145364 0.048021022 0.0051799715 0.020198146
0.005899871 0.063438766 0.009455848 -0.03713719 0.003993707 0.010261811 0.070159145 -0.025259938
-0.013740409 -0.030821508 -0.02777474 -0.1141795 0.046102546 0.060588792 -0.06297338 0.04374201
0.053952135 -0.016000152 -0.020838886 -0.03060746 -0.10394367 0.08690612 0.022818275 -0.06262417
0.029297734 -0.042755812 -0.054092478 0.10351253 0.075999394 -0.052443307 0.06551863 0.010475953
-0.09249315 -0.03806824 -0.031654935 0.07656633 -0.059674554 0.058312133 0.041571274 -0.01332314
0.07210655 -0.060268853 0.019977683 -0.0017531806 0.042478696 -0.05716609 -0.048708756 0.04643537
0.062362544 0.08829854 0.022682222 0.082233 0.0645961 -0.034063432 -0.033617742 0.06473424
0.0140835745 0.09186247 0.037569057 0.032532867 0.017820947 -0.07012183 0.032073937 0.006792585
-0.06088966 -0.06697952 -0.02792576 -0.030876864 -0.019734355 -0.033913594 -0.0033903841 -0.08487245
-0.024892002 -0.064756036 0.036885004 0.049697734 -0.009347434 0.07639096 0.10329649 -0.015652277
0.00046878244 -0.071169056 0.058270846 -0.057188816 0.0241908 0.073368505 -0.03766721 0.073094785
-0.038010504 0.09529801 0.031617127 0.013020313 0.02246826 -0.057141475 0.07106033 0.001891142
-0.0326093 -0.024922473 -0.00018519622 0.08393399 -0.014627479 0.039218966 0.08153196 0.08129383
0.06560011 -0.03781097 -0.07447862 0.054834604 0.011703053 0.12977739 -0.0033492402 0.051049754
-0.09102715 -0.059625793 0.051150087 0.09556812 -0.0067343665 0.031719875 -0.022000147 0.047476403
0.07215025 0.0019844847 -0.060178682 0.058429487 -0.0794121 0.032367624 -0.052724183 -0.061305117

classifier.3.bias f4 [64]
00000000: 6c1d c43d 9993 5d3e f983 373d 2ecf ac3d
00000010: 8ca0 103e 62fa 073e 9a25 383e 86df 8a3b
00000020: 7cae babd 1a87 0a3e 8ef0 753e 1343 13bd
00000030: e81e 593e 3fe4 6c3e b549 7f3e d862 83bc
00000040: 2c3e 6d3d c53c 793e 9c13 3c3e eb23 fa3d
00000050: 34f6 f3bc df58 2c3e bc31 7e3e 56a4 053e
00000060: 4173 b53d e709 113e f93a 503e 74f8 d83d
00000070: bb13 673e 8d51 133e bb16 1c3e ca9d 8bbc
00000080: 8ecd 9c3c 5efd 79bd 196d 003d 149c bd3c
00000090: 86bb d63d 8562 2cbd 5a36 153d 139d e4bc
000000a0: 9e13 4c3d 4d6d 243e 0fdf 0c3d 0f0d 463e
000000b0: a346 16bd 800b 5f3e f38f 423e 0a7e 073e
000000c0: 0db9 0b3e 33c9 283e 8baf 5b3e 54bf fcbc
000000d0: 1e30 b03d 7cda 04bd cf03 993b 8bb4 053e
000000e0: 929b cd3d a390 b43d ed62 e23d 3f0d 083e
000000f0: c757 173e a32b 1dbd bda9 653e 4b19 023e
0.09575924 0.21638335 0.044803593 0.08437954 0.14123744 0.13279107 0.17983094 0.004238072
-0.091153115 0.135281 0.24017546 -0.03595264 0.21203196 0.23133944 0.24930461 -0.016038343
0.05792062 0.24339588 0.18366855 0.12213882 -0.029780485 0.16830777 0.2482366 0.1305097
0.088598736 0.14163934 0.20334996 0.10594264 0.2256612 0.14386578 0.15243046 -0.017043013
0.019140985 -0.061032645 0.031354044 0.023145713 0.10484986 -0.042086143 0.036428787 -0.02790693
0.049823396 0.1605732 0.034392413 0.19340919 -0.03668846 0.2178173 0.19000225 0.13231674
0.1364481 0.16483001 0.21453683 -0.030852951 0.086029276 -0.032434925 0.0046696435 0.13057153
0.10039438 0.0881665 0.11054025 0.13286303 0.14779578 -0.038371693 0.22428031 0.12704961
