models/discriminator.pth (torch, 433649 bytes, 13 tensors)

discriminator.0.weight f4 [256, 148]
0	0xbd83af24	-0.0642989
1	0x3cd39f37	0.025832755
2	0x3cdfd572	0.027323458
3	0x3d09422b	0.03351037
4	0xbd6d1081	-0.057877067
5	0xbc663f80	-0.0140532255
6	0xbcccde71	-0.025008412
7	0xbca9319d	-0.02065354
8	0xbc359621	-0.011083157
9	0x3c977e8f	0.018492965
10	0xbd69b621	-0.057058457
11	0x3d5f483d	0.05451225
12	0xbd0e7e20	-0.03478825
13	0x3da8ea1d	0.082477786
14	0xbd92c446	-0.071663424
15	0xbd8bd9e8	-0.06828672
16	0x3cfd2d0c	0.03090527
17	0x3d49d060	0.049270988
18	0x3b244d2d	0.0025070414
19	0xbd3475e5	-0.044057745
20	0x3b98af6b	0.0046595833
21	0x3d85692a	0.06514199
22	0x3ceb668a	0.028735418
23	0x3ccf8514	0.025332011
24	0x3d0fb484	0.035084262
25	0x3d0adb3c	0.033900484
26	0xbd1576b9	-0.036490176
27	0xbd98851c	-0.074472636
28	0xbaf624b8	-0.0018779254
29	0x3ba5587e	0.0050459495
30	0xbd4df0a7	-0.050278332
31	0xbc5c107b	-0.013431664
32	0x3d140467	0.03613701
33	0x3caf0eaa	0.021369297
34	0xbd6b7ed4	-0.057494
35	0x3c51ae80	0.012797952
36	0xbd4f3b18	-0.050593466
37	0x3d90f9d0	0.07078898
38	0x3d7ff9fe	0.06249427
39	0xbbb7f37e	-0.0056137433
40	0x3c9253de	0.017862257
41	0x3ca035bb	0.01955687
42	0xbd98645f	-0.07441019
43	0x3c16a257	0.009193978
44	0xbcf3a087	-0.029739631
45	0x3d389dd1	0.04507238
46	0xbbeecebf	-0.0072878296
47	0xbb3e981c	-0.0029082363
48	0xbd49a6ed	-0.04923146
49	0xba79b352	-0.0009525317
50	0x3d238c21	0.03992856
51	0x3c82666e	0.015917983
52	0x3d2ea056	0.042633377
53	0x3c80b760	0.01571244
54	0xbdb8e1e6	-0.09027462
55	0xbcf8e6da	-0.030383516
56	0x3cd42fcb	0.025901696
57	0xbb305b2b	-0.002690981
58	0x3d0a935a	0.03383193
59	0xba8ce73b	-0.0010750064
60	0x3c9ff58c	0.019526266
61	0xbd796f56	-0.060897194
62	0xbd29474c	-0.04132776
63	0xbcd507ef	-0.02600476
64	0xbd2d0993	-0.04224546
65	0xbb730445	-0.0037081402
66	0x3cd95137	0.026527984
67	0xbcf025e5	-0.029314945
68	0xbca12734	-0.019672014
69	0x3d784eb7	0.060621943
70	0xbd7dfb6a	-0.062007345
71	0xbd35f3f2	-0.044422098
72	0x3d41736c	0.047229216
73	0xbd373d6f	-0.044736322
74	0x3c18a209	0.009315976
75	0xbbdb84fd	-0.006699203
76	0xbb2896dd	-0.0025724687
77	0xbd678914	-0.056527212
78	0x3d134afe	0.03596019
79	0xbbce394d	-0.006293452
80	0x3d4cf18e	0.050035052
81	0x3d1bfcc0	0.038082838
82	0x3cd11c64	0.025526233
83	0x3b25ced4	0.002530028
84	0xbce14a5c	-0.027501278
85	0xbd448510	-0.04797846
86	0x3caef00a	0.021354694
87	0x3d513c51	0.051082913
88	0xbc58c1fb	-0.013229842
89	0x3cd805b1	0.026369901
90	0x3cc90c9c	0.024542145
91	0x3c0067d9	0.007837259
92	0x3b0465fc	0.002020239
93	0x3cefa396	0.029252809
94	0x3d780887	0.060555007
95	0xbbe395b8	-0.006945338
96	0x3c92b0bb	0.017906537
97	0x3ceefef6	0.02917431
98	0xbd14b301	-0.036303524
99	0xbcb1d51a	-0.02170806
100	0x3d03b536	0.032155238
101	0x3cb942be	0.022614833
102	0x3c5dec17	0.013545058
103	0xbda436fc	-0.080183
104	0xbc8ecbe4	-0.017431207
105	0xbd142675	-0.036169488
106	0x3d802603	0.0625725
107	0xbd2f129d	-0.04274236
108	0xbd82cd17	-0.06386774
109	0x3cbb2d01	0.022848608
110	0x3d89f6a3	0.06736495
111	0xbd3535e3	-0.044240844
112	0x3d37b4bf	0.044850107
113	0x3c243120	0.010021478
114	0x3c82f5f6	0.015986424
115	0x3d3e749f	0.046497937
116	0x3ba7dd69	0.0051228297
117	0x3d442564	0.04788722
118	0x3cb0718e	0.021538522
119	0xbd871d44	-0.06597379
120	0xbd434b27	-0.047679093
121	0xbd86d85e	-0.065842375
122	0x3bc1ea7c	0.0059178453
123	0x3b70ede1	0.003676288
124	0xbc09e276	-0.008415809
125	0xbbbc7974	-0.005751783
126	0x3bcad4fc	0.0061899405
127	0x3db7c378	0.089728296
128	0x3d4c96b0	0.049948394
129	0x3d35aea3	0.044356
130	0xbcb89717	-0.022532983
131	0x3d685aee	0.056727342
132	0xbd450b2b	-0.048106354
133	0x3cd7587d	0.026287312
134	0xbc650e82	-0.01398051
135	0x3cec8b06	0.028874885
136	0xbd10a8c9	-0.035317216
137	0xbd15f644	-0.03661181
138	0x3d66b447	0.05632427
139	0x3c29f824	0.010374103
140	0xbd19fb32	-0.037593074
141	0xbd87acba	-0.06624742
142	0xbd98bc5b	-0.07457801
143	0xbcb2ad32	-0.021811102
144	0xbd1f6ec6	-0.038924
145	0x3d7a4938	0.061104983
146	0xbd347e4b	-0.044065755
147	0x3d81c331	0.06336058
148	0x3c85c45b	0.016328981
149	0x3d97bfd0	0.07409632
150	0x3b4da448	0.0031378437
151	0xbd3608cd	-0.044441987
152	0xbd33d2ba	-0.043902136
153	0x3afff5f1	0.0019528252
154	0xbd573689	-0.052542243
155	0xbd3c95d5	-0.04604133
156	0xbd3e3776	-0.04643961
157	0x3d487c52	0.048946686
158	0x3d3c7624	0.046011105
159	0x3d2680ce	0.04065018
160	0xbcca86c9	-0.024722474
161	0x3d86e2c2	0.06586219
162	0x3b2967b3	0.0025849163
163	0xbd377540	-0.044789553
164	0x3cc018a8	0.023449257
165	0x3d69b45f	0.05705678
166	0xbd49bac2	-0.04925037
167	0x3d9791bc	0.074008435
168	0xbd3d4643	-0.046209585
169	0x3d124fcd	0.035720635
170	0x3d8ca93a	0.06868215
171	0xbd763b99	-0.06011543
172	0xbd82d41f	-0.06388115
173	0x3d91e836	0.07124369
174	0x3d0d4757	0.034491863
175	0xbd050691	-0.032476965
176	0xbd9d5f3d	-0.07684181
177	0x3d3879a9	0.0450379
178	0x3d17dd3a	0.037076212
179	0xbce34a1e	-0.027745303
180	0xbd882d72	-0.06649293
181	0xbcbd2a7e	-0.02309155
182	0xbbfbc56f	-0.007683448
183	0x3ca2e5f6	0.019885045
184	0xbcfe4ec3	-0.031043416
185	0xbd5fb9a0	-0.054620385
186	0x3d07c84f	0.033150014
187	0x3d2a6df5	0.04160877
188	0xbd100817	-0.035163965
189	0x3d628796	0.055305086
190	0x3d183795	0.037162382
191	0xbc2dc607	-0.010606295
192	0x3c7ef1d5	0.015560587
193	0xbcd55619	-0.026042031
194	0xbdd7ae99	-0.10531349
195	0xbd11a005	-0.035552997
196	0x3cd16a16	0.025563281
197	0xbd14549a	-0.036213495
198	0xbb09cac1	-0.0021025392
199	0x3c94d76d	0.01816913
200	0x3d84e7ba	0.06489511
201	0x3d0748f8	0.033028573
202	0x3d2f6847	0.042824056
203	0xbd4601b2	-0.04834146
204	0x3dc8dc0e	0.09807597
205	0x3dafa397	0.08576124
206	0x3cf2e7ba	0.029651511
207	0xbc596937	-0.013269714
208	0xbd87a787	-0.0662375
209	0xbb8b2fcb	-0.0042476407
210	0x3cd2864a	0.0256988
211	0xbc8d4137	-0.01724301
212	0xbb08b520	-0.0020859912
213	0xbd844829	-0.06459076
214	0x3daf56c4	0.08561471
215	0xbc9d63a3	-0.01921255
216	0xbd1df2b0	-0.038561523
217	0x3d13b0b8	0.036057204
218	0xbd8a9295	-0.067662396
219	0xbd095fae	-0.033538513
220	0x3b7f71c0	0.0038977712
221	0xbd2e7338	-0.04259035
222	0x3d6321a7	0.055452015
223	0x3d2414d8	0.04005894
224	0x3d70e713	0.05881412
225	0xbd0a5ee7	-0.033781912
226	0x3d3ffb95	0.046870787
227	0x3bdefabe	0.006804793
228	0x3c896eec	0.016776524
229	0x3d99a092	0.075013295
230	0xbd68807f	-0.05676317
231	0xbcd540ba	-0.02603184
232	0x3cb9babf	0.022672055
233	0x3bd9c6f6	0.0066460324
234	0x3c7757b2	0.015096592
235	0xbd9ee6d1	-0.077588685
236	0xbd6d92de	-0.05800139
237	0xbce59b69	-0.028028207
238	0xbcefdc5b	-0.029279878
239	0xbc10efab	-0.008846204
240	0x3d4a94bc	0.04945825
241	0x3d23a0a5	0.039948124
242	0x3ad3f2d2	0.0016170389
243	0x3d133858	0.035942405
244	0xbcd1a0b6	-0.025589328
245	0xbd117f60	-0.035521865
246	0x3cdefb20	0.027219355
247	0xbc546300	-0.012963057
248	0x3cc6cad0	0.02426663
249	0x3c9f015e	0.019409832
250	0x3d49cf50	0.049269974
251	0x3d462b98	0.048381418
252	0x3d3d4d79	0.04621646
253	0xbbf5e7ae	-0.007504425
254	0xbd1e89f0	-0.038705766
255	0xbdca47a1	-0.098769434

discriminator.0.bias f4 [256]
0	0xbda9da62	-0.08293606
1	0x3d097dfa	0.033567406
2	0x3e4dee2a	0.20110384
3	0x3df0d294	0.117589146
4	0x3e14c263	0.14527278
5	0x3e6a9dc8	0.22911751
6	0x3e439ca2	0.1910272
7	0xbdddbf80	-0.10827541
8	0x3e55721b	0.20844309
9	0x398ba878	0.00026637665
10	0x3e58ec40	0.21183872
11	0x3de9099c	0.11378786
12	0xbe1f5ee2	-0.15563539
13	0x3e5c23fd	0.21498103
14	0x3e581d03	0.21104817
15	0x3d04f6d1	0.032461945
16	0x3e200472	0.15626696
17	0x3e455e6d	0.19274302
18	0x3e79af5c	0.243833
19	0x3e25513d	0.16144271
20	0x3e2a46be	0.16628549
21	0x3dcdcee4	0.10049227
22	0xbda2d8e3	-0.07951524
23	0xbe3aeb93	-0.18253927
24	0xbd8323ad	-0.06403289
25	0xbe21bd21	-0.15794803
26	0x3e1e93c9	0.15486063
27	0xbdda8a26	-0.10670881
28	0x3e0b95b7	0.1363133
29	0x3e16836b	0.1469857
30	0xbdc166a4	-0.09443405
31	0xbe3fbdfb	-0.18724816
32	0x3e49207e	0.19641301
33	0xbd6a0322	-0.057131894
34	0x3ddbe301	0.10736657
35	0xbe08d8a9	-0.133639
36	0xbdd8de17	-0.10589235
37	0x3e666aae	0.22501633
38	0x3e176524	0.14784676
39	0x3dcdd87f	0.10051059
40	0x3e4a1c27	0.19737302
41	0x3e48b0f8	0.19598758
42	0x3e6274fa	0.22114936
43	0xbe253501	-0.161335
44	0xbe2babaa	-0.16764703
45	0x3e632f46	0.22186002
46	0xbdf1022d	-0.11767993
47	0xbd681412	-0.056659766
48	0x3e62eb8d	0.22160168
49	0xbd9d114b	-0.07669314
50	0x3e0f93c1	0.14021207
51	0x3e8bdbfd	0.27316275
52	0x3e559f55	0.20861562
53	0xbdc7d6c1	-0.09757758
54	0x3e46001e	0.19335982
55	0x3e1bf8b7	0.15231596
56	0x3e11a87d	0.1422443
57	0x3e66ad85	0.2252713
58	0x3e14730a	0.14497009
59	0x3e41fbc2	0.18943694
60	0xbd97b64f	-0.074078195
61	0xbe2b341c	-0.16719097
62	0xbdc279fc	-0.09495923
63	0x3a87b3f1	0.0010353309
64	0xbe412b52	-0.18864182
65	0x3e26377b	0.16232102
66	0xbe6d5bc1	-0.23179533
67	0x3e323a11	0.17404963
68	0x3e66db88	0.22544682
69	0xbe3a16ce	-0.18172762
70	0xbe037736	-0.12838444
71	0x3dd4f464	0.10398176
72	0x3e09ab3c	0.13444227
73	0x3e3a1865	0.18173368
74	0xbd3e1145	-0.04640319
75	0x3e8834ee	0.26602882
76	0x3dad1f20	0.08453202
77	0xbd34f512	-0.04417903
78	0x3e78833d	0.24268813
79	0x3e293e83	0.16527753
80	0xbdacd5f2	-0.08439244
81	0x3e821b41	0.25411418
82	0x3e75c9bd	0.24002738
83	0x3e3333f9	0.17500295
84	0x3db8ace3	0.090173505
85	0x3e3acac2	0.18241408
86	0x3e1928e1	0.14957
87	0x3e17c7f1	0.14822365
88	0x3e1912ba	0.1494855
89	0x3d8ec228	0.06970626
90	0xbe270df0	-0.1631391
91	0x3e2264a0	0.15858698
92	0x3e2e5dfb	0.17028038
93	0xbdc1bd54	-0.094599396
94	0x3e386fac	0.1801135
95	0xbd9c74c4	-0.07639459
96	0xbdf6ff61	-0.120604284
97	0xbd9955b8	-0.07487053
98	0xbce745bc	-0.028231494
99	0x3b965c2f	0.004588626
100	0xbc6e45c3	-0.014543
101	0xbd21cf9e	-0.03950464
102	0x3bb6b1fd	0.005575417
103	0x3dbfcf00	0.09365654
104	0xbe51ea3d	-0.20499511
105	0x3e89b945	0.26899162
106	0x3d6b77ba	0.057487227
107	0x3de56ff9	0.11202998
108	0x3e21cb0d	0.15800114
109	0xbd996e11	-0.074916966
110	0x3e3a8df6	0.18218216
111	0x3da7095d	0.08156083
112	0x3e084e98	0.13311231
113	0x3d43d3a5	0.04780926
114	0x3db6b9d2	0.08922161
115	0x3e2df66d	0.16988535
116	0xbce714b5	-0.028208116
117	0x3da8f030	0.08248937
118	0x3e803d6f	0.2504687
119	0x3e68e9de	0.22745463
120	0xbd6deb90	-0.058085978
121	0xbdbadda7	-0.09124308
122	0xbda41dda	-0.08013506
123	0x3e582190	0.21106553
124	0x3d68ac34	0.05680485
125	0x3df1e85f	0.118118994
126	0x3e43ce17	0.19121586
127	0x3e62202c	0.22082585
128	0x3e634d0a	0.22197357
129	0x3e512453	0.20424013
130	0x3e6ef3a6	0.23335132
131	0x3e1b327e	0.1515598
132	0x3e0b9eda	0.13634816
133	0x3debff44	0.115232974
134	0x3d23cdd1	0.039991204
135	0xbdde6b7e	-0.10860346
136	0x3dc7d44e	0.09757291
137	0x3e15596f	0.14584897
138	0xbe4f416e	-0.20239803
139	0xbe195969	-0.14975514
140	0x3e179b42	0.1480532
141	0xbdb6fb24	-0.0893462
142	0x3e0941a5	0.13403948
143	0x3e7e1a1f	0.24814652
144	0xbde5a120	-0.11212373
145	0x3e32a6d0	0.17446446
146	0x3d2b3520	0.04179871
147	0xbd9e0ea2	-0.07717635
148	0x3e2eb1ea	0.17060056
149	0x3e09f5e9	0.13472714
150	0x3d8b9ec7	0.06817394
151	0xbc485d12	-0.012229221
152	0x3e19aff4	0.15008527
153	0x3d72e4c1	0.059300188
154	0x3deedfc2	0.11663772
155	0x3e14f582	0.14546779
156	0x3e36051f	0.17775391
157	0x3e3bc8c5	0.18338306
158	0x3e60bb31	0.21946408
159	0x3db07cdb	0.08617564
160	0x3e616154	0.22009784
161	0x3e686771	0.2269571
162	0x3da4c3a0	0.08045125
163	0x3d459d8d	0.048245955
164	0x3e8ac251	0.27101377
165	0xbde3a0fd	-0.111146905
166	0xbd94d07b	-0.07266327
167	0xbdd46fc3	-0.10372879
168	0x3e51a406	0.20472726
169	0xbd053d8b	-0.032529395
170	0x3c08e540	0.008355439
171	0x3d3ba084	0.045807377
172	0x3de0a8d9	0.10969705
173	0x3e93c741	0.28862956
174	0xbdea8ae7	-0.11452275
175	0x3e2b1782	0.16708186
176	0x3e3a0986	0.18167695
177	0x3e294110	0.16528726
178	0x3e0ce2ff	0.13758467
179	0xbe4102cb	-0.18848722
180	0xbd983214	-0.07431427
181	0x3e8f0c3d	0.27939025
182	0x3dd0f837	0.10203593
183	0x3e038507	0.12843715
184	0x3e419157	0.18903099
185	0xbd8a0bfe	-0.067405686
186	0x3ddd0f43	0.107939266
187	0xbd622cbd	-0.055218447
188	0x3e37b1c4	0.17938906
189	0x3e7acd6c	0.24492425
190	0xbd4db579	-0.050221894
191	0xbdd09830	-0.101852775
192	0x3e091e76	0.13390526
193	0x3e0aa2c1	0.13538648
194	0x3e82aad1	0.25520948
195	0x3e4631cc	0.19354934
196	0x3dfd7b2c	0.12377009
197	0xbdb64e59	-0.089016624
198	0x3e3e2c48	0.1857158
199	0x3e6d5429	0.23176636
200	0xbbc1f6a3	-0.005919294
201	0x3e0d3d08	0.13792813
202	0xbd9b9687	-0.0759707
203	0xbe0eae9e	-0.13933799
204	0x3daf10c7	0.08548122
205	0x3e64e73c	0.22353834
206	0x3e80559c	0.25065315
207	0x3e5adb95	0.21372826
208	0x3e69a43d	0.22816558
209	0x3dfeb08b	0.12436017
210	0x3dbbbe51	0.09167159
211	0xbe1c4922	-0.15262273
212	0xbd03c6b6	-0.032171927
213	0x3e57d67d	0.21077915
214	0x3e22e97f	0.15909384
215	0x3e8ef713	0.27922878
216	0x3e703797	0.23458706
217	0x3dc3c329	0.09558708
218	0x3e1e14d3	0.15437631
219	0x3e83ec92	0.25766426
220	0xbdb44949	-0.088030405
221	0x3e3ff7e4	0.18746907
222	0x3e738ebe	0.2378492
223	0x3e24850a	0.16066375
224	0xbcfffe72	-0.031249259
225	0xbd8df247	-0.06930976
226	0x3d7441fa	0.059633233
227	0xbc6dae00	-0.014506817
228	0x3cf994ac	0.0304664
229	0xbe2b3bc7	-0.16722022
230	0x3e4dd6e4	0.20101506
231	0x3df6e778	0.12055868
232	0x3e097362	0.13422921
233	0x3e4b0364	0.19825512
234	0xbded9637	-0.11600917
235	0xbd612a41	-0.054971937
236	0x3e6e702a	0.23284975
237	0xbd90a6ba	-0.070630506
238	0x3e569608	0.2095567
239	0x3dbc008e	0.09179793
240	0x3e70f8b2	0.2353237
241	0x3e42d8c8	0.19028008
242	0x3e5213ec	0.20515412
243	0x3de40bc5	0.11135057
244	0xbe233376	-0.159376
245	0x3cea70d0	0.028618246
246	0x3e8980c1	0.26856044
247	0xbc66c465	-0.01408491
248	0x3e4bc8aa	0.19900766
249	0x3dcb5197	0.099276714
250	0x3e279e4a	0.16368976
251	0x3e14f647	0.14547072
252	0x3e2dbe9f	0.16967247
253	0x3e216660	0.15761709
254	0xbcb1733f	-0.021661399
255	0x3e3ba1bd	0.18323417

discriminator.3.weight f4 [128, 256]
0	0xbae25e27	-0.0017270491
1	0x3d433320	0.04765618
2	0xbd1a2524	-0.037633076
3	0x3cd0ed90	0.025503904
4	0xbd4e5b5b	-0.050380092
5	0x3cd2db3f	0.02573931
6	0x3d67a2ea	0.05655185
7	0xbd5123bb	-0.051059466
8	0x3d05546d	0.032551218
9	0xbd5adb77	-0.053431954
10	0x3d390e04	0.045179382
11	0xbcc6e9b7	-0.024281366
12	0x3d65a4fe	0.056065552
13	0xbc82e203	-0.015976911
14	0x3c0a0507	0.00842405
15	0x3bcb336a	0.0062011974
16	0x3c2b001a	0.010437036
17	0xbd10a0cf	-0.03530961
18	0xbcad0f97	-0.021125598
19	0x3c826ea2	0.015921894
20	0x3d8db918	0.069200695
21	0xbd1e4018	-0.038635343
22	0x3c11677f	0.008874773
23	0x3d42f8ac	0.047600433
24	0x3b373f29	0.002796123
25	0xbc031148	-0.007999726
26	0xbb81fc49	-0.0039668423
27	0x3d38220c	0.044954345
28	0xbd375cd6	-0.04476627
29	0xba29a1ba	-0.00064709375
30	0x3d7b66e2	0.061377414
31	0x3d681788	0.056663066
32	0xbd218533	-0.03943367
33	0xbd54842b	-0.051883858
34	0x3bc8b91a	0.0061255815
35	0xbbebc848	-0.0071955062
36	0x3a34893d	0.0006886905
37	0xbcd081dc	-0.025452547
38	0xbd690b1c	-0.05689536
39	0x3cf62aca	0.0300497
40	0xbca561b6	-0.020188194
41	0x3d35c2ab	0.044375103
42	0xbd73404a	-0.059387483
43	0xbc8d0ae0	-0.0172171
44	0x3cdcbed0	0.026946455
45	0x3d3d6191	0.046235625
46	0xbd0c1fa7	-0.034209874
47	0x3d5aaaea	0.053385653
48	0xba003c8c	-0.00048918347
49	0xbcb47789	-0.022029655
50	0x3c4625fb	0.012094016
51	0x3d7ab71f	0.061209794
52	0xbd5464ac	-0.05185382
53	0x3d0795c0	0.033101797
54	0xbd6b57c6	-0.057456754
55	0x3d05f3a6	0.032703064
56	0x3c960452	0.018312607
57	0x3cd37754	0.025813736
58	0xbd38c959	-0.045113895
59	0x3c317662	0.010831447
60	0xbd8033dd	-0.06259892
61	0x3c299623	0.010350737
62	0x3d4ee845	0.05051448
63	0x3c8c4533	0.01712284
64	0xbbecfe57	-0.007232468
65	0x3d5fb4f2	0.054615922
66	0x3c59b3fa	0.013287539
67	0xbcb06649	-0.021533148
68	0xbcb59b16	-0.022168677
69	0x3d83e882	0.06440832
70	0xbd3689e3	-0.044565093
71	0xbd53c133	-0.05169792
72	0x3d402c0c	0.046917006
73	0xbc6fbed8	-0.014632903
74	0xbd1ffcf0	-0.03905958
75	0x3d682eee	0.05668538
76	0x3cdeb98f	0.02718809
77	0x3d059dac	0.03262107
78	0x3d824fe7	0.063628964
79	0xbcdecd1c	-0.027197413
80	0xbd433004	-0.047653213
81	0x3c6e7416	0.014554044
82	0xbd115ecc	-0.035490796
83	0xbc8639c6	-0.01638497
84	0xbc020c06	-0.007937437
85	0x3ba9af3b	0.00517836
86	0xbc066714	-0.008203287
87	0xbd2e31d3	-0.042527985
88	0x3c34142d	0.010991138
89	0xbd24ab74	-0.040202573
90	0x3c8f0b59	0.017461466
91	0x3d2dd626	0.042440556
92	0xbcef1f4d	-0.02918973
93	0x3c38cba0	0.011279017
94	0x3d6f5240	0.05842805
95	0xbbeb4c5e	-0.0071807345
96	0x3b3cc3f5	0.0028803323
97	0x3c3e5079	0.011615866
98	0x3d50b15d	0.050950397
99	0x3d58ca9f	0.05292761
100	0x3d20c502	0.03925038
101	0x3bcfa3a8	0.006336648
102	0xbd11761f	-0.03551304
103	0xbd6cff54	-0.057860687
104	0xbd6a628f	-0.0572229
105	0x3cabbad8	0.020963117
106	0x3b8a3226	0.004217404
107	0x3d7b07bd	0.061286677
108	0x3d183424	0.0371591
109	0x3cba5fcd	0.02275076
110	0x3c8514fc	0.016245358
111	0x3ce21557	0.027598066
112	0xbc44026e	-0.01196347
113	0xbd43cab1	-0.047800723
114	0xbcc2e13f	-0.023789046
115	0xbcc678c8	-0.024227515
116	0xbce6a735	-0.028155902
117	0xbd5c3b72	-0.05376763
118	0xbd0b62c8	-0.034029752
119	0x3c6ac7b3	0.014329839
120	0xbd5edb10	-0.054408133
121	0x3c82dbbd	0.01597392
122	0x3c009519	0.007848048
123	0x3cca0196	0.02465896
124	0x3cec3379	0.028833138
125	0x3d6df9e1	0.05809963
126	0x3d2fe0d1	0.04293901
127	0x3c9f3315	0.019433537
128	0x3c0f16a1	0.0087334225
129	0x3cf6636f	0.03007671
130	0x3d807aa7	0.06273394
131	0x3cef6dfa	0.029227246
132	0xbd3cca74	-0.04609151
133	0x3d67a95d	0.056558
134	0xbd2a5c87	-0.041592147
135	0x3d7d4e2d	0.061842132
136	0xbc48ee1d	-0.012263802
137	0x3d899aac	0.067189544
138	0x3d4f33f2	0.05058665
139	0xbc826b63	-0.015920347
140	0x3bffeec8	0.0078104474
141	0xbcedc85a	-0.0290262
142	0x3ce93e5a	0.028472114
143	0xbd2d7771	-0.042350236
144	0x3d0d3e47	0.03448322
145	0xbd5947d7	-0.053047027
146	0xbd5608e0	-0.052254558
147	0xbd20f069	-0.039291773
148	0x3d63e504	0.05563833
149	0x3c8d3dba	0.017241348
150	0xbd3acb73	-0.04560418
151	0xbcfeaeea	-0.031089265
152	0x3cffb124	0.031212397
153	0x3d4bec57	0.049785938
154	0xbd3280cb	-0.043579858
155	0x3c8bdda6	0.017073464
156	0x3d0cf159	0.034409855
157	0xbcc70ae9	-0.024297195
158	0xbd742870	-0.059608877
159	0xbce98329	-0.028504925
160	0x3c616b66	0.013758516
161	0xbcc3262f	-0.023821918
162	0xbad25188	-0.0016046027
163	0x3d2d4be6	0.04230871
164	0xbb99a6e2	-0.0046890834
165	0x3d5d7bf5	0.054073293
166	0xbd4aba3d	-0.049494017
167	0x3d36da43	0.044641744
168	0x3d22e2b0	0.039766967
169	0x3d08de3c	0.033415064
170	0x3d56a310	0.052401602
171	0xbd5e531f	-0.05427849
172	0xbd2e58ee	-0.04256528
173	0x3c056cd5	0.008143623
174	0xbc7b4231	-0.0153356055
175	0x3942a6a8	0.00018563366
176	0x3d5a31cd	0.05327015
177	0x3d5c7e3b	0.05383132
178	0xbd1e70f9	-0.038681958
179	0xb97f1fda	-0.0002433056
180	0xbc1ea013	-0.009681719
181	0xbc48c99c	-0.012255099
182	0x3d2c42f2	0.04205603
183	0x3cf66d9c	0.030081563
184	0x3d2a40e2	0.041565783
185	0xbd4e0873	-0.050301027
186	0x3a3650e5	0.0006954803
187	0x3d6fd61e	0.058553807
188	0x3cc4623d	0.023972625
189	0x3d7b8b2e	0.06141203
190	0x3cde1b48	0.027112618
191	0x3d074033	0.03302021
192	0xbd494e62	-0.049147017
193	0xbbd765ea	-0.0065734284
194	0xbb5db954	-0.0033832388
195	0x3cebd892	0.028789792
196	0xbb9e77d6	-0.004836063
197	0xbd5895d4	-0.052877262
198	0x3b8ec0e5	0.004356491
199	0x3cf2034c	0.029542588
200	0x3c855e02	0.016280178
201	0x3d3d0798	0.04614982
202	0xba6214b9	-0.0008624304
203	0x3d356439	0.044285033
204	0xbc92d887	-0.017925514
205	0x3d920ca1	0.07131315
206	0xbbe8ac65	-0.007100629
207	0xbc1c5191	-0.009540931
208	0x3d253482	0.04033328
209	0x3c090a66	0.008364296
210	0xbd356b99	-0.044292066
211	0x3af47882	0.0018651637
212	0xbd371d41	-0.044705633
213	0x3cf6b96f	0.030117719
214	0xbd07ef3d	-0.03318714
215	0x3cab53cc	0.02091398
216	0xbcaa11bf	-0.020760415
217	0xbcac9232	-0.021065805
218	0x3d33dc43	0.04391123
219	0x3bf9f4ff	0.0076280828
220	0xbca04896	-0.019565862
221	0x3beae050	0.0071678534
222	0x3ca29ab5	0.01984916
223	0x3d7ab36e	0.061206274
224	0xbc993e55	-0.01870648
225	0xbc23c7aa	-0.009996334
226	0xbb3f75a1	-0.00292144
227	0x3d72f2e8	0.059313685
228	0x3c380b20	0.011233121
229	0x3d2eb2c2	0.042650945
230	0x3d48561e	0.048910253
231	0x3cd8b206	0.026452076
232	0xbcd1b12d	-0.02559718
233	0xbbb5b076	-0.0055447174
234	0x3d176487	0.036961105
235	0x3d55adf9	0.052167866
236	0x3c48fb10	0.012266889
237	0xbd2db4ff	-0.04240894
238	0x3d40c137	0.047059264
239	0xbd604965	-0.054757494
240	0x3d853600	0.0650444
241	0x3d1bc03c	0.038025126
242	0x3c4c3e77	0.012466065
243	0xbbeab1a4	-0.0071622897
244	0x3d3345b6	0.043767653
245	0xbd177073	-0.036972474
246	0x3d40476e	0.04694312
247	0x3d850211	0.06494535
248	0xbd5619a6	-0.052270554
249	0x3ce012bb	0.027352681
250	0xbd4cd584	-0.050008312
251	0xbce2e7c3	-0.027698403
252	0x3c8fdf3c	0.017562501
253	0x3d83885f	0.06422495
254	0xbd51acf3	-0.051190328
255	0xbc6a6913	-0.014307278

discriminator.3.bias f4 [128]
0	0x3dcf62f9	0.101262994
1	0xbda6e82f	-0.08149754
2	0xbba3ab0d	-0.004994756
3	0x3dfc2526	0.12311773
4	0x3e49c54d	0.1970417
5	0xbd21a192	-0.039460726
6	0x3e151309	0.14558043
7	0x3e437dbc	0.19090933
8	0x3e291f0e	0.16515753
9	0x3e05a732	0.13052061
10	0xbe024c99	-0.12724532
11	0x3da01d1f	0.078180544
12	0x3d03deb2	0.0321948
13	0x3deafb41	0.11473704
14	0xbdbecb9f	-0.093161814
15	0xbda3424e	-0.07971631
16	0x3e2ec4fd	0.17067333
17	0x3d9ebd76	0.077509806
18	0xbd94075d	-0.07227967
19	0xbd6a9224	-0.057268277
20	0x3ddc3990	0.10753167
21	0xbdae8454	-0.08521333
22	0x3d90266a	0.07038577
23	0x3b98fc90	0.0046687797
24	0x3e4e7c86	0.2016469
25	0xbd98f5fb	-0.07468792
26	0x3dd00f72	0.10159196
27	0x3d99f4c0	0.075173855
28	0x3dbf1737	0.093306
29	0x3e227602	0.15865329
30	0x3e0d2a06	0.13785562
31	0xbd01b1cd	-0.031663705
32	0x3d5839f8	0.05278966
33	0x3e2b63d0	0.16737294
34	0x3d9f5afc	0.07781026
35	0x3d4f9ddf	0.050687667
36	0xbde34985	-0.11098007
37	0xbdc205f6	-0.09473793
38	0x3d841633	0.06449547
39	0xbdf855dd	-0.12125752
40	0xbdbd2a63	-0.092366
41	0x3e11a3e8	0.14222682
42	0xbddf117e	-0.10892008
43	0x3e2dfb85	0.16990478
44	0x3df81c44	0.12114766
45	0xbc26771a	-0.010160232
46	0x3dac65bf	0.08417844
47	0x3e343d9b	0.17601626
48	0x3e12e419	0.14344825
49	0xbb19eef7	-0.0023488381
50	0x3cd904e0	0.026491582
51	0x3e17b469	0.14814915
52	0xbdd83cb6	-0.10558455
53	0x3da66ed3	0.08126607
54	0x3dcedbdf	0.10100531
55	0xbd1661ee	-0.036714487
56	0xbd23141a	-0.039814092
57	0x3d827ecb	0.0637184
58	0x3dac00dd	0.08398602
59	0x3d916d08	0.07100874
60	0x3c8465c4	0.016161807
61	0xbda1711f	-0.07882904
62	0xbd318f2d	-0.043349434
63	0xbdc49364	-0.09598425
64	0x3d15944a	0.036518373
65	0xbd6ac8fd	-0.057320584
66	0x3d6802c9	0.05664328
67	0x3dc6ad3c	0.097010106
68	0x3dff6ce7	0.12471943
69	0x3db4e699	0.088330455
70	0xbcddb188	-0.027062193
71	0x3e3c77e1	0.18405105
72	0xbd4ad128	-0.049515873
73	0xbc65d940	-0.014028847
74	0xbcec1988	-0.028820768
75	0x3e18dbac	0.14927548
76	0x3dc90a76	0.098164484
77	0x3e3a7547	0.182088
78	0xbcc59b55	-0.02412192
79	0x3e3807a2	0.17971662
80	0xbd3d142e	-0.046161823
81	0x3de513d9	0.11185426
82	0x3e3da3fe	0.1851959
83	0x3e26e3c0	0.16297817
84	0x3e24bc83	0.16087537
85	0xbca33614	-0.019923247
86	0xbc3b6b85	-0.011439209
87	0xbdf7af13	-0.1209394
88	0x3da317f3	0.07963552
89	0xbd934181	-0.07190228
90	0xbd2fddd9	-0.04293618
91	0x3d923a68	0.07140046
92	0x3e60fa08	0.2197038
93	0xbd4aa5a6	-0.04947438
94	0xbc94126b	-0.018075189
95	0x3e3d1883	0.18466382
96	0xbdc9c7d8	-0.0985257
97	0x3e060247	0.13086806
98	0x3db30019	0.08740253
99	0x3dba23c3	0.09088852
100	0xbd3e4e59	-0.046461437
101	0x3db4aa9f	0.08821606
102	0x3e31529c	0.17316669
103	0xbc00b2f7	-0.007855169
104	0x3d0a40aa	0.033753075
105	0xbdda67f4	-0.10664359
106	0xbdb05996	-0.08610837
107	0x3da1c7bd	0.07899425
108	0x3d1b3b61	0.037898425
109	0x3e001a58	0.1251005
110	0xbcfc4b53	-0.030797636
111	0xbd9d4f26	-0.07681112
112	0x3e62184b	0.2207958
113	0xbc22b2b8	-0.009930305
114	0xbd8f77a1	-0.07005239
115	0x3dd61f6a	0.104552105
116	0xbd8b5577	-0.068034105
117	0x3dedf96f	0.11619841
118	0x3db6b93d	0.0892205
119	0x3e17eb5e	0.14835879
120	0xbd563f25	-0.052306313
121	0x3def9a3f	0.11699342
122	0xbdf23618	-0.11826724
123	0x3e1c1696	0.15242991
124	0xbd3606c6	-0.044440053
125	0x3e0dff0f	0.13866828
126	0x3e1bd4cc	0.15217894
127	0x3e50bdb3	0.20384865

discriminator.6.weight f4 [64, 128]
0	0x3db621e2	0.088931814
1	0x3db9cec3	0.0907264
2	0xbcb7e40e	-0.022447612
3	0x3d6d98b5	0.05800696
4	0x3d633a7a	0.05547569
5	0x3d2d0f80	0.04225111
6	0xbcb556b6	-0.022136074
7	0xbbedfa7e	-0.007262527
8	0x3bbb654c	0.0057188626
9	0x3ccb23dc	0.024797373
10	0x3a897806	0.001048804
11	0xbc442ae6	-0.011973118
12	0xba8e54d9	-0.0010859027
13	0xbce5a83e	-0.028034326
14	0x3d980419	0.074226566
15	0xbcedd31b	-0.029031327
16	0x3a4b890c	0.0007764257
17	0xbdb46597	-0.08808439
18	0x3d70569d	0.05867635
19	0x3db92363	0.090399526
20	0x3a806add	0.0009797473
21	0xbd83d2d6	-0.06436698
22	0x3d4d173f	0.050070997
23	0xbb6ea4ac	-0.003641407
24	0xbcba1210	-0.022713691
25	0xbcc0cbf4	-0.023534752
26	0x3d2a1e1c	0.04153262
27	0x3d9d99d6	0.076953575
28	0xbcd4d13b	-0.025978675
29	0xbd6884fc	-0.05676745
30	0xbd541954	-0.051781967
31	0xbcd70cd8	-0.026251242
32	0xbd973e2e	-0.07384907
33	0xbd9c5231	-0.07632864
34	0xbce8c813	-0.028415715
35	0x3d0fcdae	0.03510826
36	0x3c78d85a	0.015188301
37	0x3d6923af	0.056918796
38	0x3d8c078b	0.06837376
39	0x3d9c169e	0.076215014
40	0xbd5bb512	-0.05363948
41	0xbd9e8439	-0.07740063
42	0x3daf842c	0.08570132
43	0x3c4af9cd	0.012388659
44	0xbcfe2b54	-0.03102652
45	0xbd8112f6	-0.06302445
46	0xbd55bb59	-0.05218062
47	0xbcf5fb95	-0.03002719
48	0x37a0b248	1.9156505e-05
49	0xbd8b58d9	-0.06804056
50	0x3d298e32	0.041395374
51	0xbd800044	-0.06250051
52	0x3d98549c	0.07438013
53	0xbd33d90c	-0.043908164
54	0x3cba3d9f	0.022734461
55	0x3d14e98b	0.036355536
56	0x3da586fa	0.08082385
57	0xbc79676c	-0.015222412
58	0xbbc23b8c	-0.0059275087
59	0xbd01caaf	-0.031687435
60	0xbda09091	-0.07840074
61	0x3d81116d	0.06302152
62	0xbdaeedcd	-0.08541451
63	0x3d14d506	0.036335967
64	0x3d84fa14	0.06493011
65	0xbd7f9d6f	-0.062406
66	0xbd13fd5e	-0.0361303
67	0xbc194554	-0.009354908
68	0x3dad1af2	0.08452405
69	0xbd071d0b	-0.032986682
70	0x3d3c54fb	0.04597948
71	0x3cdab8d1	0.026699455
72	0xbc5d4457	-0.013505063
73	0x3d6e75c6	0.058217786
74	0x3d3617af	0.04445618
75	0xbb429e8e	-0.0029696557
76	0x3c863da0	0.016386807
77	0x3ca73c6c	0.020414554
78	0xbd4affc5	-0.049560327
79	0x3d950591	0.07276452
80	0xbd997b47	-0.074942164
81	0x3cc4de58	0.024031803
82	0xbc61062f	-0.013734384
83	0xbc5d1862	-0.013494583
84	0x3d7d12d1	0.061785523
85	0xbd7e1917	-0.062035646
86	0x3c53b2e6	0.012921071
87	0x3d911f6c	0.07086071
88	0xbd7e240c	-0.062046096
89	0xbd4ce1dc	-0.050020084
90	0xbd520a98	-0.051279634
91	0x3d92d4b9	0.0716948
92	0xbdb83c13	-0.08995833
93	0x3bcf7a33	0.006331706
94	0xbd608776	-0.054816686
95	0xbc8b770c	-0.01702454
96	0x3da3e765	0.080031194
97	0x3d07b8de	0.033135287
98	0x3cd50266	0.02600212
99	0x3cd67850	0.026180416
100	0x3d8dc7f0	0.06922901
101	0xbd2a7d76	-0.041623555
102	0xbdd93f5d	-0.10607789
103	0xbcbae9cd	-0.022816563
104	0x3d072d49	0.03300217
105	0xbd53be89	-0.05169538
106	0x3ca4e98a	0.020130891
107	0x3ba20708	0.004944686
108	0x3db011ba	0.08597131
109	0x3c9b17a7	0.018932177
110	0xbd7c6d7a	-0.061627842
111	0xbb64a130	-0.0034886114
112	0xbd88c279	-0.06677718
113	0xbcb97e14	-0.022643127
114	0x3d8706f4	0.06593123
115	0x3d8c2c71	0.06844414
116	0x3d79aa33	0.06095333
117	0x3c05b4af	0.008160754
118	0xbc67ac9a	-0.0141402725
119	0x3d1437c8	0.03618601
120	0xbd885409	-0.066566534
121	0x3d1eb6c8	0.038748533
122	0x3d3fbdc6	0.04681184
123	0xbca6e9d7	-0.020375175
124	0x3d377524	0.04478945
125	0xbda48331	-0.08032835
126	0x3c8fd923	0.017559594
127	0xbb7aaefd	-0.0038251274
128	0x3cb8649f	0.022508917
129	0x3d792b58	0.06083235
130	0x3c6977f8	0.014249794
131	0xbd19a154	-0.03750737
132	0xbca1c125	-0.019745419
133	0xbc48b87d	-0.012251017
134	0x3d64306b	0.055710237
135	0x3d5428ea	0.05179683
136	0x3c3e620b	0.011620055
137	0x3d8872e8	0.06662542
138	0xbd5c82c8	-0.05383566
139	0xbdb0c52c	-0.086313576
140	0x3c637e23	0.013885054
141	0x3ca86ef8	0.020560727
142	0xbd918b5e	-0.0710666
143	0x3d8c10e5	0.0683916
144	0x3c8b47ec	0.017002068
145	0x3d11e84a	0.03562192
146	0xbc9edbc6	-0.019391906
147	0xbcdf637e	-0.027269121
148	0xbc68a944	-0.014200512
149	0xbd0ecd2d	-0.03486364
150	0x3cc85d45	0.024458537
151	0xbc9c70c7	-0.019096745
152	0x3d5b7e2b	0.05358712
153	0x3ca0adec	0.019614182
154	0xbdae3cfc	-0.085077256
155	0xbd03f8f0	-0.032219827
156	0xbb8447d3	-0.0040368824
157	0xbd2f2189	-0.04275659
158	0x3d02ce3e	0.03193497
159	0xbd18fb52	-0.037349053
160	0x3d43b424	0.047779217
161	0x3c20734c	0.009793114
162	0xbd453a61	-0.048151378
163	0xbd165e73	-0.036711168
164	0x3d76af7f	0.06022596
165	0x3c8a4547	0.016878737
166	0x3d65f655	0.056143124
167	0x3db77cde	0.089593634
168	0x3b425550	0.00296529
169	0xbcb1f2d2	-0.021722231
170	0x3d8e8e40	0.06960726
171	0x3d45e005	0.048309345
172	0xbd8ccf6f	-0.06875502
173	0xba2ea94c	-0.00066628004
174	0xbd572f53	-0.052535366
175	0x3c6f3884	0.014600877
176	0xbd54db8c	-0.05196719
177	0xbdacbb6d	-0.08434186
178	0xbcd881de	-0.026429113
179	0x3d9046b0	0.070447326
180	0x3d8c32bc	0.06845614
181	0xbd372a63	-0.044718158
182	0x3c60c1a4	0.0137180425
183	0x3daf8a4e	0.085713014
184	0x3d89fc43	0.06737568
185	0x3d8afa05	0.06785969
186	0xbc9599b0	-0.01826176
187	0xbae7242d	-0.0017634683
188	0x3c880c42	0.016607407
189	0x3da5823a	0.08081479
190	0x3d19de7e	0.0375657
191	0xbd8f5ec6	-0.070004985
192	0xbd9e8f51	-0.07742179
193	0x3d7deb7f	0.061992165
194	0x3c9e1b6b	0.019300183
195	0xbda2202d	-0.07916293
196	0x3d36b3f4	0.04460521
197	0xbd833af4	-0.06407729
198	0x3cb620fb	0.022232523
199	0x3d99ed4f	0.07515966
200	0x3d5812b0	0.052752197
201	0x3d92d251	0.07169021
202	0x3db994d4	0.0906159
203	0x3d82e8ba	0.06392045
204	0xbc997fd7	-0.018737717
205	0xbcf8e435	-0.030382255
206	0xbd3170e1	-0.04332054
207	0xbd23294b	-0.039834302
208	0x3cfe9e15	0.031081239
209	0xbd321efd	-0.043486584
210	0x3c159bab	0.009131352
211	0x3d80247e	0.0625696
212	0x3d2396f3	0.03993888
213	0xbc344715	-0.011003275
214	0x3da835c0	0.08213377
215	0xbd00fa6d	-0.031488825
216	0xbd3c164e	-0.04591971
217	0xbc90ff75	-0.017699936
218	0x3da780f9	0.081788965
219	0xba9cb13c	-0.0011954675
220	0xbd52ab6a	-0.051433004
221	0x3cf32c91	0.029684337
222	0x3da65ebf	0.0812354
223	0xbd4a9d02	-0.04946614
224	0x3c06a0f6	0.008217087
225	0xbdbdbb02	-0.092641845
226	0x3c980600	0.018557549
227	0xbca88188	-0.020569578
228	0x3db419bc	0.08793971
229	0x3d551571	0.0520224
230	0xbd763570	-0.060109556
231	0x3d1b712a	0.03794972
232	0xbc858fdf	-0.016303955
233	0x3da355ad	0.07975326
234	0x3cbcfa39	0.023068534
235	0xbb980f65	-0.004640507
236	0xbd8e163c	-0.069378346
237	0x3d3527fa	0.044227578
238	0xbd6e266c	-0.05814211
239	0xbd6aad25	-0.05729403
240	0xbca8b709	-0.02059509
241	0x3d11268c	0.03543715
242	0x3d97b17b	0.074068986
243	0xbd23f672	-0.04002995
244	0x3d4d6773	0.050147485
245	0xbd20734b	-0.039172452
246	0xbd3c7147	-0.046006467
247	0xbca4669d	-0.020068461
248	0xbcfccedc	-0.030860357
249	0xbd9b6a34	-0.07588616
250	0x3d9e7b17	0.07738321
251	0xbd8b4fa1	-0.068022974
252	0xbd3de122	-0.04635728
253	0x3c1ca133	0.009559917
254	0xbc3d74c2	-0.011563482
255	0x3d6e4718	0.05817327

discriminator.6.bias f4 [64]
0	0xbd8adfdd	-0.0678098
1	0xbdbd7325	-0.09250478
2	0x3df8b534	0.12143937
3	0x3d2cf3b6	0.04222461
4	0x3cad2002	0.021133427
5	0x3d6b9b53	0.057521176
6	0xbbe9180e	-0.0071134632
7	0xbdefd43c	-0.11710402
8	0xbab68dbc	-0.0013927738
9	0xbde325ee	-0.11091219
10	0x3d5a5ca8	0.05331102
11	0xbe1fce25	-0.15605982
12	0xbdd0000c	-0.10156259
13	0xbda63a29	-0.08116562
14	0x3ce2bbf2	0.02767751
15	0xbd3722a2	-0.044710763
16	0xbdf6d9cf	-0.120532624
17	0xbca2681f	-0.01982504
18	0x3ce72e2a	0.028220255
19	0xbd38279d	-0.044959653
20	0xbe0c8cb5	-0.1372555
21	0xbcfa317d	-0.030541176
22	0x3d14ed8a	0.036359347
23	0x3d9db281	0.077000625
24	0x3d140aae	0.036142997
25	0xbd7b6542	-0.061375864
26	0x3d6f74e5	0.05846109
27	0xbd27d8aa	-0.04097811
28	0x3d047c0b	0.03234486
29	0x3e1228d2	0.14273384
30	0x3c9cd5dd	0.019144947
31	0x3dcc5d98	0.09978789
32	0x3e010d85	0.12602814
33	0x3d864575	0.065562166
34	0x3df0d70a	0.117597654
35	0x3d8ad842	0.06779529
36	0x3e1c5519	0.15266837
37	0x3d878ae1	0.06618286
38	0x3e37d346	0.17951688
39	0x3de65f27	0.112486176
40	0x3d36a5a6	0.04459157
41	0xbdf720db	-0.120668136
42	0x3d8a1cef	0.067438
43	0xbddc152c	-0.10746226
44	0x3de9879e	0.1140282
45	0xbd60d747	-0.054892804
46	0x3d63c317	0.055605974
47	0x3d071fda	0.03298936
48	0x3df552ef	0.11978709
49	0x3dca8487	0.09888559
50	0xbcac91a3	-0.021065539
51	0x3d452ab5	0.04813643
52	0x3dddd028	0.10830718
53	0xbb42338e	-0.002963278
54	0x3d84ea3f	0.064899914
55	0x3d98911c	0.074495524
56	0x3d4e67e2	0.05039204
57	0x3d35535f	0.044268962
58	0xbe17f707	-0.14840327
59	0xbe05f5a8	-0.13081992
60	0x3ce87fbf	0.028381227
61	0xbde0bd94	-0.10973659
62	0x3d3f952e	0.04677313
63	0x3de11747	0.10990768

discriminator.9.weight f4 [1, 64]
0	0x3ca62e5e	0.020285781
1	0x3db05a0d	0.08610926
2	0xbda4e063	-0.08050611
3	0xbdb22ea0	-0.08700299
4	0x3df88b9f	0.121360056
5	0xbde5f3f3	-0.1122817
6	0x3cc74edd	0.024329597
7	0x3dec8198	0.115481555
8	0x3e0af8a9	0.13571419
9	0x3dd4a9c6	0.10383944
10	0xbccfc641	-0.02536309
11	0x3cda53d3	0.026651299
12	0x3de002c9	0.10938031
13	0x3cf04d73	0.029333806
14	0xbd61994c	-0.055077836
15	0x3dbe8208	0.09302145
16	0x3d24f343	0.040271055
17	0x3d21034e	0.039309792
18	0xbd31f3d5	-0.043445427
19	0x3dda9bcd	0.10674248
20	0x3dab58b9	0.08366532
21	0xbd8ae80f	-0.06782543
22	0xbd72d167	-0.059281733
23	0xbe108563	-0.14113383
24	0x3daa655a	0.083201125
25	0x3d6841cd	0.056703378
26	0xbd70c69a	-0.05878315
27	0x3de08390	0.109625936
28	0xbe0a8410	-0.1352694
29	0xbe559689	-0.20858206
30	0x3dfcdf73	0.12347307
31	0xbd0a3abd	-0.033747423
32	0xbdb81ac3	-0.089894794
33	0xbdc249b8	-0.09486717
34	0xbe0ad150	-0.13556409
35	0xbe039dc1	-0.12853147
36	0xbe3f253d	-0.18666549
37	0xbe17291a	-0.14761773
38	0xbe005572	-0.12532595
39	0xbd33245e	-0.043735854
40	0xbdb9d64d	-0.09074078
41	0x3d50e8e2	0.051003344
42	0xbd001c2e	-0.031276874
43	0x3dfe0581	0.124033935
44	0xbdd1ce17	-0.10244387
45	0x3dde1e61	0.10845638
46	0xbdf76c21	-0.12081171
47	0x3df7b0f1	0.12094296
48	0xbdabe73b	-0.08393713
49	0xbd7ea37c	-0.06216763
50	0x3d49992e	0.04921835
51	0xbdcb7d8f	-0.09936058
52	0xbe0ab28f	-0.13544677
53	0x3b47cf9a	0.003048873
54	0xbdad041e	-0.08448051
55	0xbdedd58f	-0.11612999
56	0xbe047f65	-0.12939222
57	0xbde5e5d6	-0.11225478
58	0x3d53db67	0.05172291
59	0x3dcb27ea	0.099197224
60	0x3cd31930	0.025768846
61	0x3dc17cb4	0.09447613
62	0xbd2a8501	-0.04163075
63	0xbd7e1222	-0.06202901

classifier.0.weight f4 [128, 148]
0	0xbd0ff089	-0.0351415
1	0xbd98d814	-0.07463089
2	0xbda0412d	-0.07824931
3	0x3d866df2	0.06563939
4	0x3dd4bb10	0.10387242
5	0x3a2dc897	0.00066293165
6	0xbd1eb5e2	-0.038747676
7	0xbe20f2f5	-0.15717681
8	0xbc35276a	-0.01105676
9	0x3d80c6c3	0.06287911
10	0x3d8fab21	0.07015062
11	0xba53cd7c	-0.0008079631
12	0xbd42e12f	-0.047578033
13	0x3c632d22	0.013865741
14	0x3da19390	0.078894734
15	0x3c602569	0.013680794
16	0xbd130744	-0.0358956
17	0x3dd981a5	0.10620431
18	0x3d506c16	0.05088433
19	0x3d841bef	0.064506404
20	0x3ccff9dd	0.025387699
21	0x3ce7cd1b	0.028296044
22	0x3d5358a4	0.051598206
23	0xbd899a42	-0.067188755
24	0x3b0922d0	0.002092529
25	0xbda2cef6	-0.07949631
26	0x3d1d8e78	0.038465947
27	0xbcf20aa0	-0.029546082
28	0x3de06157	0.10956066
29	0xbd91120a	-0.07083519
30	0xbd627b31	-0.055293266
31	0xbd439f9f	-0.04775965
32	0x3e0782f0	0.13233542
33	0x3c74347f	0.014905094
34	0x3d91c909	0.071184225
35	0xbde9e670	-0.114209056
36	0x3cc0b7b6	0.0235251
37	0x3dd16662	0.10224606
38	0xbda2843d	-0.07935379
39	0x3d826418	0.063667476
40	0xbd22acb7	-0.039715495
41	0xbd516a61	-0.05112684
42	0xbc6ab135	-0.014324476
43	0xbe09ac6f	-0.13444684
44	0x3e16445d	0.14674516
45	0xbddd2940	-0.107988834
46	0x3dcc318d	0.099703886
47	0xbe5f8d6e	-0.21831295
48	0xbe423359	-0.189649
49	0x3ca6666e	0.020312514
50	0xbd94374c	-0.072371095
51	0x3db75db4	0.08953419
52	0xbdb42903	-0.08796885
53	0xbe2e5a38	-0.17026603
54	0xbd61a0c6	-0.055084966
55	0x3e3480d1	0.17627265
56	0x3cf140db	0.02944987
57	0xbdcd4cad	-0.1002439
58	0xbdc272f7	-0.09494584
59	0x3d2528b6	0.040322028
60	0xbdaa7722	-0.08323504
61	0xbdfd84c3	-0.12378838
62	0x3e328f7f	0.17437552
63	0xbd90a999	-0.07063598
64	0x3d89c975	0.06727878
65	0xbd20a656	-0.03922113
66	0xbce4dab3	-0.027936315
67	0xbda4c444	-0.08045247
68	0x3c6d645d	0.0144892605
69	0xbc8182e3	-0.015809482
70	0xbdd3708f	-0.10324203
71	0xbd877f7d	-0.06616113
72	0xbe242736	-0.16030583
73	0xbd2999f3	-0.041406583
74	0x3ce5e0ac	0.028061233
75	0x3e3316c4	0.17489153
76	0xbdeed75c	-0.1166217
77	0x3c2eac95	0.010661264
78	0x3e534bab	0.20634334
79	0x3d630542	0.055424936
80	0xbca0fad1	-0.019650849
81	0xbcdb1f6c	-0.026748382
82	0x3c7267d5	0.014795263
83	0x3d8d9066	0.069123074
84	0x3ce276af	0.027644483
85	0xbdd08011	-0.10180677
86	0xbc9635e0	-0.018336236
87	0x3de9058b	0.1137801
88	0x3b7f08ec	0.003891523
89	0x3bf0dfee	0.0073509132
90	0xbd03ebe4	-0.032207385
91	0x3c2d32eb	0.010571222
92	0x3e2b6769	0.16738667
93	0xbe1322f0	-0.14368796
94	0xbcba7d2c	-0.022764765
95	0xbd888c92	-0.06667437
96	0xbdc7da5f	-0.09758448
97	0x3db6db48	0.08928543
98	0xbba3d3ef	-0.0049996297
99	0x3d8738fb	0.06602665
100	0xbe22fe0c	-0.15917224
101	0xbe2540c7	-0.16137992
102	0x3c98fe4c	0.018675946
103	0xbdaa7ed9	-0.083249755
104	0x3d880606	0.06641774
105	0xbde31017	-0.11087053
106	0xbdd768fd	-0.10518072
107	0x3e02a1f9	0.127571
108	0xbb511580	-0.0031903684
109	0x3d27d349	0.04097298
110	0x3e3fb36b	0.18720786
111	0xbd1ce48a	-0.03830389
112	0xbc6285ee	-0.013825877
113	0x3e186503	0.14882283
114	0x3d136424	0.035984173
115	0xbdb174e7	-0.086648755
116	0xbdaf0f0e	-0.08547793
117	0xbd35a740	-0.044348955
118	0x3d683404	0.05669023
119	0x3d1eb8ac	0.038750336
120	0x3cc208a5	0.023685763
121	0x3d65a6ed	0.056067396
122	0x3e00f501	0.12593462
123	0xbe221514	-0.15828353
124	0xbce2900f	-0.027656583
125	0x3dd9db23	0.106375
126	0xbc0354bc	-0.008015808
127	0x3c950d96	0.018194955
128	0xbc1c499c	-0.009539034
129	0xbdd0bbd2	-0.10192074
130	0x3da192b3	0.07889309
131	0x3d72cefa	0.05927942
132	0x3e2131d4	0.15741664
133	0xbd84b97e	-0.06480692
134	0x3d54f2da	0.051989414
135	0xbe1112d3	-0.14167337
136	0x3e031a25	0.12802942
137	0x3d337e7f	0.043821808
138	0x3c0f4e6f	0.008746727
139	0x3c35ac9f	0.011088519
140	0x3cef5ed7	0.029220028
141	0xbd73e740	-0.05954671
142	0x3de34487	0.11097055
143	0xbd3db8a2	-0.046318658
144	0xbdae366e	-0.085064754
145	0x3d137e9d	0.03600942
146	0xbcbedea8	-0.02329953
147	0x3db23bea	0.08702834
148	0xbd5d6266	-0.05404892
149	0x3cd36e93	0.025809562
150	0x3d7e1a38	0.062036723
151	0xbccbf8ea	-0.024898965
152	0x3dcea0ac	0.100892395
153	0xbcaf1c36	-0.021375757
154	0x3d06ebf9	0.032939885
155	0x3c83bba9	0.016080694
156	0xbd0104be	-0.031498663
157	0x3cb9cb88	0.02268006
158	0xbdadb04f	-0.08480894
159	0xbc7d199c	-0.015448
160	0x3c24c87c	0.010057565
161	0xbd544824	-0.05182661
162	0xbd3135e5	-0.04326429
163	0x3bdb3640	0.0066898167
164	0x3cfc1a33	0.030774212
165	0xbd7256cd	-0.05916481
166	0xbd56bc22	-0.05242551
167	0x3d49442c	0.04913728
168	0xbcec32f8	-0.028832898
169	0x3d234687	0.039862182
170	0xbd269b40	-0.0406754
171	0x3d5cf45e	0.053943984
172	0x3c9c4b35	0.01907883
173	0x3d13e596	0.036107622
174	0x3c040ebf	0.008060156
175	0x3d281990	0.041040003
176	0x3c2034f2	0.009778248
177	0xbd8dced7	-0.06924217
178	0x3d050ed8	0.03248486
179	0xbd2a9b30	-0.041651905
180	0x3dd140f4	0.10217467
181	0x3d94eef8	0.07272142
182	0x3d6e8f5e	0.058242194
183	0x3dd02137	0.10162585
184	0xbdc6701e	-0.096893534
185	0x3de93c40	0.11388445
186	0x3b6c0d21	0.0036018568
187	0xbe247bfb	-0.1606292
188	0xbb88a4ed	-0.0041700513
189	0xbdcb8993	-0.099383496
190	0x3ce2302e	0.027610864
191	0x3c89ba14	0.016812362
192	0x3e36ae52	0.17839935
193	0xbda62c9b	-0.081139766
194	0xbcc1e99f	-0.02367097
195	0x3d83c291	0.06433595
196	0xbcd21464	-0.025644489
197	0x3db9a710	0.09065068
198	0xbb90da08	-0.0044205226
199	0xbe3fe346	-0.18739042
200	0x3cc22c39	0.023702728
201	0x3d4d49bb	0.050119143
202	0x3d8b2fd7	0.06796234
203	0xbe001415	-0.1250766
204	0x3d5620f2	0.052277513
205	0x3d9e43ff	0.07727813
206	0x3cbae7b2	0.022815559
207	0x3e0cef65	0.13763197
208	0x3d0750b3	0.033035945
209	0xbd87c403	-0.06629183
210	0xbe4df17d	-0.20111652
211	0x3bc5844d	0.0060277344
212	0xbd61ad41	-0.05509687
213	0x3e27befd	0.1638145
214	0xbd031110	-0.031998694
215	0xbd10f094	-0.035385683
216	0x3ddbcad1	0.107320435
217	0xbd998f10	-0.0749799
218	0xbd9bd087	-0.07608133
219	0x3de587fa	0.11207576
220	0xbc303bfa	-0.010756487
221	0x3dadd0f7	0.084871225
222	0xbd56bb18	-0.05242452
223	0xbc8ae65a	-0.016955543
224	0x3d4119d3	0.04714377
225	0x3dad81cb	0.08472022
226	0xbd873208	-0.066013396
227	0x3d6e94c3	0.05824734
228	0xbd7a383c	-0.061088786
229	0x3e134ed6	0.14385542
230	0xbdc0db70	-0.094168544
231	0x3c459ae7	0.012060857
232	0x3ca16f2e	0.019706335
233	0x3c53949a	0.012913847
234	0xbe35447d	-0.17701907
235	0xbdef00b1	-0.11670054
236	0x3d6cc874	0.057808354
237	0xbd74d3dc	-0.059772357
238	0xbd2f9605	-0.04286768
239	0x3ca46eec	0.020072423
240	0xbd9ce0b2	-0.07660045
241	0xbd8a87af	-0.06764161
242	0xbd12beab	-0.035826366
243	0x3d20be82	0.039244182
244	0x3de616e6	0.11234836
245	0x3d09a041	0.033600096
246	0xbe21af42	-0.15789512
247	0xbc51bbca	-0.01280112
248	0xbd46d19f	-0.048539754
249	0x3d9327ca	0.071853235
250	0x3d109a72	0.03530354
251	0x3d8d9742	0.06913616
252	0xbcaae678	-0.02086185
253	0x3d9d1ffd	0.07672117
254	0x3dcb555a	0.09928389
255	0x3dad8226	0.084720895

classifier.0.bias f4 [128]
0	0xbb21d728	-0.0024694894
1	0x3da2c859	0.079483695
2	0x3c8dbf4f	0.017303137
3	0x3e7eed00	0.24895096
4	0xbe55273b	-0.20815746
5	0x3e0d30d9	0.13788165
6	0x3e1e848c	0.1548025
7	0x3c468335	0.012116243
8	0x3e15fe0c	0.14647692
9	0x3d98da3d	0.07463501
10	0x3e295fdb	0.16540472
11	0x3de5618c	0.11200246
12	0x3e47cecb	0.19512479
13	0x3e2c7404	0.16841131
14	0xbd917348	-0.07102066
15	0x3e47103d	0.19439788
16	0x3e32c910	0.17459512
17	0x3e3e606c	0.1859147
18	0x3e328beb	0.17436187
19	0x3e661717	0.22469746
20	0x3e04beb7	0.12963377
21	0x3dcb9d4e	0.09942113
22	0x3e50a5d0	0.20375752
23	0x3e0f9d63	0.14024882
24	0xbdb59495	-0.088662304
25	0x3e69c312	0.2282832
26	0x3e1d9a81	0.1539097
27	0x3e339bdc	0.17539924
28	0x3de4af1c	0.11166212
29	0x3e1d51b9	0.15363206
30	0x3e03225a	0.12806073
31	0xbd4054fc	-0.046956047
32	0x3e51828e	0.20459959
33	0x3dbac496	0.09119527
34	0x3e23e81f	0.16006516
35	0x3e6bd3d9	0.23030032
36	0x3e6044d2	0.21901253
37	0x3e080b0c	0.13285464
38	0x3daded9f	0.08492588
39	0x3d84b6d7	0.064801864
40	0x3e0e69bf	0.13907526
41	0x3de01417	0.10941332
42	0x3dba3bfe	0.09093474
43	0x3e0971af	0.13422273
44	0x3d995181	0.07486249
45	0x3dd444ae	0.10364662
46	0x3e7e4fd7	0.24835144
47	0x3ddc29c0	0.10750151
48	0x3e257235	0.16156848
49	0x3dae3346	0.085058734
50	0x3e52cbbc	0.20585531
51	0x3df85a2b	0.12126573
52	0xbdc3b5ed	-0.09556184
53	0x3e09b216	0.1344684
54	0x3db0f110	0.08639729
55	0x3e46567b	0.19368927
56	0xbdaa552a	-0.08317025
57	0x3e6b1af5	0.22959502
58	0x3e392044	0.18078715
59	0x3e3a1703	0.18172841
60	0x3dde09af	0.10841691
61	0x3e00705a	0.12542859
62	0x3e02e72d	0.12783499
63	0x3e3194ab	0.17341869
64	0x3e2ce26d	0.1688325
65	0x3e637844	0.22213846
66	0x3d9e9487	0.07743173
67	0x3bf90b32	0.0076002115
68	0x3e119d3a	0.14220133
69	0x3e4e8cf9	0.20170964
70	0x3d89cf6b	0.06729015
71	0x3cd97989	0.02654721
72	0x3e4d91b6	0.20075116
73	0x3e32efc3	0.17474274
74	0x3d4416e3	0.04787339
75	0x3ce51067	0.027961923
76	0x3e5423c2	0.20716766
77	0x3e1f05d0	0.15529561
78	0x3e65fa84	0.22458845
79	0x3e883e5c	0.26610076
80	0x3e13c47f	0.14430426
81	0x3d0cfbc7	0.0344198
82	0x3d3d38b8	0.04619667
83	0x3db389a4	0.08766487
84	0x3e3cd1f8	0.18439472
85	0x3db62bb4	0.088950545
86	0x3e01f020	0.12689257
87	0x3e75e35e	0.24012515
88	0x3e13ed17	0.14445911
89	0x3e0fe2ba	0.14051333
90	0x3e031765	0.12801893
91	0x3e1bb242	0.15204719
92	0x3e24ebec	0.16105622
93	0x3e2b1b68	0.16709673
94	0x3e45621d	0.19275708
95	0x3e24ebc8	0.16105568
96	0x3cff1de3	0.03114218
97	0x3dfc2ff0	0.12313831
98	0x3e3b566e	0.18294689
99	0x3d85d708	0.065351546
100	0x3e58cd03	0.21171956
101	0x3ded32e2	0.11581971
102	0x3e6b21dc	0.22962135
103	0x3da7ba69	0.08189852
104	0x3e3efd46	0.18651304
105	0x3c822710	0.015887767
106	0x3e38ba50	0.18039823
107	0x3d3eb6e8	0.04656115
108	0x3e20fa4a	0.15720478
109	0x3e4e5a9e	0.20151755
110	0x3d90820e	0.07056056
111	0x3e47fd43	0.19530205
112	0x3dc8c631	0.09803427
113	0x3d9d3087	0.076752715
114	0x3e0272d2	0.12739113
115	0x3dec4b2d	0.11537776
116	0x3e740fdb	0.23834173
117	0x3e817d80	0.2529106
118	0x3e54a242	0.20765021
119	0x3dd0f89f	0.10203671
120	0x3dd03306	0.10165982
121	0x3dc65eab	0.09686025
122	0x3e2ff45b	0.17183058
123	0x3e598485	0.21241958
124	0x3cd4a627	0.025958134
125	0x3e0030b7	0.12518583
126	0x3e0daf44	0.1383639
127	0x3dc54393	0.096320294
